2017_Transformer/Transformer/output/simple_model.pth (torch_old, 28560 bytes, 3 tensors)

embedding.weight f4 [54, 64]
-0.038009204 0.100483745 0.16877837 1.610744 0.97333795 1.0020455 -0.54068077 -0.5666027
-2.620859 -2.1785004 0.764532 -1.3483963 -1.4329956 -0.39953563 1.579017 0.13606
0.80275583 -0.39569837 1.041886 0.4282942 -1.0112652 0.6411488 2.2910428 -1.9378201
1.0960913 1.4373641 0.4347535 0.9281995 0.10990643 -1.4525448 0.024322111 0.14678788
-0.74774534 -0.8069868 1.7651936 0.1117476 0.18498512 1.2882751 1.5961319 -2.6489685
1.5758576 0.58019257 -0.41086456 1.8118653 0.5767922 0.27956018 0.85416347 0.5086102
1.0029243 0.05536384 -0.22929919 -0.6274126 0.17375408 0.20051284 -0.7867466 0.03451723
0.14688359 0.5355921 0.15788817 1.4369143 -2.3497462 2.0606487 1.807487 0.17973945
1.4160862 -1.573821 0.64164376 1.8181429 -0.25229412 1.580618 0.9533719 0.25621194
0.8422933 0.19352648 1.6543952 1.3839276 0.75502115 0.06489015 0.37131557 1.2206203
0.28906685 1.5740798 0.71738136 2.0811036 -1.739718 -1.9120214 -2.219038 1.1321256
0.05575658 -0.05690192 -0.081478626 1.3238785 -1.5451648 0.2158194 -0.039582834 -0.6417732
-0.34662622 -0.15144902 -0.2847731 -0.554201 1.0790936 -0.28164637 -0.5162183 0.27517843
0.7696269 0.8944816 0.19859423 1.3817348 -1.0405636 1.0802985 0.11133569 -1.263724
1.1329312 0.014371555 -0.96709704 -0.91198653 -0.033698834 -0.071031876 -1.7797465 1.1796778
-0.5613973 -0.8228329 -0.42689496 -0.9553895 0.5039319 -0.7410913 1.2047707 -0.14133368
0.17254998 0.009455459 1.4245023 0.28444046 0.53822935 0.71562344 -1.0826181 -0.31355843
-0.8054465 -0.4119869 -0.03045542 0.44742957 0.7877643 0.75541186 0.5200076 -0.8951054
-0.5481022 -0.9593724 0.68355703 1.7094038 0.49041963 0.16659762 0.351324 0.42768666
1.0865121 -0.35528436 -0.75348073 0.92985934 -1.2382578 -1.4491476 0.009688751 0.13988191
0.7460708 1.1537275 -0.9702365 1.0311447 -1.0362905 0.54532623 -0.64805126 -1.3453559
1.6677992 0.730133 0.84842825 -0.35387433 0.5612076 0.120441064 -0.7794251 -0.29943836
-0.09132732 -0.4578489 -0.9180476 -1.8565239 0.22972564 2.0542543 -2.2791638 -0.62582654
0.0046932846 -0.060882207 -0.7520406 0.5151062 -1.4511554 1.1694356 -0.1654237 -0.20376408
-0.38333434 0.29054767 0.65847135 -0.07476577 -0.6526643 -0.929346 0.37950757 0.12904556
-0.9118888 2.9066968 -0.9167176 2.2269347 -1.7471417 1.1533854 0.10483679 -1.6532638
-0.06935607 -1.1660066 0.7137019 1.414628 -0.74730176 -0.04444145 -0.7362521 1.5495802
-0.42542934 -1.2055 -0.8223731 1.339954 -1.89953 0.25345832 -0.14375496 -0.3144095
0.80936205 -1.0748047 0.7208035 1.2764181 -0.8822752 -0.055712055 0.07338106 0.45619336
0.033343256 0.7901288 0.94661415 0.2474066 2.6658907 0.55973047 -0.053016033 -0.08107759
-1.385098 -0.5960595 -0.7860399 0.32905248 -0.19040652 1.6694099 -1.1976898 -0.38061044
0.7850911 -0.5559823 0.30048445 -0.10683392 2.3439255 0.66492105 1.0916985 1.3717649
00000000: 8aaf 1bbd 6cca cd3d 3dd4 2c3e dc2c ce3f
00000010: ad2c 793f 0743 803f 0e6a 0abf e00c 11bf
00000020: 27bc 27c0 8d6c 0bc0 5fb8 433f 4098 acbf
00000030: 666c b7bf ef8f ccbe 3b1d ca3f 5053 0b3e
00000040: 6881 4d3f fa98 cabe 855c 853f 6149 db3e
00000050: 2371 81bf 5422 243f 72a0 1240 7d0a f8bf
00000060: b84c 8c3f 8cfb b73f 0398 de3e 7c9e 6d3f
00000070: 9f16 e13d fdec b9bf 2a3f c73c 904f 163e
00000080: 3d6c 3fbf b096 4ebf ddf1 e13f eddb e43d
00000090: bd6c 3d3e 33e6 a43f 0d4e cc3f b388 29c0
000000a0: b4b5 c93f 8087 143f d75c d2be 34eb e73f
000000b0: a7a8 133f 8322 8f3e 75aa 5a3f 4734 023f
000000c0: d35f 803f 32c5 623d 68cd 6abe 1d9e 20bf
000000d0: 97ec 313e 3d53 4d3e 3a68 49bf f061 0d3d
000000e0: a768 163e 901c 093f 70ad 213e cfec b73f
000000f0: 3e62 16c0 abe1 0340 bc5b e73f 9e0d 383e
00000100: 5042 b53f f772 c9bf c442 243f e8b8 e83f
00000110: b22c 81be b151 ca3f 2e10 743f 362e 833e
00000120: 89a0 573f ce2b 463e 39c3 d33f 8a24 b13f
00000130: 1149 413f 21e5 843d 131d be3e 493d 9c3f
00000140: 9200 943e 727b c93f 4ea6 373f cd30 0540
00000150: 14af debf 1ebd f4bf b804 0ec0 7ee9 903f
00000160: 0361 643d fd11 69bd 44de a6bd da74 a93f
00000170: f6c7 c5bf c3ff 5c3e 9c21 22bd 404b 24bf
00000180: fe78 b1be 7415 1bbe c8cd 91be 1ee0 0dbf
00000190: bd1f 8a3f f433 90be e226 04bf 30e4 8c3e
000001a0: 4506 453f bffc 643f 495c 4b3e b0dc b03f
000001b0: 3031 85bf 3947 8a3f f703 e43d b5c1 a1bf
000001c0: e403 913f ac76 6b3c ac93 77bf f377 69bf
000001d0: ca07 0abd 2979 91bd bcce e3bf afff 963f
000001e0: bcb7 0fbf 2da5 52bf fa91 dabe 6894 74bf
000001f0: ae01 013f 29b8 3dbf ed35 9a3f c7b9 10be
00000200: f1b0 303e 12eb 1a3c 1756 b63f 2ea2 913e
00000210: 66c9 093f 1933 373f 3b93 8abf bb8a a0be
00000220: be31 4ebf f2ef d2be a57d f9bc 7d15 e53e
00000230: ecaa 493f ac62 413f 381f 053f a125 65bf
00000240: 6d50 0cbf 6e99 75bf 98fd 2e3f becd da3f
00000250: 4818 fb3e 9198 2a3e bde0 b33e bff9 da3e
00000260: d412 8b3f d5e7 b5be 1de4 40bf 430b 6e3f
00000270: 3b7f 9ebf ab7d b9bf 91bd 1e3c 343d 0f3e
00000280: 7ffe 3e3f 58ad 933f 6b61 78bf 8dfc 833f
00000290: 2ba5 84bf 809a 0b3f b0e6 25bf 9f34 acbf
000002a0: 727a d53f ffe9 3a3f 9832 593f 042f b5be
000002b0: 4dab 0f3f cea9 f63d 6788 47bf fc4f 99be
000002c0: d109 bbbd 2c6b eabe 2b05 6bbf 93a2 edbf
000002d0: 333d 6b3e e778 0340 d2dd 11c0 2b36 20bf
000002e0: 20ca 993b 9f5f 79bd bc85 40bf 00de 033f
000002f0: 76bf b9bf 11b0 953f d564 29be 88a7 50be
00000300: 6644 c4be aac2 943e 9491 283f cc1e 99bd
00000310: 0215 27bf 9fe9 6dbf d14e c23e 8524 043e
00000320: 8b71 69bf 5207 3a40 01ae 6abf 1986 0e40
00000330: 57a2 dfbf 22a2 933f acb4 d63d 269e d3bf
00000340: 8e0a 8ebd b43f 95bf 2bb5 363f 8812 b53f
00000350: 2b4f 3fbf 3d08 36bd 057b 3cbf a558 c63f
00000360: e0d1 d9be d34d 9abf 0b87 52bf 9d83 ab3f
00000370: cd23 f3bf 4ac5 813e 8034 13be 48fa a0be
00000380: 5a32 4f3f 3393 89bf 9486 383f ab61 a33f
00000390: cadc 61bf 5332 64bd cf48 963d 2d92 e93e
000003a0: f092 083d e245 4a3f 4e55 723f 2858 7d3e
000003b0: f49d 2a40 7f4a 0f3f 5727 59bd 020c a6bd
000003c0: e44a b1bf 5b97 18bf e939 49bf 9179 a83e
000003d0: edf9 42be 39af d53f e64d 99bf 5fdf c2be
000003e0: bbfb 483f db54 0ebf 19d9 993e becb dabd
000003f0: e002 1640 4438 2a3f c7bc 8b3f fe95 af3f

fc.weight f4 [54, 64]
0.037124727 -0.11808319 -0.028637476 0.008653053 0.059754916 -0.08758768 -0.07855732 0.0660685
0.0015984423 0.025650624 0.011054168 -0.08092036 0.05480594 0.024416031 -0.076947674 0.012955001
0.053800926 -0.0926907 0.0012330902 -0.12606193 0.05969828 -0.062035087 0.07448363 0.10053017
-0.07452503 -0.010862207 0.02320574 -0.07198969 -0.1129501 -0.07330584 -0.11556386 -0.018292192
0.047385525 0.032841388 0.032548532 -0.07466585 -0.052788857 -0.12188616 0.0015001461 -0.08368044
-0.09203559 0.10394592 0.011956899 0.030556254 -0.060770366 0.099856354 0.020995224 -0.03214836
0.06665003 0.017349258 -0.07081673 0.0676975 0.11972615 -0.07776885 0.061533365 0.06070989
-0.061041813 0.049247317 -0.07858492 -0.049868044 -0.049254462 0.029665193 0.022642056 -0.094320424
-0.0041355197 -0.117040165 -0.004819436 0.009820152 0.03220514 -0.087782435 -0.11325817 -0.0160796
0.04545316 0.07914898 0.007793782 0.053667307 -0.07489934 0.11806686 0.09515613 0.036097433
0.010033743 -0.12682408 0.034050208 -0.071861774 -0.097967274 0.05717686 -0.069826275 0.09701877
-0.10950127 0.05494814 -0.09308948 -0.08042972 -0.02944886 -0.09676729 0.052635457 0.062130913
-0.1009185 -0.058699444 0.044429425 0.07137432 0.014311054 -0.004243919 -0.007292902 0.093252264
-0.07979939 -0.07546997 0.06330827 0.025018783 -0.0061548064 -0.099277474 -0.11888901 0.11456615
0.0038207883 0.027732829 0.10067743 0.11210946 -0.009008801 0.004676259 0.089829646 0.049197268
-0.015059261 -0.096903116 -0.06241206 -0.02554266 0.034688156 -0.08712672 -0.024543423 -0.062107973
-0.12337495 0.005651236 -0.09299852 -0.020898841 -0.028004965 0.077586554 -0.016088607 0.059220117
0.017894477 -0.11474561 -0.076295234 0.07867017 0.051753655 -0.005931196 0.034996413 -0.1078008
0.046549197 -0.039615132 0.042086314 0.1001574 0.06339046 0.01130573 -0.12108642 0.06849586
-0.11824911 -0.044926666 0.0842373 -0.031881474 0.10932722 -0.00471363 -0.07725344 -0.080084555
0.09440853 -0.09469667 0.1060427 -0.007459404 -0.05854336 -0.03470838 -0.06599531 0.06037865
-0.023277178 0.10059699 0.105080776 0.049619075 0.06441417 0.0044705095 -0.02374532 -0.09166423
0.11099571 0.10543601 0.05968306 -0.096066795 -0.004084685 0.073320165 -0.124919355 -0.07754499
-0.041155573 -0.00066616276 -0.081771195 -0.083446495 -0.009881208 0.06499473 -0.08882476 -0.06872274
-0.035286304 0.06727145 0.07697704 -0.046042465 -0.0111622065 0.057497125 0.0034182542 0.077425145
-0.085238576 -0.055664163 0.0044368124 0.005902392 0.05092015 0.11575589 0.03915013 0.014442748
-0.11224245 -0.017024746 0.099133186 0.06498813 0.022708232 0.0867275 0.08907223 -0.06675942
-0.09353295 0.10993752 -0.05068247 0.084945984 0.0003897841 -0.04483499 -0.002570103 0.05059665
-0.033709582 -0.06704066 -0.032522287 -0.08007716 -0.017692875 -0.012697155 -0.036671214 -0.11345561
-0.10508529 -0.11503776 -0.123203814 -0.092957936 0.04412677 0.09915421 -0.021091176 0.039539296
-0.005980409 0.10995457 0.034708552 -0.023060916 0.021203857 0.10047841 0.100090414 -0.008776992
-0.06638293 -0.078421995 -0.044863872 -0.038019404 0.02877246 -0.105264515 0.036055863 -0.05508732
00000000: 1910 183d 99d5 f1bd 2499 eabc 89c5 0d3c
00000010: 92c1 743d 2b61 b3bd a9e2 a0bd ec4e 873d
00000020: d382 d13a 4221 d23c 8b1c 353c 93b9 a5bd
00000030: 317c 603d 2104 c83c be96 9dbd 3641 543c
00000040: 5c5e 5c3d 9fd4 bdbd a49f a13a 6116 01be
00000050: 2f86 743d 8118 7ebd e08a 983d c3e2 cd3d
00000060: 94a0 98bd 66f7 31bc f719 be3c 556f 93bd
00000070: 6252 e7bd 5f21 96bd bfac ecbd 82d9 95bc
00000080: 5317 423d b184 063d 9c51 053d 69ea 98bd
00000090: 2139 58bd 739f f9bd 8da0 c43a a760 abbd
000000a0: 287d bcbd 99e1 d43d dfe6 433c 1c51 fa3c
000000b0: 59ea 78bd 7d81 cc3d 2dfe ab3c 00ae 03bd
000000c0: d07f 883d 0820 8e3c 5d08 91bd fda4 8a3d
000000d0: fc32 f53d 4645 9fbd 690a 7c3d efaa 783d
000000e0: fb06 7abd 8eb7 493d 21f1 a0bd 6f42 4cbd
000000f0: 0cbf 49bd 6b04 f33c d57b b93c 112b c1bd
00000100: 4183 87bb c1b2 efbd 5cec 9dbb b4e4 203c
00000110: 89e9 033d 47c7 b3bd e6f3 e7bd 5eb9 83bc
00000120: 182d 3a3d dc18 a23d fb62 ff3b 40d2 5b3d
00000130: d364 99bd 0acd f13d 38e1 c23d e7da 133d
00000140: 9264 243c 2cde 01be 3b78 0b3d 442c 93bd
00000150: 11a3 c8bd 4832 6a3d 1401 8fbd c7b1 c63d
00000160: 3442 e0bd 4d11 613d b3a5 bebd 56b8 a4bd
00000170: bc3e f1bc ee2d c6bd 4798 573d fc7c 7e3d
00000180: 5cae cebd d46e 70bd a1fb 353d b32c 923d
00000190: e978 6a3c 9310 8bbb 4cf9 eebb 0bfb be3d
000001a0: dd6d a3bd 0090 9abd c4a7 813d 31f4 cc3c
000001b0: 42ae c9bb fd51 cbbd 157c f3bd a8a1 ea3d
000001c0: 3166 7a3b f52f e33c f82f ce3d a599 e53d
000001d0: a699 13bc 4e3b 993b 9bf8 b73d 1383 493d
000001e0: 1ebb 76bc 2475 c6bd caa3 7fbd d73e d1bc
000001f0: 2b15 0e3d 7e6f b2bd 4a0f c9bc ee64 7ebd
00000200: 01ac fcbd 012e b93b 0276 bebd 0c34 abbc
00000210: ab6a e5bc b3e5 9e3d 41cc 83bc cb90 723d
00000220: 7097 923c bfff eabd ad40 9cbd d31d a13d
00000230: a4fb 533d 7a5a c2bb 6658 0f3d aac6 dcbd
00000240: 5faa 3e3d 7a43 22bd b362 2c3d 531f cd3d
00000250: dcd2 813d ab3b 393c 28fc f7bd 8f47 8c3d
00000260: 972c f2bd 0605 38bd 9b84 ac3d 2696 02bd
00000270: f3e6 df3d cb74 9abb 0d37 9ebd 5f03 a4bd
00000280: 4259 c13d 54f0 c1bd ea2c d93d 046e f4bb
00000290: 2acb 6fbd 602a 0ebd 8d28 87bd 9a4f 773d
000002a0: c8af bebc cb05 ce3d 9734 d73d 5f3d 4b3d
000002b0: 94eb 833d 5a7d 923b 8c85 c2bc 75ba bbbd
000002c0: b851 e33d d6ee d73d 3976 743d abbe c4bd
000002d0: d2d8 85bb e228 963d b8d5 ffbd e8cf 9ebd
000002e0: bf92 28bd 6da1 2eba a877 a7bd ffe5 aabd
000002f0: cae4 21bc f51b 853d c1e9 b5bd 82be 8cbd
00000300: 5f88 10bd 9dc5 893d 23a6 9d3d 0697 3cbd
00000310: b0e1 36bc 1b82 6b3d ca04 603b 1391 9e3d
00000320: 9091 aebd 1b00 64bd ae62 913b da68 c13b
00000330: a691 503d 6d11 ed3d e35b 203d 47a1 6c3c
00000340: 5fdf e5bd 7b77 8bbc 5706 cb3d 7f18 853d
00000350: 9d06 ba3c 309e b13d 806b b63d 2ab9 88bd
00000360: 348e bfbd ec26 e13d 6c98 4fbd 29f8 ad3d
00000370: f05b cc39 e5a4 37bd 2c6f 28bb 6f3e 4f3d
00000380: 0f13 0abd 9d4c 89bd 1736 05bd 7eff a3bd
00000390: a6f0 90bc ba07 50bc 8e34 16bd 6a5b e8bd
000003a0: f536 d7bd eb98 ebbd 4852 fcbd bb60 bebd
000003b0: 46be 343d 5d11 cb3d 67c7 acbc f5f3 213d
000003c0: 4ff7 c3bb dd2f e13d 8e2a 0e3d 3fea bcbc
000003d0: b6b3 ad3c a0c7 cd3d 34fc cc3d 5fcd 0fbc
000003e0: c6f3 87bd b69b a0bd 2ec3 37bd 3cba 1bbd
000003f0: 39b4 eb3c ec94 d7bd 50af 133d 3ea3 61bd

fc.bias f4 [54]
-0.11839887 0.04502525 0.019783625 0.04370511 0.094200745 0.009668679 0.008390656 0.061158407
0.08388792 0.059920117 0.05165897 -0.055930052 -0.06729084 0.111828126 -0.06584537 0.023894249
0.10086334 -0.075699136 -0.022587085 -0.037195887 -0.10504038 0.042623345 0.08009143 0.09495701
0.07279123 -0.060272694 -0.10227509 0.11593973 -0.047234163 -0.01754815 -0.07170729 -0.09205933
0.09623192 0.108038604 -0.031658 0.021539193 0.09229582 0.017554952 0.107940316 -0.059838507
0.07262179 -0.034853164 -0.015106718 -0.034317322 0.0049828673 -0.060795147 -0.06460615 0.05801281
-0.0074932324 0.039235976 -0.010992319 0.062150408 0.09307214 0.108778425
00000000: 1b7b f2bd 666c 383d 4511 a23c 2104 333d
00000010: 52ec c03d 6169 1e3c f678 093c 3d81 7a3d
00000020: 6ecd ab3d cc6e 753d 5b98 533d e916 65bd
00000030: c8cf 89bd 2506 e53d f0d9 86bd dfbd c33c
00000040: 7091 ce3d 2608 9bbd 8d08 b9bc b75a 18bd
00000050: 691f d7bd d195 2e3d fa06 a43d d278 c23d
00000060: 9213 953d 80e0 76bd 9a75 d1bd cf71 ed3d
00000070: 9c78 41bd 23c1 8fbc 46db 92bd 9a89 bcbd
00000080: 3e15 c53d 5843 dd3d d2ab 01bd f672 b03c
00000090: 9705 bd3d 67cf 8f3c d00f dd3d 3919 75bd
000000a0: bcba 943d 31c2 0ebd 2b82 77bc 5290 0cbd
000000b0: 5247 a33b 5504 79bd 3b50 84bd d79e 6d3d
000000c0: ca89 f5bb e7b5 203d 2119 34bc 6d91 7e3d
000000d0: 9b9c be3d 39c7 de3d
