2017_Transformer/Transformer/output/transformer_model_gpu.pth (torch_old, 869747 bytes, 109 tensors)

encoder.src_word_emb.weight f4 [10, 32]
00000000: 9824 893e 4cbc b4be 0217 9fbe 3715 973e
00000010: 20b7 26be eca7 b63e 11dc 383e f8b1 94bd
00000020: 96c4 a23e c201 13be d13e 943c 268c abbe
00000030: 5dec d2bc 7fde aebe f070 34be bba0 a13e
00000040: 0e87 363e b068 8dbe ca66 603e b634 b63e
00000050: a68a 66be fdf9 fe3d cc3e 613c 4266 9a3e
00000060: 3703 b1be f851 473e faa0 ab3e e8ae b33e
00000070: a5ff 8b3e 3bd6 8abe d63f a8bd 2de7 45be
00000080: 0a18 abbb 4840 72be c850 923e 41b8 ae3e
00000090: c0ea 473e 3d48 763e 921d a0be 5c2f 653d
000000a0: 20e8 6d3e 6912 8d3e 9d2b 6cbe 2f87 983e
000000b0: 06b2 2ebd 1783 b53d cc7e 0abd 5c79 84bd
000000c0: 6631 ab3b e453 993d 098e 1bbe 231b 1bbe
000000d0: b185 80be c09b 103c fe1d 6dbe ffdb 34be
000000e0: 0248 b7be 6276 a53d da7e 9a3e c126 8a3d
000000f0: 96a0 ccbd 4064 4cbe fd42 9d3c ed7a cdbd
00000100: 31cb f93d d80b 313e 9604 88be 7e29 8a3e
00000110: 0aef 0fbe 918c d43c cf52 b93e 4e04 5b3e
00000120: a43b 48be b05a 693e 24d6 efbd 4b4f a7be
00000130: cd84 603e 956e 71be 42e0 043e 7c97 453c
00000140: c80e 5b3e f23c 56be 741e 0a3d f052 a43e
00000150: c137 003e 278c d5bd 3b11 e3bd f124 82be
00000160: 3a26 51be cf9d 42be e51d 9b3e 9c75 67be
00000170: fb3c 373e 4447 05be 7f4a 64be e909 823e
00000180: fc0c b9be af31 51be 6026 913e a52c ab3d
00000190: 6af1 32bd 2177 133d b602 eebd 3d66 cb3d
000001a0: 4ab5 83be 58b9 a0be e65f c8bc a630 bfbd
000001b0: ae6c 99bd f5b9 00be 156f 323e 2516 bbbd
000001c0: 57c5 96bd 0a35 c33c b25d a53e 528c 89be
000001d0: 5dbe 90be 9e5d a43e 6475 c0bd f2f3 d23d
000001e0: 137d 87be 7659 0bbe da48 4dbe 3f71 c0be
000001f0: 924a 21bd 6db9 353e cc24 68be 931b 223e
00000200: dbeb c13e dbd8 63be ee33 64be 318b 6c3e
00000210: f38f b63e 4369 2d3e 3e68 57be 6a6d a43d
00000220: 7012 a6bd 80eb a03d 40e8 3a3e 495f 363e
00000230: 02c7 b23e 28b5 ac3e c4be 463e e462 62bd
00000240: 288d 863e 4da3 813d 9abb b1be 3f26 8ebc
00000250: 03ca ad3e c612 00bd 4aad 313e 43d7 5e3c
00000260: e9d2 99bd fbd1 883e 02dc 273e 5bf3 653d
00000270: 1d53 513e 8c32 4e3e 7a1c 633e ea58 37be
00000280: fa9d bc3e 455e 87be f77f 93bd a5cd 28be
00000290: f15f 4f3e 8128 6f3e 54f7 d2bd 61e9 93be
000002a0: 5c44 9dbd 6331 26bd 7d03 9fbd e4f5 553e
000002b0: a4d1 90bd 50d9 333d 5d2f 6a3e 8e7d 6f3e
000002c0: 1b22 333e f4e0 c6bd 8002 8cbe 924f 803d
000002d0: 071c 223e ca8b 713e 9c1d 86bd eb9b b63d
000002e0: 2c63 29bc 9701 18be 2a44 983e 3bf3 ba3e
000002f0: a2e9 0b3e aed2 93be ff12 b53c eb11 dc3d
00000300: 2f6c a53e 895a 74bd b04c e1bd ea16 bfbe
00000310: 0bff b43e ec65 57be 34bf 853e d193 ae3e
00000320: 8d89 efbc 1dbd 083d 1f28 96bd 6151 2d3e
00000330: 5100 56bc 3afb 433e 9a84 653e 1ff6 77be
00000340: 1ac2 4cbc 6422 c3bd b3bf 2b3e f04d cfbd
00000350: e105 89be b7d1 3dbe a08e 213c a29b 493e
00000360: ee64 ba3d 0c68 a13e 9274 ab3e b056 0f3e
00000370: 044d ba3d 9f6d 8cbe 0438 4f3e 9b82 38be
00000380: bbdb f9bd bac3 503e c7b9 623e a421 6a3e
00000390: 6fac 8e3d 72b5 ab3e 8856 0e3e 3ee0 143e
000003a0: 7cb8 e8bd 676c 9bbc d8d7 8a3c b2d9 37be
000003b0: ab2c 03bd 2486 a83e 61d2 ed3a 6e68 2abe
000003c0: 93cc 813d 46f5 d4bc f94d bc3e 5cf2 42be
000003d0: bf13 823e e38f 943e ebb0 d5bd 1adf d2bc
000003e0: 9309 223e d8f5 0a3e e00e af3e 53e0 613e
000003f0: f2cc 843e c975 85be d5c8 fabd fda0 8bbe
0.2678573 -0.3529991 -0.3107224 0.29508373 -0.16280794 0.3567499 0.18052699 -0.07260507
0.31790608 -0.1435614 0.01809636 -0.33505362 -0.025747472 -0.34154126 -0.17621207 0.3156794
0.17824957 -0.27618933 0.21914211 0.3558709 -0.22513828 0.12450025 0.013747882 0.30156142
-0.34572765 0.19464862 0.33521253 0.3509438 0.2734348 -0.2711657 -0.08215301 -0.19326468
-0.0052213715 -0.23657334 0.28577256 0.3412495 0.19523144 0.24050994 -0.3127256 0.05595337
0.2323308 0.27553108 -0.23063512 0.29790637 -0.042650245 0.08862894 -0.03381233 -0.0646846
0.0052243946 0.07486704 -0.15190901 -0.1514707 -0.25101998 0.008826196 -0.23155972 -0.17662047
-0.35797125 0.0807922 0.30174905 0.06745673 -0.09991567 -0.19960117 0.019196982 -0.10033212
0.12196959 0.17289674 -0.26566 0.2698478 -0.1405603 0.025945934 0.3619599 0.21388361
-0.19554001 0.22788501 -0.11710766 -0.32677683 0.2192566 -0.2357734 0.12976173 0.0120600425
0.21392357 -0.20921686 0.03372045 0.32094526 0.12521268 -0.104271226 -0.11087271 -0.2541881
-0.20424739 -0.19005512 0.30296245 -0.22603458 0.17894356 -0.13015467 -0.22294043 0.25398186
-0.3614272 -0.20429109 0.2834959 0.08358125 -0.04368726 0.036002282 -0.11621611 0.0993161
-0.2572425 -0.31391406 -0.02445979 -0.09335451 -0.07491432 -0.12570937 0.17425187 -0.09135083
-0.07361858 0.023829002 0.32298046 -0.26864868 -0.28270236 0.32102674 -0.093973905 0.10300435
-0.26462612 -0.13608345 -0.20047322 -0.375864 -0.039377756 0.17746516 -0.22670287 0.15830831
0.37875256 -0.22250693 -0.22285435 0.23099972 0.356567 0.16934685 -0.21035859 0.080286816
-0.081089854 0.07857418 0.18252659 0.17809786 0.34917456 0.3373196 0.19408709 -0.05527009
0.2627957 0.06329975 -0.3471344 -0.017352222 0.33943185 -0.031267904 0.17351261 0.013601127
-0.07510931 0.26722702 0.1639252 0.056140285 0.20441861 0.2013647 0.22178832 -0.17905012
0.36839277 -0.2643911 -0.07202142 -0.16484697 0.20251442 0.23355295 -0.1030108 -0.2888899
-0.07679054 -0.040574443 -0.07764337 0.20894581 -0.07071236 0.043908417 0.2286963 0.23387739
0.17493479 -0.09710875 -0.27345657 0.06265177 0.15831004 0.23588482 -0.06548616 0.08916458
-0.010338586 -0.14844356 0.29739505 0.36513695 0.13663343 -0.28871673 0.022103785 0.10745605
0.323091 -0.059656654 -0.11000955 -0.3732217 0.35350832 -0.21034974 0.2612244 0.3409715
-0.029240394 0.033383477 -0.07331871 0.16925575 -0.013061599 0.19138804 0.22413865 -0.24214981
-0.012497449 -0.09528044 0.16772346 -0.10122287 -0.26762298 -0.18537031 0.009860665 0.19688275
0.09101282 0.31524694 0.33487374 0.13997912 0.09096721 -0.27427384 0.20236212 -0.18018572
-0.122001134 0.20387164 0.22141181 0.22864395 0.06966483 0.3353687 0.13900197 0.14538667
-0.113633126 -0.018972589 0.016948625 -0.17954138 -0.03202502 0.3291484 0.0018144363 -0.166414
0.063378476 -0.025995862 0.36778238 -0.19037765 0.2540569 0.29016027 -0.10434135 -0.025741149
0.15823965 0.13570344 0.34191036 0.22058229 0.2593761 -0.26066425 -0.12245337 -0.27271262

encoder.position_enc.pos_table f4 [1, 200, 32]
00000000: 0000 0000 0000 803f 0000 0000 0000 803f
00000010: 0000 0000 0000 803f 0000 0000 0000 803f
00000020: 0000 0000 0000 803f 0000 0000 0000 803f
00000030: 0000 0000 0000 803f 0000 0000 0000 803f
00000040: 0000 0000 0000 803f 0000 0000 0000 803f
00000050: 0000 0000 0000 803f 0000 0000 0000 803f
00000060: 0000 0000 0000 803f 0000 0000 0000 803f
00000070: 0000 0000 0000 803f 0000 0000 0000 803f
00000080: a46a 573f 4051 0a3f ba7d 083f 0e94 583f
00000090: 3e39 9f3e 6a4e 733f 3a23 353e 83f6 7b3f
000000a0: 7675 cc3d 98b8 7e3f b036 663d 6898 7f3f
000000b0: 5c81 013d 3cdf 7f3f 42ab 913c a3f5 7f3f
000000c0: 57d6 233c b9fc 7f3f 5c44 b83b f7fe 7f3f
000000d0: 203e 4f3b acff 7f3f 2015 e93a e5ff 7f3f
000000e0: 6d12 833a f8ff 7f3f 166a 133a fdff 7f3f
000000f0: 5fcb a539 ffff 7f3f 5377 3a39 0000 803f
00000100: b7c7 683f 3311 d5be 0af2 663f b2e8 dc3e
00000110: 1b54 173f ec7b 4e3f f647 b23e a5fa 6f3f
00000120: f96f 4b3e a5e5 7a3f 88d9 e53d f361 7e3f
00000130: c870 813d f97c 7f3f 5ca5 113d 8ed6 7f3f
00000140: 3ed4 a33c e5f2 7f3f 9d43 383c dbfb 7f3f
00000150: dd3d cf3b b0fe 7f3f 0815 693b 96ff 7f3f
00000160: 6912 033b deff 7f3f 146a 933a f5ff 7f3f
00000170: 5fcb 253a fdff 7f3f 5377 ba39 ffff 7f3f
00000180: c381 103e 2670 7dbf d745 7e3f a87f edbd
00000190: c209 503f 572f 153f 6d2f 023f 296d 5c3f
000001a0: 6d4e 973e ef90 743f d8ee 2b3e 9e5d 7c3f
000001b0: c1ff c13d 4fd9 7e3f 4d69 5a3d c3a2 7f3f
000001c0: 20b9 f53c 83e2 7f3f c731 8a3c adf6 7f3f
000001d0: 116e 1b3c 0dfd 7f3f a8cf ae3b 11ff 7f3f
000001e0: 939b 443b b5ff 7f3f 1b1f dd3a e8ff 7f3f
000001f0: 0db1 783a f8ff 7f3f 7ed9 0b3a feff 7f3f
00000200: cfbd 41bf 3055 27bf ed49 473f 9daf 20bf
00000210: de1d 743f b12e 9a3e bc1f 273f edeb 413f
00000220: d761 c73e a7ca 6b3f c665 643e 098d 793f
00000230: 882e 013e 69f4 7d3f c88d 913d 475a 7f3f
00000240: dbcb 233d 94cb 7f3f a240 b83c 6cef 7f3f
00000250: cd3c 4f3c c2fa 7f3f a714 e93b 58fe 7f3f
00000260: 5812 833b 7aff 7f3f 0e6a 133b d6ff 7f3f
00000270: 5ccb a53a f3ff 7f3f 5277 3a3a fcff 7f3f
00000280: 107c 75bf 2c3c 913e d6da a53e 4032 72bf
00000290: 7ffc 7f3f d472 29bc abca 463f f14c 213f
000002a0: 4477 f53e 40a9 603f ee11 8e3e 7cf2 753f
000002b0: 1e3c 213e 81ce 7c3f 21db b53d 1efd 7e3f
000002c0: f5b6 4c3d 19ae 7f3f fe4d e63c 19e6 7f3f
000002d0: 8185 813c cff7 7f3f bbac 113c 69fd 7f3f
000002e0: ded6 a33b 2eff 7f3f 8c44 383b beff 7f3f
000002f0: 313e cf3a ebff 7f3f 2615 693a f9ff 7f3f
00000300: 8c0f 8fbe b8cd 753f 74e5 6bbe 531d 79bf
00000310: 4d78 723f 6f3f a4be 8930 603f 342f f73e
00000320: 698c 103f 3249 533f fd7d a93e e290 713f
00000330: 6f20 413e e367 7b3f c119 da3d 518b 7e3f
00000340: d19c 753d 128a 7f3f bf2c 0a3d b3da 7f3f
00000350: 466c 9b3c 34f4 7f3f 04cf 2e3c 45fc 7f3f
00000360: 599b c43b d2fe 7f3f 061f 5d3b a1ff 7f3f
00000370: 05b1 f83a e2ff 7f3f 7dd9 8b3a f6ff 7f3f
00000380: 4630 283f bdff 403f 6eb6 36bf 604f 33bf
00000390: 6fe8 4c3f bb74 19bf 4484 723f b9f8 a33e
000003a0: 73eb 243f b3cc 433f df60 c43e c56b 6c3f
000003b0: 50d3 603e eac0 793f ba46 fe3d e904 7e3f
000003c0: 323e 8f3d 815f 7f3f 6031 213d 3bcd 7f3f
000003d0: a652 b53c f2ef 7f3f 2af1 4b3c ecfa 7f3f
000003e0: c75f e53b 65fe 7f3f befc 803b 7eff 7f3f
000003f0: ec11 113b d7ff 7f3f 6628 a33a f3ff 7f3f
0.0 1.0 0.0 1.0 0.0 1.0 0.0 1.0
0.0 1.0 0.0 1.0 0.0 1.0 0.0 1.0
0.0 1.0 0.0 1.0 0.0 1.0 0.0 1.0
0.0 1.0 0.0 1.0 0.0 1.0 0.0 1.0
0.84147096 0.5403023 0.53316844 0.84600914 0.3109836 0.95041525 0.17689219 0.9842302
0.099833414 0.9950042 0.056204498 0.9984193 0.031617507 0.99950004 0.017781857 0.99984187
0.009999833 0.99995 0.0056233834 0.9999842 0.0031622723 0.999995 0.0017782785 0.9999984
0.0009999998 0.9999995 0.0005623413 0.9999998 0.00031622776 0.99999994 0.00017782794 1.0
0.9092974 -0.41614684 0.9021307 0.43146282 0.5911271 0.8065784 0.34820527 0.9374183
0.19866933 0.9800666 0.112231314 0.9936821 0.063203394 0.9980007 0.03555809 0.9993676
0.019998666 0.9998 0.011246589 0.99993676 0.0063245133 0.99998 0.0035565514 0.9999937
0.0019999987 0.999998 0.0011246824 0.99999934 0.0006324555 0.9999998 0.00035565588 0.99999994
0.14112 -0.9899925 0.9932532 -0.11596614 0.8126489 0.5827536 0.50853616 0.86104065
0.29552022 0.9553365 0.1679033 0.9858035 0.09472609 0.99550337 0.05332308 0.9985773
0.029995501 0.99955004 0.016869439 0.9998577 0.009486691 0.999955 0.005334813 0.99998575
0.0029999956 0.9999955 0.0016870232 0.99999857 0.0009486832 0.9999995 0.0005334838 0.9999999
-0.7568025 -0.6536436 0.77847177 -0.62767965 0.95358074 0.30113748 0.652828 0.7575062
0.38941833 0.921061 0.22304448 0.9748083 0.12615407 0.99201065 0.07107121 0.9974713
0.039989334 0.9992001 0.022491757 0.99974704 0.012648773 0.99992 0.0071130577 0.9999747
0.0039999895 0.999992 0.0022493633 0.9999975 0.0012649107 0.9999992 0.0007113117 0.99999976
-0.9589243 0.2836622 0.3239352 -0.94607925 0.99994653 -0.010342319 0.77652997 0.6300803
0.47942555 0.87758255 0.27748054 0.96073127 0.15745589 0.987526 0.08879686 0.99604976
0.04997917 0.99875027 0.028113361 0.99960476 0.01581073 0.999875 0.00889128 0.9999605
0.0049999794 0.9999875 0.002811703 0.99999607 0.0015811381 0.99999875 0.0008891396 0.9999996
-0.2794155 0.96017027 -0.23036748 -0.9731037 0.94714814 -0.32079646 0.8757406 0.482782
0.5646425 0.8253356 0.33103934 0.943617 0.18860029 0.98205394 0.106494434 0.9943133
0.059964005 0.99820054 0.03373408 0.99943084 0.018972527 0.99982 0.010669474 0.9999431
0.005999964 0.999982 0.0033740415 0.99999434 0.0018973654 0.9999982 0.0010669675 0.9999994
0.6569866 0.75390226 -0.71372116 -0.7004299 0.80042166 -0.5994374 0.9473307 0.32025698
0.64421767 0.7648422 0.38355157 0.92351943 0.2195561 0.9755999 0.12415834 0.9922624
0.06994285 0.997551 0.03935373 0.9992253 0.022134136 0.999755 0.012447635 0.9999225
0.006999943 0.9999755 0.003936379 0.99999225 0.0022135926 0.99999756 0.0012447953 0.9999992

encoder.layer_stack.0.slf_attn.w_qs.weight f4 [128, 32]
00000000: c54a 32be 8d24 393e b6e2 f1bd c047 333d
00000010: 6bd3 83bd f7d9 50bc 207b d9bd 47a1 02be
00000020: e83d 24be 0bae a93d 02d3 3f3d 7800 3bbe
00000030: e3d5 afbc d42e 26bd 73c2 e6bd 6f81 ae3d
00000040: 74da 02bc 8bbf 2fbe 0ef2 023d f230 7dbc
00000050: 18e3 db3d 4e14 2ebd 23e9 873d f016 3d3e
00000060: f14c 1abe 632f 733d 502b 313e edfd 633d
00000070: e740 18be 8a35 b23d 5d89 753d 6eb0 263e
00000080: e875 9abd ca29 0fbe a3a5 943d a85f 983d
00000090: 8779 1bbe 8bd7 5e3d 507f d33d dc00 603d
000000a0: 2a12 33be 1c01 cb3d 6b0e f8bc 8874 d5bc
000000b0: aaef 6fbd 7a33 ff3d f342 473e 2326 9ebd
000000c0: 49e9 e93c 0d35 34be 1271 a33d d4ac 30bd
000000d0: 5f75 3dbe 1f9c 82bd b90c 41bd 5acb 2cbe
000000e0: 0de0 893d b8fd 3cbe a91b 283e b207 0abe
000000f0: 640e 0dbe 2f4b b33d 37a6 b63d 7e18 9abd
00000100: f87a b3bc 1d7c cd3b a1d2 81bc 52c5 d03d
00000110: d55e f93c 042c 1dbd 7986 a1bc f988 0fbe
00000120: dbb0 6fbd 0c11 28be f969 4c3d eb73 2ebe
00000130: 95de 3c3d 8cfe 23be 7c3f 83bd 9007 b4bd
00000140: 5b08 02be a3ec 3bbe fa28 3bbe 95c4 413d
00000150: 225a 9fbd b987 673c 785d 1ebd dca8 ccbd
00000160: 65ef 2c3e 614a e2bc ae5c 9e3c 1a2d 9dbc
00000170: 0873 ea3c e41b b2bc 4b56 8ebd 2370 bdbd
00000180: 2171 913c e326 26be d781 1bbc 18b2 ffbd
00000190: bc73 d3bd 9aaa 10be 3e34 97b9 4745 e93b
000001a0: 4335 b23d 7d26 9abd 61b8 4ebb 3f82 a8bd
000001b0: 0cc1 1e3d 8de2 1dbe 90b7 8ebb 9902 eabd
000001c0: 66b5 22bd 0866 2fbe c5f8 3d3d 22dc 4f3c
000001d0: 6a58 24be c775 453b d77f 36be e7ec b43d
000001e0: 296f 243e 6e14 5f3d fc78 623d adaa d23d
000001f0: 1df1 d0bd e129 b5bd 0b1c 2a3d 5460 923c
00000200: 43a1 d73d b423 a0bc aa8f 323d 81e8 e03c
00000210: 7cd1 71bb 2190 b2bd b69f 49bd f93e 463e
00000220: 9779 32be a438 c2bd 819f 3bbe 2f34 a4bd
00000230: c7a2 c5bd e9bc 373e 036e 303e a3a7 7fbd
00000240: c8a0 f0bd 32dc 223e 395c 04be 2f29 b33d
00000250: f7ba 36be 7f09 053e 0e59 773a 3554 15be
00000260: 250e afba b3ce b3bb b07e 7ebd 3f0f 3a3e
00000270: b22c c7bd 4cb2 fb3d 605c aa3d d0bc 86bd
00000280: ab46 84bd e90f 3f3e d4e0 8e3d a772 cebd
00000290: c547 83bd 8f61 3f3e dcd5 30be 762a 833c
000002a0: 178e 203e b000 cbbd 8096 ad3d 340e 673d
000002b0: 5fbc 3b3d d4b9 21be 8dcf 713d 20b9 fa3d
000002c0: 84a8 11be 756e 2e3e 13dc 663d 6605 043e
000002d0: c57c 9e3d fc71 2d3e aedd 43be b1dc 36be
000002e0: 5831 8ebd 85ca 3f3e 2838 243e 890b a9bc
000002f0: 564d 643d 9628 0dbe e436 8f3d 06f3 f2bd
00000300: 98dc 29be be64 5fbd c952 bd3d 2557 cd3d
00000310: 39cf 44be 2c2e 283e db1b bcbb 1a23 ebbb
00000320: 154c 723d 2854 11be b7e4 39be a279 ae3d
00000330: d8c2 35be aaf1 c63d a267 b43d 7006 d9bd
00000340: c342 c4bd 22ee 14be 03c4 38be 24eb 743d
00000350: 0821 183e 8fbe 7d3c fa31 cc3d 284c 2dbe
00000360: 7d17 d53d 4014 fe3d bd16 3abd 0f33 233e
00000370: 1ccf 26bd 9ac4 2f3d 7c41 f6bd fa32 7f3d
00000380: 1648 b9bd e999 bd3c 81f0 183d 237d 243e
00000390: 289e 903b 2751 7bbd e4c3 24bc 5dcf 853d
000003a0: c8ed 1abe 1a94 423d b05a ba3d e76f 86bd
000003b0: 636b 093e 3417 623c e1ba 0c3e f57d 3d3e
000003c0: 4012 02bd f28a 283e 7ee9 3d3e ab9c 41be
000003d0: 94db 233e f411 1d3d 4421 fd3d c528 e8bd
000003e0: e43d 323e 1767 773d 6798 15be ef66 873d
000003f0: 14d9 a4bd dfe4 0e3e ad09 e9bd dee1 2ebe
-0.17411335 0.1808035 -0.1181082 0.043769598 -0.06436809 -0.012747279 -0.10619187 -0.12756835
-0.1603924 0.08285149 0.046832092 -0.18261898 -0.021464294 -0.040572003 -0.11267557 0.08520781
-0.007986654 -0.17162912 0.031969123 -0.015453564 0.10736674 -0.042499833 0.06636264 0.18465781
-0.15068413 0.059371363 0.17301679 0.055662084 -0.14868508 0.08701618 0.059945453 0.1627824
-0.0754202 -0.13980785 0.07258155 0.0744012 -0.15183078 0.054404777 0.10327017 0.05468832
-0.17487398 0.09912321 -0.030280313 -0.026056543 -0.05857817 0.1246099 0.19459133 -0.07722118
0.028553622 -0.17598362 0.07980551 -0.04313357 -0.18501805 -0.06377434 -0.047131274 -0.16874447
0.067321874 -0.18456161 0.16416802 -0.13479498 -0.13775021 0.087545745 0.08918422 -0.07524203
-0.021909222 0.006270899 -0.015847506 0.10193886 0.030440727 -0.038372055 -0.019717442 -0.14017095
-0.058518272 -0.16412753 0.04990575 -0.17036407 0.04611071 -0.1601507 -0.06408593 -0.08790505
-0.126985 -0.18351988 -0.1827735 0.047306616 -0.07780863 0.01413148 -0.038663357 -0.09993145
0.16888197 -0.027623357 0.019331302 -0.019186545 0.028619304 -0.021741815 -0.06950053 -0.09249904
0.01775414 -0.16225772 -0.009491405 -0.124851406 -0.10324809 -0.1412758 -0.00028839888 0.007118854
0.08701565 -0.07526872 -0.0031543004 -0.082279675 0.038758323 -0.15418454 -0.0043553784 -0.11426277
-0.039723776 -0.17128766 0.046379823 0.012686761 -0.16049352 0.0030130015 -0.17822205 0.08834248
0.16058029 0.054462843 0.05529116 0.1028646 -0.10202239 -0.088458784 0.04153065 0.017868198
0.10528805 -0.019548275 0.04359404 0.027454617 -0.0036898544 -0.08718897 -0.049224578 0.1935996
-0.17429195 -0.094834596 -0.18322565 -0.08017766 -0.09650188 0.17943157 0.17229466 -0.06241573
-0.117494166 0.1590431 -0.12925805 0.087480895 -0.17844759 0.12991904 0.00094355724 -0.14582904
-0.0013355656 -0.005487287 -0.062132537 0.18169878 -0.09725322 0.12289867 0.083184004 -0.06578982
-0.06458791 0.18658413 0.06976476 -0.10080462 -0.06410173 0.1868956 -0.17269081 0.016011458
0.15679203 -0.099122405 0.08475971 0.05641003 0.04583394 -0.15793544 0.059035826 0.12242341
-0.1422444 0.17034324 0.056362223 0.12892684 0.07738642 0.16938013 -0.19127533 -0.17857625
-0.06943005 0.18729599 0.16037047 -0.020635383 0.055737816 -0.13785014 0.069928914 -0.11862759
-0.16588056 -0.054539435 0.09244306 0.10026387 -0.19219674 0.16423863 -0.0057406253 -0.0071758153
0.05915459 -0.1419226 -0.18153654 0.08519293 -0.17750108 0.097140625 0.08808829 -0.10596931
-0.09583046 -0.14543965 -0.18043523 0.05979456 0.1485635 0.015487327 0.0997047 -0.16923583
0.10404871 0.12406206 -0.04543184 0.15937446 -0.04072486 0.042912103 -0.12024209 0.062304474
-0.090469524 0.02314468 0.037338737 0.16063361 0.004413385 -0.06135669 -0.01005647 0.06533692
-0.15129769 0.047504522 0.090993285 -0.065643124 0.13419871 0.013799477 0.13743164 0.1850508
-0.031755686 0.16459253 0.18546101 -0.1890742 0.16001731 0.0383472 0.123598605 -0.11335901
0.17406422 0.06040105 -0.14608918 0.0661143 -0.08049217 0.13954495 -0.11378799 -0.17078349

encoder.layer_stack.0.slf_attn.w_ks.weight f4 [128, 32]
00000000: 55f6 49be 00e0 253e dacb 71bc b661 243e
00000010: 0563 46be 3416 97bc 3407 a63d 4890 283e
00000020: 6f91 653c 544b f03d a030 1dbc b881 eabd
00000030: 51fb f4bd abda 343e 68b0 b3bd 99e2 09be
00000040: 9fb7 ee3d 4178 70bc 0487 35bd 2f4f e5bd
00000050: b323 a23c 321c 893d b385 0c3e 5925 163e
00000060: ea7b 6ebd c1de 85bc 58a7 90bd 0dfa c4bd
00000070: 1f2a d8bd b2f2 4e3d a27d e53c 3e01 02be
00000080: 52bc 483e a3f7 9bbd 119c cd3c a17e 5c3d
00000090: b87d 2f3e 5e4c 093e 032d 0c3e b3a0 90bd
000000a0: 4e6e 3fbd 79a8 023e 8d81 6d3d 0e79 20bd
000000b0: 0b2e 383e 3ffa f3bd 21fd e83d 602d 383e
000000c0: 684b 3f3e 3828 a63d 8169 bb3d 39e1 bbbb
000000d0: f45f 03be 4548 d9bc 0861 363e 5e96 a13c
000000e0: ec5e 393e 5ea1 543d 18c2 20bd 8f72 93bd
000000f0: 31e9 013e 6383 df3d 3285 75bd b4b1 ab3c
00000100: ad03 2d3e b3c5 223e 06da 7fbc 075f 403d
00000110: cf3b 07be d085 393e 36c7 2dbe 9377 863d
00000120: 3db4 313e ef75 e4bd e97c f5bc 317c 2ebe
00000130: 359e 5a3c d4a2 91bb 29f5 a1bd 0aab 07be
00000140: 44ad ff3d 1b4c 2dbe a76e 19bd dc9e d93d
00000150: e4b8 f43d dc2b 4e3d f46c ff3d 1a0d 1c3d
00000160: 7deb 2b3e 7650 5ebb a9d2 95bd 19ba 7cbd
00000170: d61c 273d 9891 953d 2b19 35be 4167 b63d
00000180: 04ea e1bd 2d93 283e aa9f cdbc 3c42 09be
00000190: 69de 6ebd 1f87 00bd 6e06 3cbc d543 f1bd
000001a0: 9acb b4bd 02f3 bf3d 5531 1bbd 5794 053e
000001b0: b958 8dbd 443e 09bd ab5a 32be 769f 92bc
000001c0: 994f 213d 4b2e 013e dcc5 ee3b 8ed4 a13d
000001d0: 2d6a 173d db39 673d 6026 8ebd 47d0 14be
000001e0: 42ff 293e 0d00 97bd 85cd a4bd 1bf4 e13b
000001f0: 1556 903c 42bc d53d c664 e43d b3d6 e0bd
00000200: b06e 45bd b69a 64bd a955 f2bd 2339 c9bd
00000210: dbc9 da3c 2a39 1b3e 6871 1c3d 0f6a 00be
00000220: 8882 babd 2372 1b3e 8794 1c3d 66b6 8abd
00000230: 2351 eb3d 5883 24be b9ef 7b3d d337 ef3d
00000240: 1834 283e ec04 52be 54c5 00bd 4e15 163e
00000250: e3a1 423e 3413 14bd 6e8a 7abd 9e11 093e
00000260: 2d06 933d 6773 1bbe fec9 f8bd 009c bfbd
00000270: 1e20 23be 2d58 e5bd 002c 1bbc c62e 1cbd
00000280: 1d37 e7bd ad81 42bd 7a28 113e c7e6 14bd
00000290: 5f4a 133e ff03 9ebd 32b7 93bd 797c 3c3d
000002a0: 887f e23d d78c dfbc 07a6 7cbd 8f9d 5cbb
000002b0: a0a0 f7bd a23e c1bc e8f1 2c3e 5e7a 19ba
000002c0: 895a 1e3e 93b7 d23d fff4 243d aca6 a93d
000002d0: 3448 1a3e a466 41bd 5dc6 3cbd 0b91 ddbd
000002e0: d0e6 35be e1b8 983d 08dc e13c 7728 143e
000002f0: a2bb debd a22f 04be 94ad e63c a999 a83c
00000300: adea df3d 82a3 cc3d bfb6 f13d 5ae9 e3bc
00000310: 0c2e 5ebd 3739 fdbd 3ee3 9b3b b0ff 45be
00000320: 4426 96bd b1c6 3f3e 42ff 133e 0c44 e83b
00000330: 79ee a23c ff48 2d3d adb4 1dbe 9131 d23b
00000340: be02 08be 5843 8dbc a4bd fbbd 7e96 adbc
00000350: e0cd 8fbc fd4c dcb9 4ccc 0dbe f673 3cbd
00000360: 149c 71bb d4e2 413e c38a c73c bb56 83bd
00000370: 5880 253d 58a4 133d 37f5 073e 581a 8cbc
00000380: 9ca1 1b3d 3a10 323e c950 073e c3cb 863c
00000390: 473e 09be 05f2 e1bc eb4b 79bd 2012 03be
000003a0: aa0b 81bb 9408 98bc 26e1 01be 2dc3 44be
000003b0: 5a7b d9bd 22c0 6cbd 737b c13d 06d4 363e
000003c0: e1b0 0abe 6a45 093e d376 2a3e 8a34 ae3c
000003d0: 96f6 babd 5596 3a3d 02b1 06be b649 b0bd
000003e0: 316e 13bc 61a8 063d e1a6 313d 009c 3ebe
000003f0: f4d6 923b 5761 933c 893f 1e3e 87cc 85bd
-0.19722874 0.1619873 -0.014758075 0.16052899 -0.1937371 -0.018443204 0.08106843 0.16461289
0.014011725 0.11733118 -0.009594113 -0.11450523 -0.11961997 0.1766154 -0.08773881 -0.13465346
0.11656117 -0.014677108 -0.044318214 -0.11196744 0.019792413 0.06694831 0.13722877 0.14662685
-0.058223642 -0.016341569 -0.07063168 -0.09618006 -0.10554909 0.05052442 0.028014008 -0.12695786
0.19603088 -0.07615592 0.025098832 0.0538317 0.17137802 0.13408038 0.13689046 -0.07061901
-0.046736054 0.1275958 0.057984877 -0.039177947 0.17986314 -0.11912965 0.113764055 0.17986059
0.18681109 0.0811314 0.09150983 -0.0057336357 -0.12829572 -0.026523719 0.17810452 0.019725021
0.18102616 0.051911704 -0.039247602 -0.07199585 0.12686612 0.10913732 -0.059941478 0.020958759
0.16895933 0.15895729 -0.015615946 0.046965625 -0.13206409 0.18117452 -0.16970524 0.06565776
0.17353912 -0.111553065 -0.029966788 -0.17039563 0.013343384 -0.0044444595 -0.07908089 -0.1324884
0.1248422 -0.16923563 -0.037459042 0.10626003 0.119493276 0.050334796 0.12471953 0.038098432
0.1678905 -0.003392247 -0.07315571 -0.061700914 0.040798984 0.073031604 -0.17685382 0.08906413
-0.11030963 0.16462393 -0.025100548 -0.13404173 -0.058317576 -0.03137886 -0.011476142 -0.11780516
-0.088278964 0.09372522 -0.037888844 0.13044868 -0.06901688 -0.033506647 -0.174174 -0.017898303
0.03938255 0.12615316 0.0072867703 0.0790187 0.03696649 0.05645166 -0.06940913 -0.14532577
0.1660128 -0.073730566 -0.08047012 0.0068955547 0.017619172 0.10436298 0.111520335 -0.109784506
-0.048201263 -0.055811606 -0.11832745 -0.09825351 0.02670758 0.15158525 0.03819409 -0.12540458
-0.09106928 0.15180258 0.038227584 -0.06773071 0.11490085 -0.16065729 0.061507914 0.116805695
0.16426122 -0.2050969 -0.031438187 0.14656565 0.19007067 -0.036151126 -0.061167173 0.13385627
0.07178912 -0.15180741 -0.12147902 -0.093559265 -0.1593022 -0.11198459 -0.00947094 -0.038130544
-0.11289809 -0.04748695 0.14175597 -0.0363529 0.14383839 -0.07715606 -0.07212676 0.046017144
0.11059481 -0.027288837 -0.061681774 -0.0033663248 -0.12091184 -0.023589436 0.16889155 -0.0005854721
0.15464224 0.1028892 0.04027271 0.08283743 0.15066606 -0.047217026 -0.04608761 -0.108186804
-0.17763829 0.07457138 0.02757074 0.14468561 -0.10875632 -0.12908795 0.02815894 0.020581083
0.10933433 0.09992124 0.11802434 -0.027821232 -0.054243132 -0.123644285 0.004757314 -0.19335818
-0.07331517 0.18728139 0.14452842 0.00708819 0.019889103 0.042305943 -0.15400954 0.0064146
-0.13282296 -0.017244026 -0.122920305 -0.021189924 -0.017554224 -0.0004201903 -0.13847464 -0.046009026
-0.0036866711 0.18934184 0.024358159 -0.06413027 0.0404056 0.036045402 0.13277136 -0.017102405
0.03799592 0.17389002 0.13214411 0.016454583 -0.13402663 -0.027581224 -0.060863417 -0.12799883
-0.003938158 -0.018558778 -0.12683544 -0.19215079 -0.106192306 -0.05780042 0.09447374 0.17854318
-0.13544036 0.13405386 0.1664689 0.021265287 -0.09129064 0.045553524 -0.1315346 -0.08607809
-0.00899844 0.032875422 0.04337204 -0.18614197 0.004481191 0.017990751 0.15453924 -0.06533151

encoder.layer_stack.0.slf_attn.w_vs.weight f4 [128, 32]
00000000: 0e64 21be 460a 223e 88a6 96bd 0c9e d03d
00000010: 2b30 d93d 0361 343d 3b01 04be 4af9 da3d
00000020: c7ff 063e 988f ce3c 34d0 0abd 23c6 293e
00000030: bf77 a13d 15b1 87bd 89df 0ebe 80d3 3bbe
00000040: 18e9 013e 3dd3 32be 6858 883d f232 16bd
00000050: 6be5 30be 4176 41be 22ed a63d 6ac1 47be
00000060: 54a2 07be e54e 1abd 6783 38be 3fd4 e13b
00000070: 6ac0 113d d1db 05be 947c acbc a233 a9bd
00000080: 48f2 07bd 9b64 23be e253 b6bd 44c1 0d3e
00000090: 35b8 b53c 7479 163e a9a3 0ebd bf61 34be
000000a0: 69e9 3a3e e3f7 e63d 25e6 173e 2c9e d0bd
000000b0: 829a 25be 4aa4 b2bd 8f97 5bbd 4c4f 003d
000000c0: 569b e93d ad25 4f3d d90b f8bd a9cf 363e
000000d0: 75f3 c1bd 2d91 4bbe f134 29be 7e34 3dbe
000000e0: 652c 023e 3458 903d 3006 8f3d 7f4b 22bc
000000f0: b6ab 12bd e830 c43c 2bf4 8d3d 7e75 20be
00000100: 474c a2bd 4a91 353e 0c61 96bd a171 ed3a
00000110: 916e 35be 10b2 09be 9405 3cbd 4f1e 50bd
00000120: b5f6 033e 2f92 50bd 8de8 19be 4fdf 10be
00000130: fdc1 5c3d d40e 893d 8813 093e 9e50 1abe
00000140: bcc6 16be 90c1 0e3e 6120 c93d 002e 323e
00000150: de13 d83d 3e7b b13d 9430 023d f47b 503c
00000160: dd86 e2bd 1e79 0abe 611e f83d ea02 92bd
00000170: c193 263e 9507 96bd 2f4a 423d adbf 43be
00000180: 03b3 f4bd d3ea cabd ad53 20be 0a40 393e
00000190: 9011 193d bac5 59bd ea0e 26be 5325 efbd
000001a0: 5a62 993b d546 4a3d 412e 593b 4155 06be
000001b0: b758 30be dda8 65bc a733 31be b5cc 3c3d
000001c0: 9cb1 20bc b1a8 333e f7a7 d7bd c729 36be
000001d0: 477e b83d 57b1 2fbe 0a65 cebd e0d4 a23c
000001e0: 3ba0 433e 70ea 033e 86a8 80bc adc0 ef3c
000001f0: 5979 9b3d 92d2 1ebe 1c26 893d 53ba 003e
00000200: 1ef8 c9bc fd05 e23c 7a73 09be c36a 0fbe
00000210: 15d0 3dbd 7565 103e 931c fd3d bb28 473e
00000220: df8d 70bd cff9 3cbe 5269 a4bd 7db3 ff3d
00000230: 22ba 07bd f46f 3a3e a68b 0d3c d408 88bd
00000240: 2ef3 343e b26f 66bc a33e 943d 3e70 afbc
00000250: e92b 15bd 99f2 c8bd 0420 2d3e 6306 86bd
00000260: 349d 3abe 227c c73c 49e3 d03d 658f f83d
00000270: bd34 0e3e de2a 8f3d f715 44be 0c7b 453d
00000280: c42c 3f3e e991 1e3e 4f84 dabc 9d6e 31be
00000290: 5e75 b8bd c10e 093e d8ed 17be d01e d8bd
000002a0: c3ed 8b3d 4af8 103e 5ce8 893d e57c 4a3d
000002b0: 5806 1abe 35b3 95bd 6f17 2ebe f0e4 0abb
000002c0: 5cd4 a93d 5023 67bc df35 06bd 99dd f1bd
000002d0: 6640 063e 0c64 453e 5b5f 003e bbc2 623d
000002e0: 5bb3 82bd 2b9e 2f3e 78a0 60bd cd52 b63d
000002f0: 6fc9 2c3d c6ca a7bd 4099 4dbd 4a4d 63b9
00000300: 25d5 3ebe af61 523e 5317 cb3d 382c 873c
00000310: 6b71 87bd 749d 843d 98e4 3d3e 2f5e 143e
00000320: 0580 353d 2429 9e3d c60d fcbd ab6f 0e3b
00000330: 763d 1cbe 6ac3 c2bc 4527 a4bb 69ff eb3d
00000340: 24e4 7e3d 15ac f23d 5a9f c5bd 3288 ed3c
00000350: 685c ccbc fe48 273c 98da 0abd bf65 8b3d
00000360: bbc4 b2bd b448 04bd 28bd 60bc 59fd ab3d
00000370: 9d58 8bbd 45ea ac3d 290d 38be e803 ffbd
00000380: ad60 af3d 8d9f da3d 0503 edbc ab32 47be
00000390: 41de b13c 422a 353d 3433 e33c 73b0 893d
000003a0: 3bef c6bd 61e4 ddbd 1a50 af3d e1e0 913d
000003b0: 8e3a 1b3e 7c14 0bbe e457 d7bd 8542 62bd
000003c0: 38a8 17bc 8a79 113e de77 403e 3e30 29be
000003d0: 8831 f6bd df25 063e c144 8e3d 455a 913d
000003e0: 3987 02bc f24c fa3d 302f b7bc 224b 2d3e
000003f0: ebfa d53d 7f4b 413c 7924 1e3d dc22 bb3c
-0.15760824 0.15824232 -0.07355982 0.10186395 0.106048904 0.04403783 -0.12891094 0.10692079
0.13183509 0.025214955 -0.033889964 0.1657949 0.07884168 -0.066255726 -0.1395246 -0.183424
0.12686574 -0.17463394 0.06657487 -0.03666968 -0.17275016 -0.18892767 0.08150698 -0.19507375
-0.13245517 -0.037672896 -0.18018876 0.006891757 0.03558389 -0.13072135 -0.021055497 -0.08261801
-0.03319004 -0.15956347 -0.08902718 0.13843256 0.022182563 0.14694768 -0.034824047 -0.17615412
0.18253101 0.112777494 0.14833887 -0.10186419 -0.16172221 -0.08722742 -0.053611334 0.031325623
0.11406581 0.05057304 -0.12111635 0.17852654 -0.09470264 -0.19879599 -0.16524102 -0.18477055
0.12712248 0.070480734 0.06983602 -0.009905695 -0.035808288 0.023949102 0.06931337 -0.1566982
-0.07924705 0.17731205 -0.07342729 0.0018115529 -0.17717959 -0.13446832 -0.045903757 -0.050810155
0.1288708 -0.05092066 -0.15030117 -0.14147685 0.05389594 0.06692281 0.13386357 -0.15069816
-0.14724249 0.13941026 0.09820629 0.1740036 0.10550664 0.08666085 0.03178461 0.012724865
-0.110608794 -0.13522765 0.12115169 -0.07129462 0.16267301 -0.07325665 0.04743403 -0.19116087
-0.11948206 -0.099080704 -0.1565692 0.18090835 0.037370265 -0.053167082 -0.16216627 -0.11677041
0.004680914 0.049383957 0.0033139142 -0.1311846 -0.17221342 -0.014017311 -0.1730486 0.04609366
-0.00980797 0.1754482 -0.105300836 -0.17789374 0.090084605 -0.17157494 -0.100778654 0.019876897
0.19104092 0.128824 -0.015705358 0.02926668 0.075915046 -0.15510014 0.06696722 0.12571077
-0.024654444 0.027590746 -0.13422957 -0.1400557 -0.04634102 0.14101203 0.12358966 0.19449131
-0.05872905 -0.1845467 -0.08027901 0.124854065 -0.033136494 0.18206769 0.008639252 -0.06642309
0.1767089 -0.014064716 0.072385095 -0.021415826 -0.03641883 -0.09811897 0.16906744 -0.06544187
-0.1822403 0.024351183 0.10199601 0.12136725 0.13887306 0.06990598 -0.19149004 0.04821305
0.1866942 0.15485348 -0.026674418 -0.17327352 -0.09006761 0.13384534 -0.14836824 -0.10552752
0.06832459 0.14157215 0.06733772 0.049435515 -0.15041482 -0.07309572 -0.17001127 -0.0021193586
0.082924575 -0.01410754 -0.03276622 -0.118098445 0.13110504 0.19276446 0.12536375 0.05536149
-0.063818656 0.1715018 -0.054840535 0.08902512 0.04218429 -0.08192973 -0.05019498 -0.000216772
-0.18635996 0.20545076 0.09916558 0.016500577 -0.0661343 0.06475344 0.18544233 0.14489053
0.044311542 0.07722691 -0.123073146 0.002173404 -0.1525782 -0.023774821 -0.005009564 0.11523325
0.06222929 0.11849228 -0.096495345 0.028995607 -0.024946406 0.010210274 -0.033899873 0.06806516
-0.087289296 -0.032295898 -0.013716973 0.083979316 -0.06804011 0.08443121 -0.1797377 -0.12451917
0.08563361 0.10674963 -0.028932104 -0.19452922 0.021712424 0.044229753 0.027734376 0.06723108
-0.09713598 -0.108345754 0.085602 0.0712297 0.15159056 -0.13582033 -0.10514811 -0.05523922
-0.009256415 0.1420652 0.18795726 -0.16522309 -0.12021166 0.13100384 0.069467075 0.07097296
-0.00796681 0.122217074 -0.022361368 0.16923192 0.104482494 0.011797785 0.038609 0.02284377

encoder.layer_stack.0.slf_attn.fc.weight f4 [32, 128]
00000000: a154 d03c e98b 013e 3ae1 46bd 1d3e 25bd
00000010: 1858 813d 0486 64bd e8b4 6b3d 9465 16bc
00000020: 714b c8bb f41b bd3d 4b6e 953d 65b3 063e
00000030: 3f55 09be 096a 4e3c 7516 cf3c c3ad 2bbe
00000040: 141c 293e 04fa f23d 2c5d 6c3d bfb0 0dbe
00000050: 6052 3f3d b2cc e63d 7bd9 2d3c 1e03 8d3d
00000060: 7bc0 b63d 7764 033e b578 fd3d 11b1 9a3d
00000070: a7d9 123d 7bfd 00be e03a 13be 0a16 f43d
00000080: 6bf0 9fbd 64a2 713c 80c1 ccbd 4e87 4abd
00000090: 559c c0bd 4968 adbc 9a32 243d d418 11bd
000000a0: 682c 133e 2e17 2ebd 84bf 05bb ddef 2ebe
000000b0: 678b 803d 4771 12be 4abf b63d 08a6 1e3c
000000c0: 46f2 c03c 0bf1 52bc 052b 92bd d513 a6bb
000000d0: 421f 2b3e 8779 833d bf6d 233d 1273 8dbd
000000e0: f03d 2abe fb9a 2c3d 9db1 a5bd fcc2 933c
000000f0: 08cd d2bc ac41 743c 5db8 2e3e 3ad6 233e
00000100: 7411 b1bc 4e4f 563d dea1 a83d fd72 40be
00000110: e311 34be c428 78bd daad 2bbd 1a90 243e
00000120: 914b bcbd cde7 a83d 7e4d fcbd 6cc6 473e
00000130: 04b4 3f3e 2c4c 07be 8546 12be a49f 13be
00000140: 47f4 08be 8a6f 033e 4a58 2cbe 95b9 5d3c
00000150: 9a19 02be 64be 53bd 72fa b63d ad05 d03d
00000160: 2f2b 613d 3eb1 08be 4a34 193e 2591 07bc
00000170: 950d 013d 5d69 033e 0736 a3bd 5177 2b3e
00000180: f582 143e b616 453d 7676 263d 2e17 b3bc
00000190: 7052 c53d f753 8ebd 562a 053e 7795 40be
000001a0: c49c b13d eaf6 efbd ab4f c9bd e93f 653d
000001b0: 1ea3 993d e57a 973b 4e40 e9bc 29a0 d6bb
000001c0: 9d65 783d 8b8f 82bd 66a8 1b3e 6ad4 08bc
000001d0: 7de5 89bd f04b 7ebc 3796 19be 3815 1dbc
000001e0: ceeb 3dbe b29c 163d 8643 903d ebbd 4dbe
000001f0: 433b 8cbd 642b ca3d cbca 363d f63e b93d
00000200: 33f3 af3d bd21 6e3c f277 fbbd c5dc 92bd
00000210: fe4d 15be 861c 393e c279 be3c d2fd 0ebe
00000220: 712a 7f3b 7e88 563d b77b 073e dd24 32be
00000230: 360a 1f3e 4c87 6ebd 7873 3ebe 498e 323e
00000240: 7d44 f7bc abc1 e1bd cc99 833c a2f7 76bd
00000250: 1a62 ee3c 25b6 413e 7a44 21bd 1283 393e
00000260: 7881 a93d 137f 363e 5993 333e 77b0 c8bd
00000270: ba2a 04be 9b82 103e 33cb 2f3d 663a f2bd
00000280: 4597 293e cf6b 783c 586c 3d3e 4f26 d03b
00000290: 3c3b e2bd d04b c33d 36f9 09be 5a9b 083c
000002a0: 7f0e fb3d c6fa a6bd 698e 2cbe 6462 013c
000002b0: a0f4 a23b 25e2 eaba 4ee1 09bc 1029 0ebe
000002c0: d919 933d 9aa8 48be 3789 143e aa30 96bd
000002d0: 1214 e43d d2d8 143e 8f9f 07be cacf 043e
000002e0: 1e9c 45be 0240 b53c 98e0 89bd 1005 22bd
000002f0: 3bf1 14be f064 34be ab5a 6b3d 7b6e fcbc
00000300: 55c4 593d 5dbc 70bd 15aa ec3d 75f7 7d3d
00000310: b1ba 26be 53b1 dcbd e797 babd 05b7 97bd
00000320: 655a 5cbd 0644 5fbb e5e7 d93d ae3a 383e
00000330: a486 163e a579 2c3e bccd f83d 72ed 74bd
00000340: cfe6 303e 552e 4fbd e2e5 44bd 3256 833d
00000350: aa35 dd3d c7da 9abb 321b 593d de83 14be
00000360: e14b a5bd 7639 a6bd 1b3e 803d d7ae e3bd
00000370: d4ab 2cbc 5d4a d73d 2620 2c3e 604c 063d
00000380: 704a 463e 9a3f 1bbe 038e dfbd c5cc 193e
00000390: 27f0 3c3e 0b31 133e 83f0 23be c251 bc3d
000003a0: 32c2 d83b 3e69 e63d 50a2 09be 41ac 913c
000003b0: ed3a c03c dcea cd3d f179 2c3e 3aa5 34bc
000003c0: 14c6 073d 07dd d63c 8e8c 983b 5ad9 bf3c
000003d0: 9541 2a3e e964 c2bd 6627 bb3c b26b 56bd
000003e0: 5476 02be b34c a6bd b8ea 333e 2f24 bebc
000003f0: 68b6 a0bc 4f42 203c 20ce 413d b361 183e
0.02543098 0.12651028 -0.048554637 -0.04034244 0.06315631 -0.05579187 0.057545573 -0.009179492
-0.006112509 0.09233847 0.07296427 0.13154371 -0.13411425 0.012598523 0.025279263 -0.16765504
0.16514617 0.11864093 0.057706043 -0.13836955 0.04670942 0.11269511 0.010610933 0.0688536
0.089234315 0.12831293 0.12376539 0.07553304 0.0358521 -0.12596695 -0.14377928 0.11918266
-0.07809528 0.01474819 -0.09997845 -0.049445443 -0.09404818 -0.021167891 0.04008732 -0.03542407
0.14372408 -0.042502575 -0.0020408342 -0.17083688 0.06276589 -0.14301024 0.08923204 0.00968314
0.023553025 -0.012874852 -0.071371116 -0.005068282 0.16711143 0.06419664 0.039899584 -0.069067135
-0.1662519 0.04213999 -0.08090518 0.018037312 -0.025732532 0.0149082355 0.17062517 0.1599969
-0.021614768 0.052321725 0.08233999 -0.18793865 -0.17584948 -0.060585752 -0.041913845 0.16070595
-0.09194101 0.082473375 -0.12319468 0.19509286 0.18721014 -0.13212651 -0.14284714 -0.14416367
-0.13374434 0.12835518 -0.16830555 0.013533016 -0.12705079 -0.051695243 0.089344874 0.101573326
0.054972824 -0.13348863 0.14961353 -0.008274351 0.031507093 0.12833162 -0.07969289 0.16744734
0.14503081 0.048117362 0.040640317 -0.021861639 0.09634864 -0.06949609 0.13004431 -0.18807016
0.08672479 -0.11717017 -0.098296486 0.055969153 0.07501815 0.0046228045 -0.028473046 -0.0065498543
0.06064378 -0.06375035 0.15200958 -0.008351425 -0.067332245 -0.015521035 -0.14998709 -0.0095875785
-0.18546984 0.03677053 0.07044129 -0.20091979 -0.06847241 0.09871557 0.044626992 0.09045212
0.085913084 0.014534411 -0.12278737 -0.07171015 -0.14580533 0.18077287 0.023251418 -0.13964012
0.003893521 0.052376263 0.13230787 -0.17396875 0.15531239 -0.058234498 -0.18598735 0.1743709
-0.030184025 -0.11023267 0.016064547 -0.060294755 0.029099513 0.18917139 -0.039371945 0.18116406
0.08276647 0.17821912 0.17536677 -0.09799283 -0.12906924 0.14112322 0.042918395 -0.11827545
0.16561611 0.015162422 0.18498361 0.006352223 -0.11046454 0.095359445 -0.13473973 0.00833782
0.12258624 -0.081533 -0.168512 0.007896993 0.004973009 -0.001792018 -0.008415533 -0.13882852
0.071826644 -0.19595566 0.14505468 -0.07333501 0.111366406 0.14535835 -0.1324446 0.1296989
-0.19297835 0.022125248 -0.06732291 -0.03955561 -0.14545147 -0.1761663 0.057459515 -0.0308144
0.053165752 -0.058773387 0.11555878 0.06200357 -0.16282155 -0.107760094 -0.09111004 -0.07407955
-0.053797144 -0.0034067645 0.106399335 0.17991135 0.14699799 0.16843279 0.12148616 -0.059796758
0.17275546 -0.050581295 -0.048070796 0.06412925 0.10801251 -0.0047257873 0.05300445 -0.14503428
-0.080711134 -0.081164286 0.06261846 -0.111173324 -0.010539014 0.105122305 0.16809139 0.03278768
0.19364333 -0.15160981 -0.109157585 0.1501952 0.18450986 0.14374177 -0.16009717 0.091952816
0.0066149468 0.11250542 -0.13440824 0.017782332 0.023465598 0.100545615 0.16843392 -0.011025721
0.033147886 0.02622844 0.0046554273 0.023419071 0.1662658 -0.09491903 0.022845935 -0.0523488
-0.12740451 -0.08120098 0.17570007 -0.023210613 -0.019618228 0.009781434 0.047315717 0.1488102

encoder.layer_stack.0.slf_attn.layer_norm.weight f4 [32]
00000000: 09fc 803f 53bb 803f 5cab 7e3f f3ce 803f
00000010: 9ece 7f3f 5788 803f 39c1 7e3f 260f 7f3f
00000020: 8f7f 7d3f 6ca9 7c3f 2a44 803f 9353 7f3f
00000030: 69f4 803f b8da 7c3f 1660 7d3f 5799 803f
00000040: 305e 803f 6e02 7d3f 8983 803f 8a62 7e3f
00000050: ab51 7f3f 8f35 803f f285 803f 04c2 813f
00000060: 8dcf 803f 3ef3 7d3f 7e34 7e3f a866 7e3f
00000070: 43f9 7d3f cc55 813f 2cea 803f b37f 7d3f
1.0076915 1.0057167 0.99480224 1.0063156 0.9992465 1.0041608 0.99513584 0.9963249
0.99022764 0.9869602 1.0020802 0.997369 1.0074588 0.9877124 0.9897474 1.0046796
1.0028744 0.9883183 1.0040141 0.9936911 0.9973399 1.0016345 1.0040877 1.0137334
1.006334 0.99199283 0.99298847 0.9937539 0.9920847 1.0104308 1.0071464 0.9902298

encoder.layer_stack.0.slf_attn.layer_norm.bias f4 [32]
00000000: 0250 f63b f8bf b4b9 edb6 7c3c 9e85 153c
00000010: 5837 02bc 5ae1 483b 2eef 663b 5622 473b
00000020: 39f5 ec3b 5dca 98bb f3b2 923a 682c 3fba
00000030: f5f7 b6bb 18fb 17bc e338 293c 3f6a e73b
00000040: 3cb1 a3bb 0dba 09bc 6e02 2cbc 0f16 5d3c
00000050: 0ac7 a039 3297 06bc 4a48 a3bb f85f 603c
00000060: 92f5 f0bb b317 863b f591 fdbb c864 43bb
00000070: 21cd 663c 88c5 233c 8e95 c5bb 517b 07bc
0.007516862 -0.00034475303 0.015424472 0.009126095 -0.007947765 0.0030651898 0.0035237777 0.0030385456
0.0072313813 -0.0046627955 0.0011192247 -0.0007292689 -0.005583758 -0.009276174 0.010328504 0.007062226
-0.004995493 -0.008406174 -0.010498626 0.013494029 0.00030665874 -0.008214759 -0.0049829828 0.013694756
-0.007353493 0.0040921806 -0.0077383467 -0.002981471 0.0140869925 0.009995826 -0.006029791 -0.008269147

encoder.layer_stack.0.pos_ffn.w_1.weight f4 [128, 32]
00000000: 5cef cfbc 73a3 ed3d c3a5 643d 5b05 ff3d
00000010: 2da3 8fbd 99be 2a3d 1fbb 153e 6392 953c
00000020: dc96 0cbe 6f6d 15be 419d 39be e489 ff3d
00000030: bafe 9fbd 4d2b d4bc 468d b6bd 219e a53d
00000040: d3ad 04bd 87f8 113e 7004 d3bd aeba b33d
00000050: 7f1b ff3d 7f2f adbd d5ac 12be d22a c7bc
00000060: 0f94 a6bd 5bd4 423e 842c 4c3d 3a71 d4bb
00000070: 57e6 fd3d 1e2f 40bc 7b37 c6bd 9aab 97bd
00000080: 0dbf 823d b01c fcbd 2126 4abd 7d66 01be
00000090: cf86 04be b58a bbbd 5a96 f13d ae36 bfbb
000000a0: 9af1 14be de87 cbbc 2ac8 f2bd 36ca 2dbe
000000b0: 0c73 d6bd 8df5 01be 8ce4 f7bc bcdd 313e
000000c0: 4987 c03c 7757 063a 82d2 a23d e093 82bd
000000d0: bfde a4bd 3080 3a3c 8f76 22be 9f4b 483d
000000e0: c142 ad3d dbb7 03be 7a26 283e 73bd 17be
000000f0: 1cca 893d 0e1d 183d 76c8 fc3c 04d6 5fbc
00000100: d92b 19bd 7033 8abd f1a6 0e3e ffd1 70bd
00000110: 23d5 a93c a731 d939 9022 8cbc e599 343e
00000120: d0ea 32be e219 04bc edef d2bd 23a5 f8bd
00000130: d5ea adbb a563 583d fe72 913d de8d fabc
00000140: 1a9b edbd 2265 063e 8af2 fa3c 649c 1fbe
00000150: 0db6 31be f28a fc3d 7f70 113e 40d3 893d
00000160: 0cf8 1e3c cc0a 65bd 8e01 c13d 816e 353e
00000170: c1eb a0bd d842 2ebe bbfc d3bd 129a 9f3c
00000180: c4a3 30bd 004d 353e 8043 96bc a086 fa3d
00000190: a0c8 cf3d 1ceb 253e 204e fc3d e40d e0bd
000001a0: bc18 0abe 7caf d5bd 044e 553d 48d1 03be
000001b0: 0cdd 2d3e 188d 413d f0a1 db3c 38ca f13c
000001c0: e852 d6bc a40b 853d c882 0b3e bcf4 583d
000001d0: b6ee 1c3e 100a b33c ea04 423e 44c6 bcbd
000001e0: d85a 033e 79f6 35be ccb3 89bd 2898 89bd
000001f0: 004b c9ba fb13 fabd 90e9 d83c 5eee 8cbd
00000200: 38bf 01be 8d06 253e 1a02 6fbd aa2d 813d
00000210: 575c debd b5c1 a6bd 29dd c1bd 550b 263e
00000220: 9d11 1abe 7a25 ff3d 2472 0cbd c20f 133d
00000230: 5325 5a3c 332f 32bb 79ca 39be 33de 183e
00000240: 6eee 06be cc86 683c 1955 03be d06b b23c
00000250: 5b10 333e a087 1c3e 6c20 2c3e 07b6 01be
00000260: c696 2a3e 1990 78bd 88d4 d33d f7c9 df3d
00000270: c0a3 893d adaa 353e 16a8 f73d 530f 1f3e
00000280: 0a01 94bd 8b45 fe3d 2e98 5abd 9385 e93d
00000290: 1e33 123d ce24 e83c 1bb0 793c 059b a2bd
000002a0: 765f 09be b406 043d 6bb2 b9bd 2e3c 2b3b
000002b0: 47eb f73d 6982 473d 9dc6 26be 8380 dcbc
000002c0: 979b 2abe a806 18be 29f1 dc3d 0654 6fbd
000002d0: cf4e 88bd b647 26be 14e6 283d baf8 f33d
000002e0: a9e6 07be daa9 1ebe 5107 2cbd e9bb 1ebe
000002f0: 5d9f a63d ee47 07bd a7b5 90bd 9bf2 2d3e
00000300: 7ae4 4b3d 675c 523d b4eb bf3d addd fe3d
00000310: a723 a4bc e0cc 003a 3088 363e c0a6 15be
00000320: 5cb2 12be 8222 943b abfc 2a3e 02a6 f8bb
00000330: 4c64 4b3c b37a cfbd 3b35 373e 99c5 f63d
00000340: 197f b4bb 5c38 9bbc 4ff7 2dbd 2d9a 45bc
00000350: 1d69 00bd dea9 153e 68a6 1fbe 4eca efbd
00000360: bfc5 f03c 6239 df3d cfc5 e4bc 5d37 42bd
00000370: 4245 093d 6dab 3ebe d5bd 4dbe b2f6 7e3d
00000380: 90b5 06be af0c 55bd 65ef 27be 2300 38bd
00000390: 9c33 2ebe 3ca7 353e 73a5 933d 419a d23d
000003a0: 0a4a 4d3e 2ff6 523a 1a30 a4bd f3cd 32be
000003b0: 9534 a4bd f8a3 ff3d 19c4 2fbe ffeb d3bb
000003c0: 2859 31be b84e a53d 822b fbbd ee60 1e3d
000003d0: 3993 90bd 1acd 423c 2e3e d53d cd1e 073e
000003e0: 6b3e 8fbc 078e 34be 99a5 423e 338b 10be
000003f0: ec71 063e 0e4b 993c 7444 32be d258 ef3d
-0.02538269 0.11603441 0.055822145 0.12452193 -0.07013545 0.041685674 0.14622162 0.01825828
-0.13729423 -0.14592527 -0.18126394 0.124774724 -0.07812257 -0.025899554 -0.089136645 0.08086801
-0.032392334 0.14254962 -0.10303581 0.08775841 0.12456416 -0.08456325 -0.14323743 -0.02431241
-0.08133709 0.1902632 0.04984714 -0.006483224 0.123974495 -0.011729984 -0.09678551 -0.07405777
0.06384096 -0.12310159 -0.04935277 -0.12636752 -0.1294205 -0.09157316 0.117962554 -0.0058353757
-0.14545289 -0.02484506 -0.118545845 -0.16971669 -0.10471162 -0.12691326 -0.030260347 0.17369741
0.023502009 0.00051247276 0.079503074 -0.06375861 -0.08050298 0.011383101 -0.15865539 0.048900243
0.08459998 -0.12863104 0.16420928 -0.14818363 0.067280024 0.037137084 0.030857306 -0.013661865
-0.037395332 -0.06748092 0.1393087 -0.058794018 0.020731514 0.0004142646 -0.017106324 0.17636831
-0.17472386 -0.008062812 -0.102996685 -0.12140872 -0.005307535 0.052829403 0.07102011 -0.030585226
-0.11601849 0.13124517 0.03063323 -0.15587002 -0.17354603 0.12331189 0.1420307 0.06729746
0.009702694 -0.0559185 0.09424125 0.17717935 -0.078574665 -0.17017686 -0.10350939 0.019482646
-0.04312493 0.17705154 -0.018342733 0.12232709 0.10145688 0.16202968 0.12319589 -0.109401494
-0.13485998 -0.104338616 0.052076355 -0.12872803 0.16978854 0.047253698 0.026810616 0.02951537
-0.02616258 0.06496361 0.13624108 0.052967772 0.15325436 0.021855384 0.18947187 -0.09217504
0.12827623 -0.17769803 -0.06723747 -0.067184746 -0.0015357435 -0.12210842 0.026478559 -0.068814024
-0.126706 0.1611578 -0.058351614 0.06307538 -0.10857456 -0.081424154 -0.09466011 0.1621526
-0.15045781 0.1245832 -0.03428854 0.0359037 0.013314563 -0.0027188777 -0.18143643 0.14928512
-0.13176891 0.014192294 -0.12825431 0.021779925 0.17486708 0.15286112 0.16809243 -0.12667094
0.16659078 -0.060684297 0.103432715 0.109271936 0.06720686 0.17740889 0.12092607 0.1553319
-0.07226761 0.12415608 -0.053367786 0.114024304 0.03569328 0.028337862 0.015239741 -0.07939724
-0.13415322 0.032232955 -0.09067234 0.00261284 0.121054225 0.048708353 -0.16286702 -0.026916748
-0.16660915 -0.14846289 0.10788185 -0.05842974 -0.066556565 -0.16238293 0.041235045 0.11912675
-0.13271584 -0.1549448 -0.041999165 -0.1550137 0.08135865 -0.033027582 -0.070658974 0.16987078
0.04977844 0.051357653 0.09371129 0.12444625 -0.020036532 0.0004913341 0.17825389 -0.14614391
-0.14325851 0.004520715 0.16697948 -0.007588149 0.012414049 -0.10130825 0.178914 0.120494075
-0.0055083153 -0.018947773 -0.04247218 -0.012060684 -0.031350244 0.1461558 -0.15590823 -0.117085084
0.029391168 0.10899617 -0.027926354 -0.04741608 0.033513315 -0.18620081 -0.20091946 0.062246986
-0.13155198 -0.05201405 -0.16399916 -0.044922005 -0.17011875 0.17739576 0.07209291 0.10283328
0.20047775 0.00080475485 -0.08016987 -0.17461376 -0.08017842 0.124824464 -0.17164649 -0.006467342
-0.17319167 0.08071655 -0.12264158 0.038666658 -0.070593305 0.01188972 0.104122505 0.13195343
-0.017485818 -0.17632304 0.19008483 -0.141156 0.13129395 0.018712547 -0.17408925 0.11686863

encoder.layer_stack.0.pos_ffn.w_1.bias f4 [128]
00000000: dffc 01be 60bc 1abd c7f6 0fbe 14db bebd
00000010: 2645 2ebe 214d f9bd af13 b53d fc6d 17be
00000020: 3276 783d 1784 d4bd ab45 d83d 1af8 b43d
00000030: b8c7 bb3c 9e5d 0d3e e201 13be 7ace 0dbe
00000040: 47d2 433d 831a 3ebe 6f98 94bb d041 643b
00000050: 85dd 02be bc36 563d 55f0 0cbe bae4 ad3c
00000060: ea7a fb3d 1414 39be ccc8 1fbe 0816 f6bc
00000070: 0d7d 8cbd 7253 14be 3f78 a0bd d8bf 323d
00000080: 98ff 88bd 727b 29be e65a 963c 5a05 5dbd
00000090: 4936 b4ba f2ed cebc bb84 5f3d 8e51 003e
000000a0: a124 7cbd 9720 113e 56f4 dabd 76ac 9ebd
000000b0: 2f22 d23d f4cd 2dbe ca37 6f3c b9c5 1f3e
000000c0: d2d3 16bd 13f5 1d3e 2ba8 1d3e b21f 963c
000000d0: f450 b33d d90d 133e 39db 833d a7b7 1fbe
000000e0: 61aa a7bd c0a7 7e3d 4cfd 813d b9d8 9a3d
000000f0: db28 05be c600 05bd 71b5 0bbd 1252 34be
00000100: 205a 1dbe 2afd 2fbe c00f 10be 2bb5 253e
00000110: 2dc7 103b 68c4 a93d eb12 30bd 8fc7 b3bd
00000120: a610 4bbc c6a1 b0bd 614d ef3c 4bef dc3d
00000130: 7de9 55bd 523f 6e3d f764 02be ff8c 233e
00000140: d3d8 1cbe 3bd0 69bd 1d1e b0bb a301 27bd
00000150: 2ae9 8e3c 9b10 3d3d bebe 033e 3995 eb3d
00000160: e7ee 44bc 6480 bc3c db0e 25be 5308 08be
00000170: a8d8 0cbe a3dd 3cbd ef19 2fbe 1a98 b8bd
00000180: 8c6c b1bd 4386 c63d f6e0 c9bc 4fa5 203e
00000190: 8501 0dbe 218c 69bd 2dbf bb3c 3d1b b3bd
000001a0: f81d 1d3e b387 afbc 084d 11be e08f 8fbd
000001b0: 4f0e a13c e275 063d cb0a 22be c254 2ebe
000001c0: 250d 023e 866e 6f3d 3407 0d3e a804 fe3d
000001d0: baed 053d 16c3 ef3d d6fa 2e3e 894a fabd
000001e0: 54dd 8fbd bfac b03d 9145 73bd 032a 21be
000001f0: 341c c73d 35eb 033e 6052 c5bd d15b 02be
-0.12694119 -0.037777305 -0.14058982 -0.093191296 -0.17018566 -0.12172914 0.08841645 -0.1478805
0.060659595 -0.10376757 0.10560163 0.08836384 0.022922382 0.13805243 -0.14356187 -0.13848296
0.047807958 -0.18564801 -0.004534773 0.0034829266 -0.12779815 0.052298293 -0.13763554 0.02122723
0.12279303 -0.18074065 -0.15603942 -0.030039802 -0.06859789 -0.14484957 -0.07835435 0.043639988
-0.06689376 -0.16550997 0.01835389 -0.05396018 -0.0013749088 -0.025259946 0.05456994 0.1253111
-0.06155837 0.14172588 -0.10691135 -0.07747738 0.10260426 -0.16973096 0.0146007035 0.15602769
-0.0368231 0.1542552 0.15396182 0.01832566 0.08755675 0.14360751 0.06438298 -0.15597402
-0.08186794 0.062171698 0.06347141 0.07560868 -0.13003866 -0.03247144 -0.034108583 -0.17609432
-0.15366411 -0.17186418 -0.14068508 0.16182391 0.0022091374 0.08289415 -0.04298679 -0.08778297
-0.012394106 -0.08624606 0.029211702 0.10787829 -0.052224625 0.058165856 -0.12733828 0.15971754
-0.15317087 -0.05708335 -0.0053746835 -0.040773045 0.017445166 0.046158414 0.12865731 0.11503071
-0.012019849 0.02301044 -0.16118948 -0.13284425 -0.13754523 -0.046109807 -0.17099737 -0.09013386
-0.08663282 0.09693577 -0.024643403 0.1568806 -0.13770111 -0.057018403 0.022918308 -0.0874543
0.15343463 -0.021427011 -0.14189541 -0.07009864 0.019660143 0.032827266 -0.1582443 -0.1702452
0.12700327 0.058455013 0.13772279 0.12403232 0.032697417 0.117071316 0.17087874 -0.12221248
-0.07024637 0.08626699 -0.059392516 -0.15738682 0.09722176 0.12882693 -0.096348524 -0.12730338
