output/transformer_model_cpu.pth (torch_old, 869560 bytes, 109 tensors)

encoder.src_word_emb.weight f4 [10, 32]
-0.22866747 -0.023998825 0.2351801 0.13832878 0.16616885 -0.38643107 0.08667355 -0.27491525
-0.2685143 0.17453153 -0.03100801 0.15707695 -0.17228948 -0.1196274 -0.28506115 0.2339188
-0.26576313 0.34935457 0.29994324 -0.20717229 0.033592984 0.0916862 -0.24388078 0.055440214
0.22692125 -0.2711568 0.3696111 -0.08680271 0.18031156 -0.091865 -0.35975587 0.24466926
-0.05437575 -0.31030232 0.10578514 0.15742739 -0.30884036 -0.00793429 0.0072711813 -0.26835787
0.23597448 -0.36493096 0.26202875 -0.3967602 0.041807752 0.40541646 -0.047512554 0.004282231
0.16722253 -0.25628674 0.38367647 0.12970546 0.08497876 0.12092559 0.334225 -0.03782413
0.017539285 0.21556644 -0.22019145 0.13004434 0.037167154 -0.04248148 0.24107999 -0.24782375
0.20805272 0.2650534 -0.035133366 -0.25184754 -0.13707466 0.031991534 0.03179598 0.018280204
0.086388946 -0.02483698 -0.1831805 -0.36611536 0.34421808 0.008189547 -0.1579616 0.093279034
0.17554632 0.18999718 0.37395713 -0.37097168 -0.14354393 0.21901731 0.35500446 0.1368281
0.32114047 0.03408383 -0.11729973 0.07225746 -0.28723925 -0.22896196 0.2633234 0.16493253
0.3191106 0.35387078 0.2677047 0.1827066 -0.10538106 -0.24916947 0.26755354 0.0063577755
0.23541167 -0.29908067 -0.017042069 0.27771592 0.1936647 0.35255486 -0.09807434 -0.20908241
0.013395257 0.17273457 0.26814646 0.092320845 0.11454702 -0.3801836 0.27061662 0.37669894
-0.10696118 0.20548551 -0.16519047 -0.3307668 -0.09223889 0.3719625 -0.3082146 0.0022371896
-0.09256553 -0.030043188 0.23227258 -0.2082647 0.056608643 0.29030338 0.22354363 0.12241995
0.24774733 -0.33566836 0.08036915 -0.1894022 -0.16056675 -0.2030368 0.20571634 -0.1298223
0.31242153 -0.27286166 0.266934 -0.37301958 -0.3366599 0.27564603 0.1612271 0.089373596
-0.23925462 0.00915301 0.32548258 0.074271195 -0.13922615 0.31045002 0.24247558 0.34955722
-0.019663418 0.15647575 -0.37184525 0.18094906 -0.12279064 -0.15193833 -0.31206152 -0.1064659
-0.071664296 -0.0021828252 -0.28901443 0.32421583 0.1169598 -0.0813576 0.25203553 -0.39915755
0.26275864 0.3526066 -0.36137465 0.064894184 0.19521192 0.37006223 -0.037827913 0.04619777
-0.01478149 0.16840783 0.30497816 -0.27083135 -0.09086784 -0.16822708 -0.30385673 -0.060246807
0.16537419 -0.30165502 -0.23153119 0.36410588 -0.33407345 -0.00514472 -0.29358506 0.063578896
0.02819253 0.2451486 -0.2794627 0.09216409 0.08436232 0.07950934 0.36163348 0.11607688
0.27599838 0.052157417 0.1998124 -0.25462827 -0.10932581 0.028806766 -0.15535124 -0.17878467
0.09764788 0.092224754 -0.08579009 -0.31944394 -0.13161874 0.25152963 -0.3041432 0.023432136
0.24018544 0.3647227 -0.17783518 0.18341093 0.35526454 -0.17056717 0.12886289 0.013857068
-0.15845217 -0.10562476 0.3110458 0.2462995 0.22614682 0.24249782 0.07339519 0.21592352
-0.36016476 0.3009455 -0.13673168 0.3037291 0.1622996 0.28058636 0.21401349 -0.36578706
0.22634707 -0.30776107 -0.35279018 -0.023280142 0.040380828 0.337605 -0.022058744 0.3719387
00000000: ce27 6abe 2f99 c4bc 0dd3 703e 0fa6 0d3e
00000010: 2b28 2a3e 4bda c5be e781 b13d b1c1 8cbe
00000020: b57a 89be 65b8 323e 8304 febc c8d8 203e
00000030: a76c 30be 36ff f4bd 89f3 91be 6988 6f3e
00000040: 1b12 88be 9ade b23e 2992 993e f924 54be
00000050: cc98 093d f9c5 bb3d e2bb 79be 4715 633d
00000060: 0b5e 683e 10d5 8abe ab3d bd3e 9fc5 b1bd
00000070: 98a3 383e b823 bcbd ec31 b8be 948a 7a3e
00000080: 1bb9 5ebd f2df 9ebe e1a5 d83d a534 213e
00000090: 5320 9ebe d3fe 01bc 1743 ee3b 3466 89be
000000a0: 4ba3 713e 3bd8 babe a228 863e 2724 cbbe
000000b0: 9b3e 2b3d bf92 cf3e 869c 42bd f551 8c3b
000000c0: 623c 2b3e 0438 83be 3e71 c43e 82d1 043e
000000d0: 5809 ae3d d6a7 f73d 8a1f ab3e 7aed 1abd
000000e0: 8cae 8f3c 73bd 5c3e de79 61be 582a 053e
000000f0: 963c 183d 0f01 2ebd acdd 763e 82c5 7dbe
00000100: c60b 553e 14b5 873e 01e8 0fbd 29f2 80be
00000110: 4d5d 0cbe 8e09 033d 803c 023d 5ec0 953c
00000120: b0ec b03d ec76 cbbc ab93 3bbe 7973 bbbe
00000130: 5a3d b03e 732d 063c b0c0 21be 1409 bf3d
00000140: 6ac2 333e 9f8e 423e 4f77 bf3e 00f0 bdbe
00000150: 2efd 12be 1346 603e 25c3 b53e aa1c 0c3e
00000160: 866c a43e 7c9b 0b3d d73a f0bd b8fb 933d
00000170: 0611 93be 0175 6abe 53d2 863e 13e4 283e
00000180: 7762 a33e 8d2e b53e 9710 893e 7017 3b3e
00000190: 06d2 d7bd 4826 7fbe c7fc 883e e354 d03b
000001a0: c20f 713e 1a21 99be cf9b 8bbc c830 8e3e
000001b0: 0a50 463e 1282 b43e 33db c8bd b319 56be
000001c0: c877 5b3c 55e1 303e 7e4a 893e b612 bd3d
000001d0: a197 ea3d 6da7 c2be 438e 8a3e afde c03e
000001e0: 770e dbbd cb6a 523e b127 29be 445a a9be
000001f0: bee7 bcbd de71 be3e 4ece 9dbe d09d 123b
00000200: ff92 bdbd 221d f6bc ddd8 6d3e 5743 55be
00000210: 77de 673d a5a2 943e 9fe8 643e 50b7 fa3d
00000220: 7ab1 7d3e b9dc abbe 9598 a43d a6f2 41be
00000230: 9c6b 24be e1e8 4fbe 4ea7 523e 23f0 04be
00000240: b7f5 9f3e 86b4 8bbe 93ab 883e 6cfc bebe
00000250: b05e acbe 7a21 8d3e b818 253e 8109 b73d
00000260: 2aff 74be 82f6 153c a7a5 a63e 7f1b 983d
00000270: 4d91 0ebe 4ef3 9e3e 854b 783e 2af9 b23e
00000280: 2d15 a1bc 2e3b 203e 8062 bebe b64a 393e
00000290: a979 fbbd b995 1bbe 87c6 9fbe cb0a dabd
000002a0: bbc4 92bd bb0d 0fbb b3f9 93be 9eff a53e
000002b0: 9f88 ef3d d09e a6bd cd0a 813e 615e ccbe
000002c0: 4d88 863e da88 b43e 1906 b9be 3ee7 843d
000002d0: a2e5 473e cc78 bd3e 71f1 1abd df39 3d3d
000002e0: 102e 72bc 1a73 2c3e 1926 9c3e 68aa 8abe
000002f0: eb18 babd b843 2cbe 1c93 9bbe 5bc5 76bd
00000300: da57 293e 8772 9abe 8316 6dbe 166c ba3e
00000310: ad0b abbe 0a95 a8bb c850 96be a735 823d
00000320: 05f4 e63c 3c08 7b3e bc15 8fbe 87c0 bc3d
00000330: 27c6 ac3d cbd5 a23d 0628 b93e b7b9 ed3d
00000340: a94f 8d3e 04a3 553d 9f9b 4c3e a35e 82be
00000350: 36e6 dfbd 2bfc eb3c 6514 1fbe 5413 37be
00000360: 9dfb c73d 55e0 bc3d b7b2 afbd 288e a3be
00000370: 10c7 06be 7ec8 803e a8b8 9bbe c0f4 bf3c
00000380: 2cf3 753e efbc ba3e 6d1a 36be 13d0 3b3e
00000390: 3ce5 b53e 29a9 2ebe a2f4 033e c108 633c
000003a0: 4941 22be cb51 d8bd 6541 9f3e f035 7c3e
000003b0: 0893 673e 5951 783e 3850 963d 0e1b 5d3e
000003c0: 8467 b8be 8715 9a3e 6403 0cbe 6182 9b3e
000003d0: de31 263e 04a9 8f3e 5a26 5b3e 7148 bbbe
000003e0: 87c7 673e dc92 9dbe eaa0 b4be ffb5 bebc
000003f0: 5e66 253d 90da ac3e 8ab4 b4bc c06e be3e

encoder.position_enc.pos_table f4 [1, 200, 32]
0.0 1.0 0.0 1.0 0.0 1.0 0.0 1.0
0.0 1.0 0.0 1.0 0.0 1.0 0.0 1.0
0.0 1.0 0.0 1.0 0.0 1.0 0.0 1.0
0.0 1.0 0.0 1.0 0.0 1.0 0.0 1.0
0.84147096 0.5403023 0.53316844 0.84600914 0.3109836 0.95041525 0.17689219 0.9842302
0.099833414 0.9950042 0.056204498 0.9984193 0.031617507 0.99950004 0.017781857 0.99984187
0.009999833 0.99995 0.0056233834 0.9999842 0.0031622723 0.999995 0.0017782785 0.9999984
0.0009999998 0.9999995 0.0005623413 0.9999998 0.00031622776 0.99999994 0.00017782794 1.0
0.9092974 -0.41614684 0.9021307 0.43146282 0.5911271 0.8065784 0.34820527 0.9374183
0.19866933 0.9800666 0.112231314 0.9936821 0.063203394 0.9980007 0.03555809 0.9993676
0.019998666 0.9998 0.011246589 0.99993676 0.0063245133 0.99998 0.0035565514 0.9999937
0.0019999987 0.999998 0.0011246824 0.99999934 0.0006324555 0.9999998 0.00035565588 0.99999994
0.14112 -0.9899925 0.9932532 -0.11596614 0.8126489 0.5827536 0.50853616 0.86104065
0.29552022 0.9553365 0.1679033 0.9858035 0.09472609 0.99550337 0.05332308 0.9985773
0.029995501 0.99955004 0.016869439 0.9998577 0.009486691 0.999955 0.005334813 0.99998575
0.0029999956 0.9999955 0.0016870232 0.99999857 0.0009486832 0.9999995 0.0005334838 0.9999999
-0.7568025 -0.6536436 0.77847177 -0.62767965 0.95358074 0.30113748 0.652828 0.7575062
0.38941833 0.921061 0.22304448 0.9748083 0.12615407 0.99201065 0.07107121 0.9974713
0.039989334 0.9992001 0.022491757 0.99974704 0.012648773 0.99992 0.0071130577 0.9999747
0.0039999895 0.999992 0.0022493633 0.9999975 0.0012649107 0.9999992 0.0007113117 0.99999976
-0.9589243 0.2836622 0.3239352 -0.94607925 0.99994653 -0.010342319 0.77652997 0.6300803
0.47942555 0.87758255 0.27748054 0.96073127 0.15745589 0.987526 0.08879686 0.99604976
0.04997917 0.99875027 0.028113361 0.99960476 0.01581073 0.999875 0.00889128 0.9999605
0.0049999794 0.9999875 0.002811703 0.99999607 0.0015811381 0.99999875 0.0008891396 0.9999996
-0.2794155 0.96017027 -0.23036748 -0.9731037 0.94714814 -0.32079646 0.8757406 0.482782
0.5646425 0.8253356 0.33103934 0.943617 0.18860029 0.98205394 0.106494434 0.9943133
0.059964005 0.99820054 0.03373408 0.99943084 0.018972527 0.99982 0.010669474 0.9999431
0.005999964 0.999982 0.0033740415 0.99999434 0.0018973654 0.9999982 0.0010669675 0.9999994
0.6569866 0.75390226 -0.71372116 -0.7004299 0.80042166 -0.5994374 0.9473307 0.32025698
0.64421767 0.7648422 0.38355157 0.92351943 0.2195561 0.9755999 0.12415834 0.9922624
0.06994285 0.997551 0.03935373 0.9992253 0.022134136 0.999755 0.012447635 0.9999225
0.006999943 0.9999755 0.003936379 0.99999225 0.0022135926 0.99999756 0.0012447953 0.9999992
00000000: 0000 0000 0000 803f 0000 0000 0000 803f
00000010: 0000 0000 0000 803f 0000 0000 0000 803f
00000020: 0000 0000 0000 803f 0000 0000 0000 803f
00000030: 0000 0000 0000 803f 0000 0000 0000 803f
00000040: 0000 0000 0000 803f 0000 0000 0000 803f
00000050: 0000 0000 0000 803f 0000 0000 0000 803f
00000060: 0000 0000 0000 803f 0000 0000 0000 803f
00000070: 0000 0000 0000 803f 0000 0000 0000 803f
00000080: a46a 573f 4051 0a3f ba7d 083f 0e94 583f
00000090: 3e39 9f3e 6a4e 733f 3a23 353e 83f6 7b3f
000000a0: 7675 cc3d 98b8 7e3f b036 663d 6898 7f3f
000000b0: 5c81 013d 3cdf 7f3f 42ab 913c a3f5 7f3f
000000c0: 57d6 233c b9fc 7f3f 5c44 b83b f7fe 7f3f
000000d0: 203e 4f3b acff 7f3f 2015 e93a e5ff 7f3f
000000e0: 6d12 833a f8ff 7f3f 166a 133a fdff 7f3f
000000f0: 5fcb a539 ffff 7f3f 5377 3a39 0000 803f
00000100: b7c7 683f 3311 d5be 0af2 663f b2e8 dc3e
00000110: 1b54 173f ec7b 4e3f f647 b23e a5fa 6f3f
00000120: f96f 4b3e a5e5 7a3f 88d9 e53d f361 7e3f
00000130: c870 813d f97c 7f3f 5ca5 113d 8ed6 7f3f
00000140: 3ed4 a33c e5f2 7f3f 9d43 383c dbfb 7f3f
00000150: dd3d cf3b b0fe 7f3f 0815 693b 96ff 7f3f
00000160: 6912 033b deff 7f3f 146a 933a f5ff 7f3f
00000170: 5fcb 253a fdff 7f3f 5377 ba39 ffff 7f3f
00000180: c381 103e 2670 7dbf d745 7e3f a87f edbd
00000190: c209 503f 572f 153f 6d2f 023f 296d 5c3f
000001a0: 6d4e 973e ef90 743f d8ee 2b3e 9e5d 7c3f
000001b0: c1ff c13d 4fd9 7e3f 4d69 5a3d c3a2 7f3f
000001c0: 20b9 f53c 83e2 7f3f c731 8a3c adf6 7f3f
000001d0: 116e 1b3c 0dfd 7f3f a8cf ae3b 11ff 7f3f
000001e0: 939b 443b b5ff 7f3f 1b1f dd3a e8ff 7f3f
000001f0: 0db1 783a f8ff 7f3f 7ed9 0b3a feff 7f3f
00000200: cfbd 41bf 3055 27bf ed49 473f 9daf 20bf
00000210: de1d 743f b12e 9a3e bc1f 273f edeb 413f
00000220: d761 c73e a7ca 6b3f c665 643e 098d 793f
00000230: 882e 013e 69f4 7d3f c88d 913d 475a 7f3f
00000240: dbcb 233d 94cb 7f3f a240 b83c 6cef 7f3f
00000250: cd3c 4f3c c2fa 7f3f a714 e93b 58fe 7f3f
00000260: 5812 833b 7aff 7f3f 0e6a 133b d6ff 7f3f
00000270: 5ccb a53a f3ff 7f3f 5277 3a3a fcff 7f3f
00000280: 107c 75bf 2c3c 913e d6da a53e 4032 72bf
00000290: 7ffc 7f3f d472 29bc abca 463f f14c 213f
000002a0: 4477 f53e 40a9 603f ee11 8e3e 7cf2 753f
000002b0: 1e3c 213e 81ce 7c3f 21db b53d 1efd 7e3f
000002c0: f5b6 4c3d 19ae 7f3f fe4d e63c 19e6 7f3f
000002d0: 8185 813c cff7 7f3f bbac 113c 69fd 7f3f
000002e0: ded6 a33b 2eff 7f3f 8c44 383b beff 7f3f
000002f0: 313e cf3a ebff 7f3f 2615 693a f9ff 7f3f
00000300: 8c0f 8fbe b8cd 753f 74e5 6bbe 531d 79bf
00000310: 4d78 723f 6f3f a4be 8930 603f 342f f73e
00000320: 698c 103f 3249 533f fd7d a93e e290 713f
00000330: 6f20 413e e367 7b3f c119 da3d 518b 7e3f
00000340: d19c 753d 128a 7f3f bf2c 0a3d b3da 7f3f
00000350: 466c 9b3c 34f4 7f3f 04cf 2e3c 45fc 7f3f
00000360: 599b c43b d2fe 7f3f 061f 5d3b a1ff 7f3f
00000370: 05b1 f83a e2ff 7f3f 7dd9 8b3a f6ff 7f3f
00000380: 4630 283f bdff 403f 6eb6 36bf 604f 33bf
00000390: 6fe8 4c3f bb74 19bf 4484 723f b9f8 a33e
000003a0: 73eb 243f b3cc 433f df60 c43e c56b 6c3f
000003b0: 50d3 603e eac0 793f ba46 fe3d e904 7e3f
000003c0: 323e 8f3d 815f 7f3f 6031 213d 3bcd 7f3f
000003d0: a652 b53c f2ef 7f3f 2af1 4b3c ecfa 7f3f
000003e0: c75f e53b 65fe 7f3f befc 803b 7eff 7f3f
000003f0: ec11 113b d7ff 7f3f 6628 a33a f3ff 7f3f

encoder.layer_stack.0.slf_attn.w_qs.weight f4 [128, 32]
0.06760252 -0.17674811 -0.12375325 0.07631812 0.034389593 -0.059531353 -0.18788046 0.039749235
-0.14172101 0.023931304 0.11770032 0.0042212126 0.06114745 -0.20546402 -0.118080206 0.15811926
0.022880284 0.047578417 0.09140388 0.095594965 -0.06451924 0.019645596 0.18282048 -0.16409053
-0.114004284 -0.17745245 -0.122035936 0.013986516 -0.093994126 -0.114885174 0.092446044 0.14641137
0.045979563 -0.14177957 -0.1274708 0.114478275 -0.16988543 7.154362e-05 -0.1855831 0.12897797
-0.13294166 -0.07058114 0.04681732 0.17280802 0.06810986 0.14520778 0.14767522 0.13747868
0.11352377 0.1546071 -0.16774929 -0.0333244 -0.15877037 0.07329126 0.023223149 0.030472029
0.09465249 0.10004524 0.10996383 -0.006774872 0.120607495 0.046870388 0.046856284 0.14337902
0.010681784 -0.1323479 0.068319686 -0.11711862 0.09058462 0.09381419 -0.14381313 0.006360115
-0.04199148 0.07919703 0.041492555 -0.14929695 0.1101961 0.11223218 0.07556637 0.039124206
0.006346193 0.14854266 -0.10447279 0.0056640836 -0.1912503 -0.20005177 0.049715087 0.12566943
0.0046769767 -0.1226202 -0.06896278 0.11647723 0.020028615 0.13609628 0.09770327 0.17092757
0.008306345 0.051359206 0.1093975 -0.15063615 0.16091114 -0.098164946 0.058963764 0.0112394
-0.003603556 0.16086783 -0.17431726 -0.04356019 0.008493067 0.05299758 0.1695492 0.08611522
-0.13698107 0.062181987 0.18930951 -0.14574108 -0.09879709 -0.0055936403 -0.006551893 0.05356183
-0.0064295838 -0.11986101 0.09427051 -0.05548643 -0.083342925 -0.11212747 0.119921245 -0.09010081
0.081214756 0.05953349 -0.15906984 -0.09639298 0.10119159 -0.06866713 0.04532258 -0.15010384
-0.09403099 0.08582603 0.09028724 -0.049280167 0.0024929459 -0.09398216 0.008506365 0.17416985
-0.015116912 -0.13800117 0.10706492 -0.07932812 0.19701618 0.01672321 0.04955765 -0.14005181
-0.06812752 -0.17784342 0.08840073 0.025155226 0.15527748 0.16623944 0.0204225 -0.004495272
0.10176229 0.11863633 0.12841961 0.07273403 -0.045583665 0.02607983 0.011559119 0.18021683
-0.037800558 -0.10451114 -0.10057156 0.112948515 0.08179373 0.08473509 0.03520593 -0.08466388
-0.09027511 0.023490444 0.15729518 0.1749274 -0.053972833 0.050309304 0.04376948 0.12072401
0.16592516 0.13020582 -0.118015446 -0.07920919 0.032579772 0.021323169 0.09878255 -0.105355345
0.08561211 0.12525184 -0.12489856 -0.003330419 -0.113911875 -0.19807333 -0.040648296 0.025554717
-0.029518906 0.16248304 0.024840122 -0.051551685 -0.07676942 -0.15459214 -0.124536045 -0.16905636
-0.024215765 -0.18137063 -0.018506527 -0.13269281 -0.18343283 -0.13468607 0.11343083 -0.18351978
0.121730186 0.011534405 0.16980784 0.019155033 -0.16221662 -0.0075170253 0.005243472 0.011735855
0.11432527 0.08944148 0.11855707 -0.15278414 -0.100876674 -0.015401855 -0.022668824 0.08804035
-0.013520542 -0.0051364335 0.17311637 0.043645933 0.12814647 -0.18135428 -0.069136746 0.036008704
-0.04299561 0.086203255 -0.10433367 0.031564035 0.07635728 -0.1517555 -0.17391044 -0.118383
0.18316504 -0.1882329 0.04276287 0.15601173 -0.051479116 0.10660537 -0.053424623 0.046507582
00000000: 3173 8a3d 75fd 34be 5872 fdbd ad4c 9c3d
00000010: 1adc 0c3d 26d7 73bd bc63 40be 18d0 223d
00000020: 501f 11be 950b c43c de0c f13d 1952 8a3b
00000030: c075 7a3d 2965 52be 09d4 f1bd 04ea 213e
00000040: 6f6f bb3c 96e1 423d f531 bb3d 4bc7 c33d
00000050: aa22 84bd cdef a03c 4b35 3b3e 5907 28be
00000060: 147b e9bd 18b6 35be faed f9bd b327 653c
00000070: fe7f c0bd eb48 ebbd 5a54 bd3d ddec 153e
00000080: 1155 3c3d aa2e 11be b587 02be 9673 ea3d
00000090: 72f6 2dbe b009 9638 7f09 3ebe cd12 043e
000000a0: dc21 08be d88c 90bd 85c3 3f3d 96f4 303e
000000b0: 2f7d 8b3d 59b1 143e 2c38 173e 36c7 0c3e
000000c0: 267f e83d 5351 1e3e 78c6 2bbe 2b7f 08bd
000000d0: b394 22be ba19 963d 793e be3c 7aa0 f93c
000000e0: 2ad9 c13d 85e4 cc3d b734 e13d bfff ddbb
000000f0: 1001 f73d 2afb 3f3d 60ec 3f3d f3d1 123e
00000100: a602 2f3c 3586 07be 31eb 8b3d e3db efbd
00000110: 6e84 b93d a721 c03d c043 13be 8368 d03b
00000120: 42ff 2bbd 0d32 a23d 19f4 293d 4de1 18be
00000130: 7eae e13d fcd9 e53d 8ac2 9a3d b440 203d
00000140: baf3 cf3b 911b 183e d5f5 d5bd c799 b93b
00000150: 1ed7 43be 5fda 4cbe 0ca2 4b3d 7daf 003e
00000160: 5341 993b 4d20 fbbd 5c3c 8dbd 9d8b ee3d
00000170: 0d13 a43c d35c 0b3e a718 c83d a307 2f3e
00000180: 5617 083c 085e 523d cc0b e03d 5d40 1abe
00000190: e4c5 243e b40a c9bd fd83 713d 7625 383c
000001a0: a329 6cbb 89ba 243e 3980 32be 2b6c 32bd
000001b0: 8126 0b3c fe13 593d 4e9e 2d3e 2d5d b03d
000001c0: c444 0cbe 8ab2 7e3d 5ada 413e 263d 15be
000001d0: 2156 cabd db4a b7bb 43b1 d6bb a663 5b3d
000001e0: 42af d2bb b079 f5bd e610 c13d bd45 63bd
000001f0: b2af aabd 16a3 e5bd 4599 f53d c686 b8bd
00000200: ec53 a63d 64d9 733d 34e3 22be af69 c5bd
00000210: 893d cf3d 5aa1 8cbd 2ba4 393d d2b4 19be
00000220: 5293 c0bd 8fc5 af3d 84e8 b83d 00da 49bd
00000230: b160 233b b879 c0bd 485e 0b3c 9559 323e
00000240: edac 77bc 2e50 0dbe da44 db3d c876 a2bd
00000250: 9cbe 493e 1dff 883c f6fc 4a3d be69 0fbe
00000260: 7186 8bbd 961c 36be 710b b53d 5512 ce3c
00000270: 0f01 1f3e ac3a 2a3e 164d a73c 134d 93bb
00000280: bf68 d03d 9bf7 f23d 6e80 033e 94f5 943d
00000290: f0b5 3abd 5ea5 d53c 7662 3d3c c38a 383e
000002a0: c2d4 1abd f009 d6bd 76f8 cdbd 8d51 e73d
000002b0: 7983 a73d 9789 ad3d 1834 103d 4264 adbd
000002c0: 28e2 b8bd 086f c03c fd11 213e 2b20 333e
000002d0: 9e12 5dbd 2111 4e3d a047 333d 263e f73d
000002e0: 49e8 293e ad54 053e 15b2 f1bd 6e38 a2bd
000002f0: 5e72 053d edad ae3c 814e ca3d 8bc4 d7bd
00000300: 6755 af3d 0542 003e d1ca ffbd 2943 5abb
00000310: a14a e9bd bcd3 4abe d47e 26bd 2058 d13c
00000320: a2d1 f1bc f461 263e 837d cb3c dc27 53bd
00000330: 4939 9dbd 674d 1ebe c10c ffbd 1c1d 2dbe
00000340: 2460 c6bc 39b9 39be 009b 97bc a0e0 07be
00000350: d1d5 3bbe 25eb 09be 6c4e e83d 9cec 3bbe
00000360: ad4d f93d cdfa 3c3c 1be2 2d3e 04eb 9c3c
00000370: 1d1c 26be 6151 f6bb 6ed1 ab3b be47 403c
00000380: 5e23 ea3d 182d b73d 0dce f23d 7273 1cbe
00000390: 6e98 cebd 1058 7cbc f8b3 b9bc 804e b43d
000003a0: 4385 5dbc 874f a8bb 6b45 313e 14c6 323d
000003b0: d438 033e f0b4 39be 9197 8dbd dd7d 133d
000003c0: 2a1c 30bd 558b b03d e4ac d5bd 4a49 013d
000003d0: 3561 9c3d cb65 1bbe 9415 32be c972 f2bd
000003e0: 9e8f 3b3e 20c0 40be 1f28 2f3d 8ac1 1f3e
000003f0: c4db 52bd eb53 da3d c7d3 5abd bc7e 3e3d

encoder.layer_stack.0.slf_attn.w_ks.weight f4 [128, 32]
-0.15353736 0.14574265 0.14500171 0.17043132 -0.15133525 0.18242311 0.17470531 -0.030931668
-0.103639774 -0.136547 0.05428127 -0.074514605 0.091263205 -0.12771504 -0.14239612 -0.068249196
0.030774502 -0.14864181 0.15465419 0.10517078 -0.15655115 0.11327249 0.040590562 -0.078552745
-0.15795329 -0.03539545 0.013768432 -0.054776296 -0.1625211 -0.04152461 -0.17739621 -0.049873773
0.18336625 -0.13139288 -0.036138434 -0.14754774 0.16354305 0.009613062 -0.025257519 0.182571
0.18413362 -0.121656 0.065267324 -0.17504063 -0.17562675 0.08323272 -0.03237336 0.0085221855
0.031758264 0.10907445 0.052155767 -0.19124475 0.15148142 -0.017294783 -0.10089453 -0.026441963
0.10292381 -0.023842204 -0.0107900575 0.118174 -0.110013664 -0.16215512 -0.18757841 -0.14522435
0.023692241 -0.12008138 -0.0053711957 0.105974965 0.18091328 0.040947124 0.00027395456 0.1798017
0.11239046 -0.17741223 -0.13815756 -0.16313724 0.16522709 -0.08533002 -0.13603185 0.009954796
0.10401669 -0.022926793 -0.10158649 -0.04361335 0.07300992 0.15375614 -0.07873054 0.16879109
0.016863763 0.09747044 0.015866756 -0.18113434 0.1490787 0.0935371 -0.1874214 -0.01866674
0.10540465 0.12331719 0.06242974 -0.012603546 -0.1135818 0.011131993 -0.07275625 -0.09412235
-0.1489058 0.07102521 0.12570976 0.118958935 -0.06443602 0.16303301 -0.1676166 -0.037413087
-0.042169724 -0.077430025 -0.0660792 0.06329677 -0.035537 -0.1284907 0.04497025 -0.19329244
-0.08013788 0.08433743 0.043635406 -0.15796618 0.027597778 -0.022770626 0.022829484 -0.17615229
-0.05933882 -0.06600659 0.07403824 0.045855004 0.017277284 -0.012483704 0.122267626 -0.054410663
0.0032523586 -0.17704444 0.189777 0.034267962 0.0744615 -0.1567431 0.025884245 0.17855208
0.06467746 0.07161539 0.10652434 -0.075065754 0.14385492 0.11532857 0.12556951 0.09667621
-0.16247357 0.04140865 -0.14050029 -0.17021397 0.103770584 0.09053681 -0.11829742 0.0077547873
0.1382058 0.041244972 -0.17056687 0.16456379 0.07242205 -0.014555527 0.12132314 0.018296832
-0.032264967 -0.17819904 0.00058629544 -0.031940002 -0.16395749 0.12510192 -0.08778826 -0.12410763
0.20033513 -0.04019434 -0.08426806 -0.02430574 0.1656751 0.02140976 0.0072062803 0.04098861
0.16758434 -0.053954378 -0.17483962 0.17181504 -0.165647 0.016500648 -0.18557316 -0.113409914
0.08803613 0.07674538 0.092087336 -0.031279944 0.15933494 0.0067715915 0.19590245 0.13452771
0.042098254 0.10426291 0.18566962 0.016193386 0.14281383 0.13840811 -0.13483198 -0.14651875
-0.066417344 0.027289357 0.14892924 0.18656382 0.08762456 0.0063282335 0.045402464 -0.02600225
0.12677477 -0.0005667377 0.013449971 0.06975261 0.11909402 -0.18307471 0.12060906 0.031023769
0.09506035 -0.028644465 -0.04179617 -0.16817899 0.06860513 -0.17887935 -0.16782653 -0.09061885
0.20299587 -0.08954887 0.020801071 -0.0014760232 -0.1579862 0.18939506 0.041172843 0.18658969
-0.097520806 0.09491909 0.010147077 0.0355207 -0.121867694 -0.066811755 -0.15855536 -0.10233836
-0.10124694 0.14451905 0.18565898 0.13564304 -0.034112368 -0.17748658 -0.10958341 0.1216003
00000000: e638 1dbe 903d 153e 547b 143e 8c85 2e3e
00000010: a1f7 1abe 20cd 3a3e f3e5 323e 6964 fdbc
00000020: 1741 d4bd fad2 0bbe 0956 5e3d 1d9b 98bd
00000030: 34e8 ba3d bbc7 02be 4ad0 11be 3cc6 8bbd
00000040: cf1a fc3c 8f35 18be ab5d 1e3e c763 d73d
00000050: f24e 20be 68fb e73d 4a42 263d 43e0 a0bd
00000060: 82be 21be d2fa 10bd fd94 613c 1c5d 60bd
00000070: ee6b 26be b615 2abd 5aa7 35be 7148 4cbd
00000080: 5dc4 3b3e db8b 06be e505 14bd c116 17be
00000090: d477 273e 1b80 1d3c dbe8 cebc e4f3 3a3e
000000a0: 868d 3c3e c826 f9bd e0aa 853d da3d 33be
000000b0: 80d7 33be eb75 aa3d ee99 04bd a3a0 0b3c
000000c0: f414 023d 6d62 df3d 49a1 553d aad5 43be
000000d0: f21d 1b3e caad 8dbc cba1 cebd d19c d8bc
000000e0: b8c9 d23d ba50 c3bc c8c8 30bc 3605 f23d
000000f0: d84e e1bd fe0b 26be 8e14 40be b1b5 14be
00000100: 3b16 c23c 3aed f5bd db00 b0bb 6709 d93d
00000110: 5541 393e 2cb8 273d 8fa1 8f39 f01d 383e
00000120: f82c e63d 8dab 35be 2d79 0dbe 730d 27be
00000130: 4a31 293e 81c1 aebd ef4b 0bbe 7119 233c
00000140: b406 d53d f8d0 bbbc 940c d0bd e9a3 32bd
00000150: 3a86 953d 4072 1d3e 7a3d a1bd 92d7 2c3e
00000160: e025 8a3c 959e c73d 00fb 813c 487b 39be
00000170: 16a8 183e 6190 bf3d 65eb 3fbe feea 98bc
00000180: 65de d73d b98d fc3d 54b6 7f3d 1a7f 4ebc
00000190: 939d e8bd f662 363c 3b01 95bd 38c3 c0bd
000001a0: c37a 18be aa75 913d 0fba 003e bea0 f33d
000001b0: 08f7 83bd 20f2 263e b0a3 2bbe 773e 19bd
000001c0: 29ba 2cbd a293 9ebd 8854 87bd bda1 813d
000001d0: 3f8f 11bd 1193 03be ba32 383d 74ee 45be
000001e0: 541f a4bd 1ab9 ac3d 0abb 323d e3c1 21be
000001f0: bc14 e23c 7789 babc e604 bb3c 4461 34be
00000200: 430d 73bd 772e 87bd 5ca1 973d 75d2 3b3d
00000210: 1789 8d3c 7388 4cbc 7367 fa3d b7dd 5ebd
00000220: 8625 553b 234b 35be e754 423e 905c 0c3d
00000230: 457f 983d 4381 20be 320b d43c 5bd6 363e
00000240: 9e75 843d 17ab 923d 6f29 da3d 13bc 99bd
00000250: b44e 133e 6331 ec3d 4b95 003e 2dfe c53d
00000260: 795f 26be 1e9c 293d 4fdf 0fbe 924c 2ebe
00000270: ac85 d43d 5d6b b93d eb45 f2bd df1b fe3b
00000280: d285 0d3e 7df0 283d 15a9 2ebe 6983 283e
00000290: 0352 943d 4e7a 6ebc 4478 f83d 3de3 953c
000002a0: 4528 04bd cf79 36be 9fb1 193a 85d3 02bd
000002b0: 79e4 27be b81a 003e 55ca b3bd 242c febd
000002c0: a724 4d3e d2a2 24bd bc94 acbd d51c c7bc
000002d0: bca6 293e 8563 af3c a922 ec3b ace3 273d
000002e0: 3b9b 2b3e 44ff 5cbd 2809 33be 48f0 2f3e
000002f0: 5e9f 29be 5e2c 873c e406 3ebe 7543 e8bd
00000300: 494c b43d af2c 9d3d 4998 bc3d 661f 00bd
00000310: b328 233e 3ae4 dd3b a79a 483e a2c1 093e
00000320: 386f 2c3d cb87 d53d 2d20 3e3e fea7 843c
00000330: ca3d 123e dbba 0d3e 6511 0abe 0309 16be
00000340: d105 88bd ee8d df3c e880 183e 960a 3f3e
00000350: 8174 b33d 125d cf3b eff7 393d ac02 d5bc
00000360: 3fd1 013e 2091 14ba 445d 5c3c 75da 8e3d
00000370: 91e7 f33d f077 3bbe e201 f73d 8f25 fe3c
00000380: 00af c23d cca7 eabc 7632 2bbd 1d37 2cbe
00000390: d980 8c3d 262c 37be b8da 2bbe 6096 b9bd
000003a0: 26de 4f3e 6665 b7bd 0267 aa3c 1f77 c1ba
000003b0: 22c7 21be c7f0 413e dba4 283d 5e11 3f3e
000003c0: fdb8 c7bd f164 c23d ed3f 263c 277e 113d
000003d0: c595 f9bd 9ad4 88bd 565c 22be c696 d1bd
000003e0: 8e5a cfbd cdfc 133e 631d 3e3e 02e6 0a3e
000003f0: 69b9 0bbd 0bbf 35be 446d e0bd 9409 f93d

encoder.layer_stack.0.slf_attn.w_vs.weight f4 [128, 32]
-0.10303977 -0.11550966 -0.016339866 -0.03618581 0.0063890996 -0.14175916 -0.19339263 0.1071653
-0.13767882 -0.15580718 -0.20354153 -0.1682997 0.13786775 -0.10702451 0.004274891 -0.023709763
0.07321747 -0.07982338 -0.06037645 -0.080106735 -0.19881557 0.17895663 0.1488843 0.18014586
-0.16377223 0.1835044 -0.009116324 0.114718474 0.14328474 0.07559129 0.08036048 -0.05820682
-0.14173149 -0.060095545 -0.14620411 -0.06959986 -0.054069944 -0.062341955 0.17260881 -0.1372624
0.035755962 0.095686026 0.12259513 -0.172203 0.13767175 0.12500352 0.17308305 -0.09699311
-0.10809401 -0.11438774 0.15901849 0.09905839 -0.07025948 0.12759742 -0.16691437 0.047778547
0.001006939 -0.18970744 -0.18539909 0.1087891 -0.012577411 0.17344747 0.024052802 -0.19177155
-0.022154173 -0.085593686 0.012567766 0.0032808138 -0.0879414 -0.08283325 -0.15073688 -0.04966843
0.17689979 -0.14825594 -0.0005397254 -0.043219287 0.089114696 -0.02821164 0.19974676 0.11778741
0.17543839 -0.059905212 0.16533968 -0.12412568 -0.1807093 -0.08993846 0.059729535 0.014260379
0.02507951 -0.116545215 0.18197027 -0.20116767 0.19410826 -0.050899763 0.16331819 0.13605517
-0.19482832 -0.11232839 -0.12049369 0.1904817 0.0099638365 0.14294447 0.029174443 0.18074328
-0.15579237 0.10198668 0.16920517 -0.03130618 0.012189718 0.059260514 -0.13398907 0.0866472
0.076840565 -0.0221944 -0.013720019 -0.1676619 -0.16511248 -0.09518243 -0.13146043 -0.08084873
-0.07775817 0.02815048 0.08101661 0.20085742 0.14596604 0.17304735 0.101032205 -0.10673354
0.04330765 0.17365408 0.03032808 -0.17212325 0.047067847 -0.13632815 0.034031335 0.05743767
0.10783286 0.16549508 -0.1787741 0.03956993 0.032911684 0.13889807 -0.054841954 0.051363643
0.04904981 0.15879068 0.16512649 0.025818681 0.050573584 -0.062812604 -0.11930926 0.19058171
-0.09059362 -0.01016321 0.09004201 -0.11001331 -0.16681467 0.10187798 0.10568857 0.04231412
0.13427155 0.14001846 0.073535204 0.06459366 0.13057114 -0.025164552 -0.15305732 -0.18775997
0.16393593 0.103909254 0.050049063 -0.07413079 0.00643494 0.012775359 -0.12629743 -0.028604645
-0.17052664 -0.055725586 0.16204979 0.10455671 -0.14427899 -0.19169608 0.062006976 0.13136463
0.17145672 0.17649 -0.12300067 -0.1528598 -0.029550461 -0.100799814 0.1393705 0.04826259
-0.08868544 0.12953994 0.15893938 0.14356005 -0.078250885 -0.17754692 0.19408433 -0.11656229
0.11650154 0.11504044 -0.13959858 0.060350347 -0.0005477088 -0.19429338 0.061533187 -0.09270545
0.18482052 -0.00032395593 0.07717893 -0.15406257 0.0022730709 -0.083654396 -0.17020264 0.11643462
-0.08059334 -0.10486018 0.01070528 0.15514603 -0.025503432 -0.16303279 -0.14229752 0.14807415
0.008051536 0.11268174 -0.0734281 0.14325039 -0.154627 0.16368578 0.13856634 0.08607873
-0.17043638 -0.0062196767 0.032316186 0.12559098 -0.06883549 0.09151632 -0.10467592 0.032604184
0.0073145605 -0.12511942 -0.1595467 0.0037756797 -0.015849238 0.16963942 -0.12643394 0.05806776
-0.08928647 0.17451563 0.103411004 -0.13631581 -0.15561163 0.18047547 0.08470539 -0.13505855
00000000: 8406 d3bd 5490 ecbd 2fdb 85bc 9237 14bd
00000010: a75b d13b 5029 11be b808 46be 7b79 db3d
00000020: adfb 0cbe eb8b 1fbe 316d 50be c256 2cbe
00000030: 342d 0d3e ab2f dbbd 6314 8c3b fa3a c2bc
00000040: 0af3 953d 717a a3bd 4c4d 77bd 000f a4bd
00000050: 4f96 4bbe 6840 373e 2075 183e 2878 383e
00000060: e8b3 27be 94e8 3b3e a25c 15bc 85f1 ea3d
00000070: 3cb9 123e 9bcf 9a3d 0994 a43d 466a 6ebd
00000080: 0f22 11be bf26 76bd 88b6 15be 5f8a 8ebd
00000090: 7278 5dbd 475a 7fbd 5dc0 303e 848e 0cbe
000000a0: d874 123d 09f7 c33d 2813 fb3d fc55 30be
000000b0: d3f9 0c3e ec00 003e af3c 313e 53a4 c6bd
000000c0: 6460 ddbd 1f44 eabd bed5 223e 20df ca3d
000000d0: 34e4 8fbd e6a8 023e 9aeb 2abe 70b3 433d
000000e0: 44fb 833a ab42 42be 42d9 3dbe d2cc de3d
000000f0: 7c11 4ebc 379c 313e 620a c53c c35f 44be
00000100: ab7c b5bc be4b afbd 08e9 4d3c ec02 573b
00000110: 9f1a b4bd 7ba4 a9bd c55a 1abe 2071 4bbd
00000120: 3825 353e 68d0 17be 5c7c 0dba b506 31bd
00000130: c481 b63d 191c e7bc 6a8a 4c3e 873a f13d
00000140: 1fa6 333e 2b5f 75bd ce4e 293e 9b35 febd
00000150: dc0b 39be a831 b8bd f5a6 743d 5da4 693c
00000160: 8b73 cd3c 42af eebd 6a56 3a3e e6fe 4dbe
00000170: 51c4 463e 457c 50bd e23c 273e 0c52 0b3e
00000180: 1381 47be 6d0c e6bd 65c5 f6bd a20d 433e
00000190: 5c3f 233c 0960 123e 3eff ee3c c414 393e
000001a0: 0988 1fbe 64de d03d 1f44 2d3e e93a 00bd
000001b0: 62b7 473c 27bb 723d 6e34 09be 1674 b13d
000001c0: 965e 9d3d 08d1 b5bc eec9 60bc 90af 2bbe
000001d0: 3f13 29be 02ef c2bd 909d 06be 0594 a5bd
000001e0: ad3f 9fbd d69b e63c 09ec a53d 91ad 4d3e
000001f0: 1f78 153e 5333 313e f9e9 ce3d 1d97 dabd
00000200: 5d63 313d 60d2 313e 9872 f83c 1441 30be
00000210: 37ca 403d 9b99 0bbe 7164 0b3d c343 6b3d
00000220: 79d7 dc3d 8b77 293e 8f10 37be 1414 223d
00000230: 67ce 063d 4c3b 0e3e f5a1 60bd af62 523d
00000240: 74e8 483d 069a 223e eb16 293e b381 d33c
00000250: 3f26 4f3d e5a3 80bd 6a58 f4bd da27 433e
00000260: 2689 b9bd 9883 26bc f267 b83d a94e e1bd
00000270: 77d1 2abe 67a5 d03d 4073 d83d 9251 2d3d
00000280: 7b7e 093e 0061 0f3e a099 963d ae49 843d
00000290: 71b4 053e e425 cebc 0fbb 1cbe 2644 40be
000002a0: d2de 273e 60ce d43d 3f00 4d3d e2d1 97bd
000002b0: 30dc d23b bd4f 513c 1d54 01be 4a54 eabc
000002c0: 899e 2ebe 8340 64bd 61f0 253e d421 d63d
000002d0: dfbd 13be fa4b 44be 07fb 7d3d 7384 063e
000002e0: 5a92 2f3e cbb9 343e c6e7 fbbd 4887 1cbe
000002f0: cf13 f2bc 2270 cebd 24b7 0e3e feae 453d
00000300: b6a0 b5bd 1ea6 043e 01c1 223e 6801 133e
00000310: 0042 a0bd dcce 35be 0bbe 463e 36b8 eebd
00000320: 5c98 ee3d 529a eb3d eef2 0ebe ed31 773d
00000330: 1e94 0fba d8f4 46be 390a 7c3d 5bdc bdbd
00000340: 9741 3d3e a1d8 a9b9 fd0f 9e3d 94c2 1dbe
00000350: cdf7 143b ff52 abbd 9a49 2ebe 4675 ee3d
00000360: 1f0e a5bd efc0 d6bd 3365 2f3c 9ade 1e3e
00000370: 93ec d0bc 11f2 26be 71b6 11be c0a0 173e
00000380: 97ea 033c afc5 e63d 7961 96bd 3bb0 123e
00000390: 8a56 1ebe 3f9d 273e 56e4 0d3e 0c4a b03d
000003a0: e086 2ebe 6ece cbbb fa5d 043d ec9a 003e
000003b0: 9ff9 8cbd e96c bb3d 5460 d6bd f78b 053d
000003c0: fbae ef3b 4e1f 00be 3660 23be 6571 773b
000003d0: 43d6 81bc f5b5 2d3e e677 01be 76d8 6d3d
000003e0: d3db b6bd 3ab4 323e 26c9 d33d 5f96 0bbe
000003f0: a858 1fbe 90ce 383e 057a ad3d ca4c 0abe

encoder.layer_stack.0.slf_attn.fc.weight f4 [32, 128]
-0.042221062 0.010033824 -0.057308186 0.12747352 -0.074644044 -0.17198507 0.18987878 0.09767324
-0.1340542 -0.07101048 0.17782417 0.06541768 0.19450185 0.15430441 0.057197515 -0.10150892
0.10249661 -0.15294057 -0.003781381 0.116486035 -0.15289524 0.17268609 0.02224396 0.07691904
-0.16938064 0.05591787 0.15303352 -0.015448704 -0.07712269 0.16625135 -0.04897639 -0.07632851
-0.15331785 0.08566894 0.09026433 0.037450317 -0.14631353 -0.18147817 -0.010778255 -0.034451354
-0.036755588 0.039045073 -0.04246979 0.041259006 -0.15910271 0.10115374 -0.111871645 0.089142434
-0.11262996 -0.13253015 -0.13356091 0.022545608 -0.019399028 0.059053138 0.13995951 -0.050309725
-0.0038147266 0.12390099 -0.18026808 0.0069394875 0.1572062 -0.011081477 -0.0472887 -0.19782579
0.07164293 -0.09429754 -0.07314628 -0.03921593 -0.13003935 -0.07605073 0.07120039 -0.1651738
-0.16282985 0.09852753 -0.14329621 0.04830609 -0.019608863 0.007807596 -0.0054539107 -0.09402847
0.08224505 0.15853277 0.10762839 0.13195486 -0.0062502734 -0.055836495 -0.102317415 -0.08111777
-0.15193678 0.13384622 -0.13685805 0.14029439 0.1977423 0.17066342 -0.067104876 -0.010638065
-0.052389484 -0.01466541 0.1565755 -0.013853588 0.07963098 0.0603857 0.01078991 0.10243633
-0.11652202 -0.15923825 0.13599591 -0.08701087 -0.13758224 0.13658637 0.18187495 -0.05764562
-0.09228478 0.03465707 0.03883725 -0.011914727 0.12132465 0.14582062 -0.083789594 0.19386779
0.021561867 -0.11973328 -0.15748177 -0.10686392 0.03100047 0.110597104 0.03755139 -0.15250795
-0.0798261 0.078217864 -0.023534784 -0.031764735 -0.073110655 0.007596663 0.12601468 -0.04251271
0.045070697 0.060643774 -0.12095819 -0.06016435 0.06939544 0.059588622 -0.009324128 -0.17575812
0.14006709 -0.0798264 0.16738535 0.023803145 0.1141957 0.005985112 0.04802349 0.12905101
0.027603645 0.1455002 0.06869228 0.05211626 -0.18098089 -0.12992305 -0.1357962 0.16334344
-0.061058555 -0.14004414 0.110676885 0.13210876 -0.06400052 -0.14336738 0.05721474 -0.053203713
-0.17964937 -0.14001578 0.15937315 0.07690885 -0.002123072 -0.08272516 0.028325822 -0.0045986185
0.093016766 0.18606196 0.15785128 0.06843053 0.0319991 -0.043062005 -0.03609601 0.07242614
0.19926804 -0.15695943 -0.1427593 -0.0010814647 -0.0641932 0.11162902 0.11478253 0.14676419
-0.13967313 -0.12075383 0.19039136 0.06942352 -0.049462073 0.052000374 0.07244496 0.037521232
-0.054828648 0.06454402 -0.19895834 -0.056329973 0.088477805 -0.12782171 0.015412033 -0.07398965
0.09878826 -0.11475485 0.1550347 0.07824653 0.021863034 0.12920135 0.051471572 0.032197516
-0.06421282 0.024838505 0.022691237 -0.16893165 -0.07037447 0.10001903 -0.031996615 -0.1849339
-0.011538192 0.12435238 0.04364756 -0.17303339 -0.0003804341 -0.10927621 -0.07165463 0.10483338
0.11662696 0.10263802 -0.00735933 0.056160115 -0.13777353 -0.18757418 0.09135381 0.10231918
-0.17181551 -0.0008764849 -0.15049823 0.03246152 -0.0022565941 -0.08146816 -0.1087202 0.18600714
0.19234073 -0.06658091 0.033957176 -0.11053484 -0.06859421 -0.13562892 -0.037507318 -0.06384805
00000000: feef 2cbd e864 243c fdbb 6abd 6b88 023e
00000010: fade 98bd db1c 30be 956f 423e e808 c83d
00000020: 8145 09be f16d 91bd 8a17 363e b4f9 853d
00000030: 7e2b 473e fa01 1e3e f147 6a3d e9e3 cfbd
00000040: bee9 d13d 749c 1cbe 0cd1 77bb 3b90 ee3d
00000050: 9290 1cbe 9fd4 303e f738 b63c bb87 9d3d
00000060: 1e72 2dbe 230a 653d d2b4 1c3e 901c 7dbc
00000070: 80f2 9dbd cb3d 2a3e 789b 48bd 1f52 9cbd
00000080: 5bff 1cbe 3273 af3d 81dc b83d 8165 193d
00000090: 37d3 15be 6ad5 39be 4797 30bc dd1c 0dbd
000000a0: 078d 16bd baed 1f3d cdf4 2dbd 34ff 283d
000000b0: d2eb 22be b129 cf3d f61c e5bd 4f90 b63d
000000c0: 89aa e6bd fcb5 07be 31c4 08be 91b1 b83c
000000d0: b6ea 9ebc b4e1 713d 8c51 0f3e 9211 4ebd
000000e0: 7e00 7abb cdbf fd3d 3298 38be a464 e33b
000000f0: a9fa 203e 158f 35bc ccb1 41bd d892 4abe
00000100: 87b9 923d 121f c1bd b8cd 95bd e2a0 20bd
00000110: 0929 05be 7cc0 9bbd 83d1 913d 5223 29be
00000120: debc 26be cdc8 c93d 3ebc 12be 9bdc 453d
00000130: c4a2 a0bc ddd6 ff3b b8b6 b2bb 0092 c0bd
00000140: 1870 a83d 6a56 223e 466c dc3d 2d1f 073e
00000150: 18cf ccbb cfb4 64bd cb8b d1bd 1321 a6bd
00000160: 5195 1bbe fc0e 093e 8424 0cbe 55a9 0f3e
00000170: f57c 4a3e 64c2 2e3e 486e 89bd 474b 2ebc
00000180: 5b96 56bd 3047 70bc 5455 203e 29fa 62bc
00000190: 9115 a33d ff56 773d 2ac8 303c 23ca d13d
000001a0: 19a3 eebd 5a0f 23be 8342 0b3e c132 b2bd
000001b0: 5ce2 0cbe 4cdd 0b3e 6d3d 3a3e d01d 6cbd
000001c0: ceff bcbd 92f4 0d3d cf13 1f3d fd35 43bc
000001d0: 0f79 f83d 0052 153e e199 abbd 4785 463e
000001e0: 83a2 b03c b936 f5bd e742 21be 79db dabd
000001f0: b3f4 fd3c bc80 e23d 7ccf 193d 0b2b 1cbe
00000200: de7b a3bd b030 a03d 05cc c0bc bd1b 02bd
00000210: 0abb 95bd 6eed f83b fe09 013e cf21 2ebd
00000220: 0d9c 383d 9b65 783d edb8 f7bd e56e 76bd
00000230: 321f 8e3d 3313 743d 3ac4 18bc f0f9 33be
00000240: bf6d 0f3e 067c a3bd 1167 2b3e d0fe c23c
00000250: 6fdf e93d c21e c43b 47b4 443d f325 043e
00000260: 0a21 e23c 01fe 143e 8aae 8c3d dc77 553d
00000270: 0e53 39be 8c0a 05be 290e 0bbe 8143 273e
00000280: 8918 7abd bb67 0fbe 90aa e23d 8547 073e
00000290: b412 83bd e6ce 12be 015a 6a3d 23ec 59bd
000002a0: 01f6 37be 4c60 0fbe b732 233e 6382 9d3d
000002b0: 3d23 0bbb cf6b a9bd 8e0b e83c 02b0 96bb
000002c0: 937f be3d 0787 3e3e c4a3 213e 4e25 8c3d
000002d0: 7d11 033d c961 30bd 69d9 13bd 2854 943d
000002e0: ec0c 4c3e f9b9 20be 7e2f 12be efbf 8dba
000002f0: b977 83bd c19d e43d 1a13 eb3d 5a49 163e
00000300: 7906 0fbe c94d f7bd f4f5 423e eb2d 8e3d
00000310: be98 4abd 58fe 543d 065e 943d ddaf 193d
00000320: 0194 60bd a82f 843d bcbb 4bbe 42ba 66bd
00000330: da33 b53d b2e3 02be c082 7c3c e387 97bd
00000340: 8051 ca3d 9704 ebbd 6bc1 1e3e b73f a03d
00000350: 1b1a b33c 5c4d 043e dbd3 523d 8be1 033d
00000360: 0382 83bd 1f7a cb3c f9e2 b93c 6bfc 2cbe
00000370: 7d20 90bd c7d6 cc3d e20e 03bd 505f 3dbe
00000380: af0a 3dbc 76ac fe3d c9c7 323d aa2f 31be
00000390: 0075 c7b9 35cc dfbd aabf 92bd e2b2 d63d
000003a0: 1eda ee3d e233 d23d 8926 f1bb 2608 663d
000003b0: 8114 0dbe 7213 40be b517 bb3d b88c d13d
000003c0: 68f0 2fbe e8c3 65ba 351c 1abe 5ff6 043d
000003d0: 5ee3 13bb c7d8 a6bd b2a8 debd a878 3e3e
000003e0: f8f4 443e 925b 88bd ae16 0b3d 1760 e2bd
000003f0: 1f7b 8cbd 4fe2 0abe 46a1 19bd c4c2 82bd

encoder.layer_stack.0.slf_attn.layer_norm.weight f4 [32]
0.99164665 0.9882394 0.98641354 1.0090725 0.9954973 0.9902124 0.9915697 1.015754
1.0008197 0.99529964 0.99012095 0.9897216 0.99142367 1.0002238 1.0011864 1.0073653
0.99254984 1.0156943 1.0073237 0.9867497 0.99736136 1.0048454 0.9969644 1.003809
1.0029839 1.0053906 1.001456 1.0132837 0.99131435 0.99788374 1.0097378 0.9942204
00000000: 8edc 7d3f 42fd 7c3f 9985 7c3f 4a29 813f
00000010: e9d8 7e3f 8f7e 7d3f 83d7 7d3f 3a04 823f
00000020: dc1a 803f f5cb 7e3f 9178 7d3f 655e 7d3f
00000030: f1cd 7d3f 5507 803f e026 803f 59f1 803f
00000040: bf17 7e3f 4502 823f fcef 803f a19b 7c3f
00000050: 1353 7f3f c69e 803f 0f39 7f3f d07c 803f
00000060: c761 803f a4b0 803f b62f 803f 48b3 813f
00000070: c7c6 7d3f 4f75 7f3f 173f 813f 3a85 7e3f

encoder.layer_stack.0.slf_attn.layer_norm.bias f4 [32]
-0.011924436 -0.0081393095 0.00096369954 -0.008727808 -0.006235629 -0.013847335 0.012222926 0.014782407
-0.0054163192 -0.0016050739 0.012233737 -0.0041821697 0.015432884 0.008742052 -0.012343354 0.008542977
0.005542695 0.015655087 -0.008333987 -0.0073143737 0.0014419704 0.007816935 0.0014876444 -0.0018556197
-0.006030197 0.009332715 -0.0047082365 0.013993198 0.009035766 -0.0071086935 -0.01291971 -0.0016252818
00000000: b65e 43bc bd5a 05bc c8a0 7c3a 14ff 0ebc
00000010: 3f54 ccbb efdf 62bc ab42 483c e931 723c
00000020: 617b b1bb 5861 d2ba 0370 483c 950a 89bb
00000030: 35da 7c3c d33a 0f3c c73b 4abc d8f7 0b3c
00000040: 7f9f b53b 193f 803c 468b 08bc 6aad efbb
00000050: 7f00 bd3a 9a12 003c 10fd c23a 4438 f3ba
00000060: f598 c5bb 3ee8 183c 8d47 9abb ba43 653c
00000070: c00a 143c 0bf0 e8bb 31ad 53bc 6807 d5ba

encoder.layer_stack.0.pos_ffn.w_1.weight f4 [128, 32]
-0.15185215 0.104393564 -0.0050598714 -0.13852178 0.16289273 0.16027786 -0.005121016 0.1781489
-0.12912507 -0.010793023 0.036210738 0.049381174 -0.09824733 -0.07671797 0.07251346 -0.12909737
0.04407169 -0.07338873 0.14009617 -0.064258896 -0.09576094 -0.13961673 0.18282528 0.09639039
0.07321554 0.040375985 -0.03847933 0.03436817 0.032038275 -0.09058424 0.16674119 -0.026178628
0.08527284 0.12458933 0.029687863 0.0039499854 0.060034428 -0.008760463 -0.029394994 0.114604235
0.19045365 0.15074629 0.019307693 0.12951495 -0.07432419 -0.10305547 0.12488819 0.023842925
0.043471 0.09124551 0.07256402 -0.078452446 -0.17533539 -0.038336672 0.18301135 0.0017369328
-0.14351526 -0.1227997 -0.11425159 0.050132174 -0.17486781 -0.18453309 0.17552984 -0.045641627
0.16083762 0.07724348 0.057716187 0.09343184 0.11614908 -0.10264113 -0.124922246 0.03460231
0.059391852 0.114947125 0.0027905642 0.103967674 0.13538645 -0.04496498 0.1564772 -0.14815795
0.13738479 -0.04397573 0.101720564 0.0053099124 0.17692254 -0.08634031 -0.110215604 -0.12455622
-0.037442803 2.9357363e-05 -0.07129819 -0.15311024 -0.19495101 0.1044628 -0.01561672 -0.033056635
0.0747196 0.114486866 -0.19541316 -0.020953545 -0.14045186 -0.10771616 0.02040747 0.08552989
-0.06940331 -0.11977701 0.19880785 0.063615 0.052002817 -0.1656342 0.063167624 0.11108352
-0.049024064 -0.124484435 -0.10325799 0.10656344 0.120326914 0.06315032 -0.013583825 -0.08273364
-0.07942634 -0.053023595 -0.19198841 -0.01130364 -0.03839291 -0.019263696 -0.0068711503 -0.0035700891
0.07755251 0.10631299 0.14726052 -0.17254107 -0.020555569 -0.08110093 -0.026213428 -0.17231402
-0.07617543 -0.021352196 -0.03377916 -0.074423686 0.06529436 0.013904611 0.00095421897 -0.14857826
-0.15538827 -0.09955788 0.006859343 0.022053864 0.17943935 0.046443626 0.014412641 -0.0935399
0.12563689 -0.1932659 0.121574275 -0.08130729 -0.13457651 0.17176695 0.094732754 -0.008081759
0.114590004 0.014080478 -0.111203074 -0.16750346 0.056527443 0.057015114 0.064597465 -0.12606049
0.116772644 -0.16722092 -0.13332677 -0.1682722 -0.04845801 -0.10052491 0.11308416 -0.17648008
0.033792004 0.11002554 0.014484057 -0.18353482 -0.12849979 -0.06341263 -0.036575202 -0.12471532
-0.0689699 0.037905 -0.007994616 0.13472489 -0.16601752 -0.19600677 0.0718008 0.1442782
0.034882233 -0.108748876 -0.06600293 0.04456444 -0.027251417 -0.12619534 0.11691939 0.08542126
-0.15458466 0.085369356 0.17689545 -0.07946666 -0.03336718 -0.06454995 0.15985116 -0.031408336
-0.08780618 0.0050676437 0.17166404 0.16171311 0.19166194 -0.18767987 0.13963655 0.17271827
-0.030870555 0.15656987 0.12606868 0.039370652 -0.15376298 -0.17452209 -0.10153677 -0.149856
0.08464285 -0.084585145 0.08945592 -0.1475039 0.15871784 0.022118509 -0.1207364 0.07957942
0.11203338 0.16194025 -0.13634461 -0.2035487 0.01032003 0.04607634 -0.10381745 -0.034916725
0.07414772 0.10056739 -0.12069582 0.1452731 0.13513604 -0.0059933597 -0.08986741 0.18950002
-0.12555498 -0.11946913 0.16326961 -0.11911459 0.042163122 -0.17671956 -0.06272585 0.022833506
00000000: 217f 1bbe 4bcc d53d 47cd a5bb a7d8 0dbe
00000010: 5acd 263e e11f 243e 32ce a7bb aa6c 363e
00000020: 5d39 04be 38d5 30bc b651 143d ea43 4a3d
00000030: e535 c9bd 501e 9dbd f081 943d 1a32 04be
00000040: 8484 343d d54c 96bd 5f75 0f3e 2b9a 83bd
00000050: 501e c4bd b0f7 0ebe 8d36 3b3e 5368 c53d
00000060: 07f2 953d 4a61 253d 809c 1dbd a3c5 0c3d
00000070: 913a 033d 3b84 b9bd 34be 2a3e 9074 d6bc
00000080: 87a3 ae3d b128 ff3d f633 f33c e16e 813b
00000090: a9e6 753d 0c88 0fbc c5cd f0bc a0b5 ea3d
000000a0: 4806 433e 3c5d 1a3e 2b2b 9e3c 919f 043e
000000b0: 4837 98bd bf0e d3bd 61c5 ff3d 3d52 c33c
000000c0: a60e 323d edde ba3d 729c 943d adab a0bd
000000d0: 1f8b 33be ea06 1dbd 5467 3b3e cba9 e33a
000000e0: aaf5 12be 697e fbbd bdfc e9bd 6557 4d3d
000000f0: 8c10 33be 3ef6 3cbe 18be 333e b7f2 3abd
00000100: 9eb2 243e d431 9e3d cf67 6c3d 3159 bf3d
00000110: 92df ed3d 8335 d2bd 3cd7 ffbd 27bb 0d3d
00000120: df44 733d 6669 eb3d e6e1 363b 01ed d43d
00000130: bfa2 0a3e 332d 38bd 8f3b 203e b8b6 17be
00000140: 99ae 0c3e e51f 34bd df52 d03d c6fe ad3b
00000150: 2f2b 353e 30d3 b0bd b8b8 e1bd 5517 ffbd
00000160: a05d 19bd 7544 f637 c904 92bd eec8 1cbe
00000170: 3da1 47be 98f0 d53d 45dd 7fbc 6566 07bd
00000180: 9706 993d 1778 ea3d 631a 48be c5a6 abbc
00000190: 9dd2 0fbe 4a9a dcbd 912d a73c 4c2a af3d
000001a0: 5323 8ebd a64d f5bd 4994 4b3e 9548 823d
000001b0: e800 553d 039c 29be 075e 813d c27f e33d
000001c0: 75cd 48bd b2f1 febd ed78 d3bd ef3d da3d
000001d0: f56d f63d f454 813d b18e 5ebc 4170 a9bd
000001e0: 47aa a2bd 452f 59bd 9c98 44be e732 39bc
000001f0: e241 1dbd e6ce 9dbc 6327 e1bb 28f8 69bb
00000200: dad3 9e3d a0ba d93d 76cb 163e 9bae 30be
00000210: 2764 a8bc 3f18 a6bd 8bbd d6bc 1673 30be
00000220: dd01 9cbd cdea aebc 045c 0abd 726b 98bd
00000230: 0db9 853d 2ad0 633c 8d24 7a3a e624 18be
00000240: 1a1e 1fbe 00e5 cbbd 57c4 e03b 4eaa b43c
00000250: f3be 373e ac3b 3e3d ff22 6c3c d991 bfbd
00000260: f5a6 003e 7fe7 45be effb f83d 7084 a6bd
00000270: 6dce 09be ade3 2f3e 3f03 c23d 5b69 04bc
00000280: 2aae ea3d ceb1 663c 70be e3bd 0786 2bbe
00000290: 5289 673d ae88 693d ad4b 843d 0016 01be
000002a0: 7f26 ef3d f63b 2bbe d086 08be 8c4f 2cbe
000002b0: e87b 46bd 01e0 cdbd ab98 e73d 32b7 34be
000002c0: 7c69 0a3d 1255 e13d 8a4e 6d3c 8df0 3bbe
000002d0: 7395 03be 7bde 81bd e1cf 15bd bf6a ffbd
000002e0: 1740 8dbd 4642 1b3d dafb 02bc 52f5 093e
000002f0: 7f00 2abe 00b6 48be 4c0c 933d aabd 133e
00000300: ace0 0e3d bbb7 debd 8b2c 87bd 3489 363d
00000310: 5d3e dfbc 5a39 01be 6f73 ef3d 57f1 ae3d
00000320: 714b 1ebe 21d6 ae3d 1524 353e 6bbf a2bd
00000330: 06ac 08bd c432 84bd 06b0 233e 07a6 00bd
00000340: bad3 b3bd 7a0e a63b b3c8 2f3e 1f98 253e
00000350: 0743 443e 272f 40be e2fc 0e3e 0fdd 303e
00000360: 3fe4 fcbc da53 203e 2618 013e 1f43 213d
00000370: 0b74 1dbe ebb5 32be 83f2 cfbd da73 19be
00000380: 3b59 ad3d fa3a adbd aa34 b73d 430b 17be
00000390: ee86 223e e031 b53c a544 f7bd 89fa a23d
000003a0: c271 e53d aad3 253e ec9d 0bbe 126f 50be
000003b0: 5815 293c 8bba 3c3d 3e9e d4bd d704 0fbd
000003c0: c3da 973d 47f6 cd3d 5f2f f7bd 79c2 143e
000003d0: 1a61 0a3e f263 c4bb 680c b8bd 4b0c 423e
000003e0: 7c91 00be 3bac f4bd 2630 273e 5af2 f3bd
000003f0: 3db3 2c3d f9f5 34be 6976 80bd 550d bb3c

encoder.layer_stack.0.pos_ffn.w_1.bias f4 [128]
-0.07187554 0.046928626 -0.09458993 -0.05876616 -0.1709331 -0.12849778 0.07780428 -0.13232942
0.06619764 0.06189279 -0.060238667 -0.15820934 -0.09326835 0.000527036 -0.070258476 0.08092333
0.16018383 -0.00060506165 0.16883315 0.17586912 -0.033123747 0.10166282 -0.052354418 0.029717606
-0.04968132 -0.15464121 0.0963729 -0.13482451 0.13131607 -0.049683623 0.038494773 0.1103283
-0.09582317 -0.09694393 0.09441236 0.05698306 -0.15922731 -0.04025935 -0.06756683 -0.018168813
-0.04385416 0.15732063 -0.13274378 0.037365984 0.15788725 0.13835093 -0.042659696 -0.07290532
0.11053934 0.1667312 0.07397535 0.0040224795 0.16694571 0.12497479 0.07587254 0.12733637
-0.14552017 -0.019801067 -0.037025735 -0.07045047 0.051984105 0.04556235 0.14821644 0.08491069
-0.039267953 0.09439422 0.09167626 -0.100241035 -0.03713594 0.015035545 0.017960621 0.15307404
0.15051113 0.09399462 0.13598049 -0.029258672 -0.056977782 -0.16611789 0.08598219 -0.085541785
0.112736054 0.14506945 0.15711002 0.06563632 -0.10305382 0.16466677 -0.13642462 0.0027721312
0.1465417 -0.054776177 -0.07594807 -0.15305245 0.022168668 0.07158295 -0.08408867 0.18006727
-0.04960906 0.016103474 -0.09240395 -0.11075947 -0.047192924 -0.17244141 0.083955996 0.07538021
-0.1542709 0.031079533 0.059161957 0.07903402 0.11121176 -0.023885764 0.03998985 -0.024108823
-0.1671997 0.17194003 0.085802436 -0.11511592 0.06370247 -0.06051906 0.18300962 0.017711675
-0.04559818 0.047971096 0.16979204 0.008212965 -0.040200084 0.08470842 0.101029985 -0.0049878056
00000000: 7c33 93bd 3b38 403d 5db8 c1bd c9b4 70bd
00000010: 1609 2fbe ec94 03be da57 9f3d 5d81 07be
00000020: a192 873d 4b83 7d3d d2bc 76bd a101 22be
00000030: 7a03 bfbd ca28 0a3a ade3 8fbd 21bb a53d
00000040: 3b07 243e 009d 1eba 99e2 2c3e 0917 343e
00000050: c4ac 07bd 9934 d03d 9671 56bd 5672 f33c
00000060: a47e 4bbd 445a 1ebe 285f c53d 700f 0abe
00000070: b877 063e 0e81 4bbd b2ac 1d3d cef3 e13d
00000080: f03e c4bd 8a8a c6bd 445b c13d 1267 693d
00000090: 7c0c 23be fde6 24bd 7a60 8abd c3d6 94bc
000000a0: 6ba0 33bd a918 213e fced 07be 130d 193d
000000b0: 32ad 213e deab 0d3e efbb 2ebd 624f 95bd
000000c0: 7362 e23d 95bb 2a3e 6380 973d 01cf 833b
000000d0: d1f3 2a3e c8f2 ff3d 1063 9b3d 7764 023e
000000e0: 3d03 15be d935 a2bc 4ca8 17bd 5648 90bd
000000f0: 49ed 543d 969f 3a3d 0dc6 173e a8e5 ad3d
00000100: 6fd7 20bd c251 c13d c3c0 bb3d 2c4b cdbd
00000110: db1b 18bd a657 763c 2722 933c 71bf 1c3e
00000120: 971f 1a3e 4080 c03d 783e 0b3e e2af efbc
00000130: 8961 69bd cf1a 2abe 6e17 b03d 8830 afbd
00000140: 29e2 e63d 168d 143e 73e1 203e 566c 863d
00000150: e20d d3bd 689e 283e e5b2 0bbe a5ac 353b
00000160: 070f 163e fc5c 60bd a98a 9bbd c8b9 1cbe
00000170: 119b b53c 159a 923d ae36 acbd 8e63 383e
00000180: df32 4bbd 6feb 833c 483e bdbd dcd5 e2bd
00000190: 5e4d 41bd 7b94 30be 1ff1 ab3d f160 9a3d
000001a0: 31f9 1dbe 819a fe3c cf53 723d 97dc a13d
000001b0: fec2 e33d 14ac c3bc 66cc 233d de7f c5bc
000001c0: 6636 2bbe 0c11 303e 30b9 af3d e5c1 ebbd
000001d0: 7176 823d d5e2 77bd e066 3b3e 1318 913c
000001e0: 28c5 3abd 577d 443d f7dd 2d3e ac8f 063c
000001f0: d8a8 24bd 9c7b ad3d cfe8 ce3d bf70 a3bb
