output/transformer_model_gpu.pth (torch_old, 869531 bytes, 109 tensors)

encoder.src_word_emb.weight f4 [10, 32]
000000 10 51 8e 3e ec c3 8e 3e 68 b2 a2 be ed 1c b4 be
       0.2779622 0.27883852 -0.31776738 -0.3517832
000010 9a 3d a6 3d b6 5c a1 bd 29 5e 2e bd 4a 53 c6 be
       0.08117218 -0.07879011 -0.042570267 -0.3873542
000020 1e af 99 3e 9a 12 bf be 27 31 a1 3e 28 6b e2 bd
       0.30016416 -0.3731888 0.31482813 -0.11055595
000030 66 91 1b be f4 34 67 3e 21 fb ae be d2 99 e9 3d
       -0.15192184 0.22578794 -0.3417597 0.11406292
000040 99 4d 90 be ba 63 4b bc 82 f1 aa be a9 47 b1 bd
       -0.28184202 -0.012413913 -0.3338738 -0.08656246
000050 6f 06 b0 bd 4d 86 c5 be 4d b0 bb 3e 84 51 79 3e
       -0.08594977 -0.38579026 0.36657944 0.24347502
000060 53 b6 b5 3e 3e 03 8d be 2c 5d 66 3d cc 5e 7c 3d
       0.35490665 -0.27541536 0.0562412 0.061613843
000070 1d 23 61 3e fd f1 42 be 75 4e 35 bc 17 74 47 3e
       0.21986051 -0.19037624 -0.011066069 0.19477879
000080 f4 89 19 3e d8 79 ad be 6b 32 b5 be 2b 24 8c bd
       0.14994031 -0.33882022 -0.35390028 -0.06842836
000090 31 91 12 3e 16 71 d9 3d 0a 29 8c 3c 2b ab d6 3c
       0.14313199 0.106172726 0.017109413 0.026204666
0000a0 7b 2b 0c bd b0 13 5e 3e 8e 15 3c be 04 bb 18 3d
       -0.034221154 0.21687198 -0.18367597 0.037287727
0000b0 7c d6 92 3c 91 65 b4 3e f0 ce 71 be 3e 23 4f 3d
       0.01792454 0.3523374 -0.23614097 0.05057072
0000c0 96 8b a6 3e cd 28 b2 bd 13 dd 35 be 3d e3 b4 be
       0.3252837 -0.086991884 -0.17760114 -0.3532962
0000d0 f2 e0 fb bd 9d 20 05 3d 6c e0 8f be 0e 1d 6e be
       -0.12298764 0.032501806 -0.28100908 -0.23253271
0000e0 f8 b2 a5 3e be a0 4c be cf 21 b7 bd d6 cd 8c be
       0.32363105 -0.19983193 -0.08941995 -0.2750079
0000f0 3d 0b 3b 3d 6a 48 09 3c b2 cc 5d be 44 f1 cb bd
       0.045665015 0.008379081 -0.21660116 -0.09958127
000100 85 89 a6 bd dc 68 07 3e 6b 4f b7 3e c1 dc c2 3d
       -0.081316985 0.13223594 0.3580278 0.09514762
000110 ae 9e 85 be 6a 21 6f bc ed a3 28 be d3 e9 47 3e
       -0.26097625 -0.014595369 -0.16468783 0.1952279
000120 ea c2 b7 be 7b 11 52 be 6f 94 b7 be 13 8c 38 3c
       -0.35890895 -0.20514481 -0.35855433 0.011263865
000130 99 0e b0 be 42 ed 27 3e aa fd 8c 3e 98 13 85 3d
       -0.34386137 0.163991 0.2753728 0.06497878
000140 cd 3f aa be 62 72 09 be 6e 87 b2 bd 8b 1e fb bd
       -0.332518 -0.1342254 -0.087172374 -0.12261685
000150 59 8a 2c bd 8c 27 76 3e 41 54 6a be 58 3f ce 3d
       -0.042124126 0.24038523 -0.22883703 0.100706756
000160 62 c1 0f 3e 8f 11 84 bd 13 68 e1 3d 68 f4 92 3e
       0.14038613 -0.064486615 0.11006179 0.28702092
000170 5f 49 06 be 92 e2 bb 3d 19 f0 51 be 12 81 c0 3e
       -0.13113926 0.09174074 -0.20501746 0.37598473
000180 5b e5 ea bb 20 63 9d 3d a5 3c 9c 3e 18 88 d8 3d
       -0.0071684546 0.07684922 0.30515018 0.10572833
000190 7d 37 ab 3e d7 1a ad bd 43 f7 a0 be f0 68 cd bd
       0.33440772 -0.08452385 -0.31438646 -0.10029781
0001a0 89 33 ad bb 5b a8 42 be 93 e9 56 3d 57 9e 71 be
       -0.0052856845 -0.19009535 0.052468847 -0.23595558
0001b0 08 61 2b 3d 70 c7 69 3e 3c 4e 87 3e 21 5f 11 3e
       0.041840583 0.22829986 0.26426876 0.14196445
0001c0 52 45 9a 3d c8 85 f6 3d 91 d2 89 be 27 e7 00 3e
       0.07532753 0.120372355 -0.26918462 0.12588178
0001d0 04 c4 9f 3d 30 d3 b8 3e 08 75 06 3e 47 4e 64 3e
       0.07801059 0.36098623 0.13130581 0.22295485
0001e0 b6 05 fb 3d e6 c4 99 3e 23 31 ac 3c 30 a0 5c be
       0.12256949 0.30033034 0.021019524 -0.21545482
0001f0 31 7d b3 3e 59 e2 42 3e 08 27 d3 3d 51 56 72 be
       0.3505645 0.19031657 0.10310179 -0.2366574
000200 56 84 98 be 7c 66 aa 3d 03 af c8 3e 94 3f 7e bd
       -0.29788464 0.083203286 0.39196023 -0.06207235
000210 a8 ed 36 be 5e 71 2d 3e 25 cc 8d 3e 79 f9 59 3e
       -0.17864096 0.16937777 0.27694812 0.21286573
000220 1b 57 5b be 99 13 0d 3e ed b9 06 be 1d 83 11 3e
       -0.21419947 0.13777007 -0.13156863 0.14210172
000230 14 bc 9c 3e 41 aa 8e 3d a8 b4 a9 3e 53 e9 4c 3d
       0.30612242 0.06966067 0.33145642 0.050027203
000240 2f 55 b9 be 79 6b 9b 3d eb da af 3e b9 0c c1 3c
       -0.36197802 0.07588858 0.3434671 0.023565637
000250 34 9c 30 3e de a5 30 3e 4d 65 1f be ad ef 6c 3e
       0.17247087 0.17250773 -0.15565987 0.23138304
000260 94 bd 8e 3e bb 11 95 be 1d b6 1e 3e 80 0f 4b 3e
       0.27879012 -0.2911509 0.15499158 0.19830132
000270 9f 34 b9 3e 5f 48 ac 3e b2 47 24 3d bd b7 a8 3d
       0.3617296 0.33648965 0.040107436 0.0823817
000280 87 4e c4 3e 03 d1 a9 be df 9e b6 3e bc ce 93 bc
       0.38341162 -0.33167276 0.35668084 -0.018042915
000290 58 6e 58 3e 07 de 47 3d 80 86 c2 3d 6b a8 5f be
       0.21135843 0.048795726 0.0949831 -0.2184159
0002a0 8d 94 2c be 0e 3a 39 be d1 e7 52 be 96 c5 44 be
       -0.16853543 -0.18088552 -0.20596243 -0.19215998
0002b0 fe ed 57 3e cc 7a f3 3d 0e ea 52 bc 2f 16 02 be
       0.2108688 0.11888656 -0.012873186 -0.12703775
0002c0 71 d7 81 3d d4 ce 71 3e 02 8b f9 3d 5e 6d cd be
       0.0633992 0.23614055 0.12184717 -0.40122503
0002d0 0d 33 69 3d fa 4b b2 3e 43 a7 ef 3c 2c 93 7e 3c
       0.05693345 0.3482359 0.029254561 0.015538018
0002e0 f2 57 18 3e 92 2b a2 be f4 f7 93 3e a5 cd 64 3e
       0.14877298 -0.31673867 0.2890011 0.22344072
0002f0 57 a4 53 3e 3f 62 53 bd cc cf 71 3d 1f dd c8 3e
       0.2066816 -0.051607367 0.05903606 0.39231202
000300 d4 a8 1c be 95 fd 95 be 6f fe 5a 3e 05 51 46 be
       -0.15298778 -0.2929503 0.21386121 -0.19366844
000310 5d dc 72 bd 01 92 ae 3e ba 15 31 3e 56 34 3a 3e
       -0.059292186 0.34095767 0.17293444 0.18184027
000320 3b b6 58 3e 57 07 ad be dc 91 bb 3e 5f 27 54 be
       0.21163265 -0.33794662 0.3663472 -0.20718144
000330 7e ab 9e be 35 c7 c5 bd 7c 09 99 bd 54 2c 6a 3e
       -0.30990213 -0.09657136 -0.07472512 0.22868472
000340 a4 68 ec 3c 48 1d 94 be e9 2b a7 be 47 55 46 be
       0.02885849 -0.2892859 -0.32650688 -0.19368468
000350 14 0d 33 be 77 7b bf bd 6f be 37 be f9 d8 15 bd
       -0.17485458 -0.09349721 -0.17943738 -0.036583874
000360 d1 13 7b 3e 51 d7 ee 3c 00 32 46 3e ee 3b a4 3e
       0.24519278 0.029155405 0.19355011 0.32076973
000370 8f 15 b4 be 59 8c fb bd b1 d6 93 bd 5b 6b 8f 3e
       -0.35172698 -0.122826286 -0.072186835 0.28011593
000380 fd ff ca 3d 95 e3 2a 3e 1c a3 4c be ba c8 97 be
       0.09912107 0.16688378 -0.19984096 -0.2964533
000390 cd 17 8c 3e 4b 37 75 be 06 00 a9 be 4f ed af 3e
       0.2736191 -0.23946874 -0.3300783 0.3436074
0003a0 bf f2 fb bd b0 62 4d be 3c 85 c3 be 2c 5e f0 3d
       -0.123021595 -0.20057178 -0.38187587 0.11736712
0003b0 dc 1d a2 3e 34 8c af be ab f7 8e be 1c 22 eb bd
       0.31663406 -0.34286654 -0.2792333 -0.11481115
0003c0 97 30 b5 3e fc 0c 4c bc 0a ca 8b bc a6 b6 ba 3e
       0.35388634 -0.012454268 -0.017064113 0.36467475
0003d0 4e 92 53 be 1b cd 85 bd b5 4d 5c be ed 8a a6 be
       -0.2066128 -0.065332614 -0.21514018 -0.32527867
0003e0 03 f6 bc 3d 84 a5 49 3e 14 63 69 3e e7 78 86 3e
       0.092266105 0.19692045 0.22791702 0.26264116
0003f0 9c 6f 58 3d 1f 11 8f 3e 88 7f 64 3e 31 6a b6 3e
       0.052840814 0.2794275 0.22314274 0.35627893

encoder.position_enc.pos_table f4 [1, 200, 32]
000000 00 00 00 00 00 00 80 3f 00 00 00 00 00 00 80 3f
       0.0 1.0 0.0 1.0
000010 00 00 00 00 00 00 80 3f 00 00 00 00 00 00 80 3f
       0.0 1.0 0.0 1.0
000020 00 00 00 00 00 00 80 3f 00 00 00 00 00 00 80 3f
       0.0 1.0 0.0 1.0
000030 00 00 00 00 00 00 80 3f 00 00 00 00 00 00 80 3f
       0.0 1.0 0.0 1.0
000040 00 00 00 00 00 00 80 3f 00 00 00 00 00 00 80 3f
       0.0 1.0 0.0 1.0
000050 00 00 00 00 00 00 80 3f 00 00 00 00 00 00 80 3f
       0.0 1.0 0.0 1.0
000060 00 00 00 00 00 00 80 3f 00 00 00 00 00 00 80 3f
       0.0 1.0 0.0 1.0
000070 00 00 00 00 00 00 80 3f 00 00 00 00 00 00 80 3f
       0.0 1.0 0.0 1.0
000080 a4 6a 57 3f 40 51 0a 3f ba 7d 08 3f 0e 94 58 3f
       0.84147096 0.5403023 0.53316844 0.84600914
000090 3e 39 9f 3e 6a 4e 73 3f 3a 23 35 3e 83 f6 7b 3f
       0.3109836 0.95041525 0.17689219 0.9842302
0000a0 76 75 cc 3d 98 b8 7e 3f b0 36 66 3d 68 98 7f 3f
       0.099833414 0.9950042 0.056204498 0.9984193
0000b0 5c 81 01 3d 3c df 7f 3f 42 ab 91 3c a3 f5 7f 3f
       0.031617507 0.99950004 0.017781857 0.99984187
0000c0 57 d6 23 3c b9 fc 7f 3f 5c 44 b8 3b f7 fe 7f 3f
       0.009999833 0.99995 0.0056233834 0.9999842
0000d0 20 3e 4f 3b ac ff 7f 3f 20 15 e9 3a e5 ff 7f 3f
       0.0031622723 0.999995 0.0017782785 0.9999984
0000e0 6d 12 83 3a f8 ff 7f 3f 16 6a 13 3a fd ff 7f 3f
       0.0009999998 0.9999995 0.0005623413 0.9999998
0000f0 5f cb a5 39 ff ff 7f 3f 53 77 3a 39 00 00 80 3f
       0.00031622776 0.99999994 0.00017782794 1.0
000100 b7 c7 68 3f 33 11 d5 be 0a f2 66 3f b2 e8 dc 3e
       0.9092974 -0.41614684 0.9021307 0.43146282
000110 1b 54 17 3f ec 7b 4e 3f f6 47 b2 3e a5 fa 6f 3f
       0.5911271 0.8065784 0.34820527 0.9374183
000120 f9 6f 4b 3e a5 e5 7a 3f 88 d9 e5 3d f3 61 7e 3f
       0.19866933 0.9800666 0.112231314 0.9936821
000130 c8 70 81 3d f9 7c 7f 3f 5c a5 11 3d 8e d6 7f 3f
       0.063203394 0.9980007 0.03555809 0.9993676
000140 3e d4 a3 3c e5 f2 7f 3f 9d 43 38 3c db fb 7f 3f
       0.019998666 0.9998 0.011246589 0.99993676
000150 dd 3d cf 3b b0 fe 7f 3f 08 15 69 3b 96 ff 7f 3f
       0.0063245133 0.99998 0.0035565514 0.9999937
000160 69 12 03 3b de ff 7f 3f 14 6a 93 3a f5 ff 7f 3f
       0.0019999987 0.999998 0.0011246824 0.99999934
000170 5f cb 25 3a fd ff 7f 3f 53 77 ba 39 ff ff 7f 3f
       0.0006324555 0.9999998 0.00035565588 0.99999994
000180 c3 81 10 3e 26 70 7d bf d7 45 7e 3f a8 7f ed bd
       0.14112 -0.9899925 0.9932532 -0.11596614
000190 c2 09 50 3f 57 2f 15 3f 6d 2f 02 3f 29 6d 5c 3f
       0.8126489 0.5827536 0.50853616 0.86104065
0001a0 6d 4e 97 3e ef 90 74 3f d8 ee 2b 3e 9e 5d 7c 3f
       0.29552022 0.9553365 0.1679033 0.9858035
0001b0 c1 ff c1 3d 4f d9 7e 3f 4d 69 5a 3d c3 a2 7f 3f
       0.09472609 0.99550337 0.05332308 0.9985773
0001c0 20 b9 f5 3c 83 e2 7f 3f c7 31 8a 3c ad f6 7f 3f
       0.029995501 0.99955004 0.016869439 0.9998577
0001d0 11 6e 1b 3c 0d fd 7f 3f a8 cf ae 3b 11 ff 7f 3f
       0.009486691 0.999955 0.005334813 0.99998575
0001e0 93 9b 44 3b b5 ff 7f 3f 1b 1f dd 3a e8 ff 7f 3f
       0.0029999956 0.9999955 0.0016870232 0.99999857
0001f0 0d b1 78 3a f8 ff 7f 3f 7e d9 0b 3a fe ff 7f 3f
       0.0009486832 0.9999995 0.0005334838 0.9999999
000200 cf bd 41 bf 30 55 27 bf ed 49 47 3f 9d af 20 bf
       -0.7568025 -0.6536436 0.77847177 -0.62767965
000210 de 1d 74 3f b1 2e 9a 3e bc 1f 27 3f ed eb 41 3f
       0.95358074 0.30113748 0.652828 0.7575062
000220 d7 61 c7 3e a7 ca 6b 3f c6 65 64 3e 09 8d 79 3f
       0.38941833 0.921061 0.22304448 0.9748083
000230 88 2e 01 3e 69 f4 7d 3f c8 8d 91 3d 47 5a 7f 3f
       0.12615407 0.99201065 0.07107121 0.9974713
000240 db cb 23 3d 94 cb 7f 3f a2 40 b8 3c 6c ef 7f 3f
       0.039989334 0.9992001 0.022491757 0.99974704
000250 cd 3c 4f 3c c2 fa 7f 3f a7 14 e9 3b 58 fe 7f 3f
       0.012648773 0.99992 0.0071130577 0.9999747
000260 58 12 83 3b 7a ff 7f 3f 0e 6a 13 3b d6 ff 7f 3f
       0.0039999895 0.999992 0.0022493633 0.9999975
000270 5c cb a5 3a f3 ff 7f 3f 52 77 3a 3a fc ff 7f 3f
       0.0012649107 0.9999992 0.0007113117 0.99999976
000280 10 7c 75 bf 2c 3c 91 3e d6 da a5 3e 40 32 72 bf
       -0.9589243 0.2836622 0.3239352 -0.94607925
000290 7f fc 7f 3f d4 72 29 bc ab ca 46 3f f1 4c 21 3f
       0.99994653 -0.010342319 0.77652997 0.6300803
0002a0 44 77 f5 3e 40 a9 60 3f ee 11 8e 3e 7c f2 75 3f
       0.47942555 0.87758255 0.27748054 0.96073127
0002b0 1e 3c 21 3e 81 ce 7c 3f 21 db b5 3d 1e fd 7e 3f
       0.15745589 0.987526 0.08879686 0.99604976
0002c0 f5 b6 4c 3d 19 ae 7f 3f fe 4d e6 3c 19 e6 7f 3f
       0.04997917 0.99875027 0.028113361 0.99960476
0002d0 81 85 81 3c cf f7 7f 3f bb ac 11 3c 69 fd 7f 3f
       0.01581073 0.999875 0.00889128 0.9999605
0002e0 de d6 a3 3b 2e ff 7f 3f 8c 44 38 3b be ff 7f 3f
       0.0049999794 0.9999875 0.002811703 0.99999607
0002f0 31 3e cf 3a eb ff 7f 3f 26 15 69 3a f9 ff 7f 3f
       0.0015811381 0.99999875 0.0008891396 0.9999996
000300 8c 0f 8f be b8 cd 75 3f 74 e5 6b be 53 1d 79 bf
       -0.2794155 0.96017027 -0.23036748 -0.9731037
000310 4d 78 72 3f 6f 3f a4 be 89 30 60 3f 34 2f f7 3e
       0.94714814 -0.32079646 0.8757406 0.482782
000320 69 8c 10 3f 32 49 53 3f fd 7d a9 3e e2 90 71 3f
       0.5646425 0.8253356 0.33103934 0.943617
000330 6f 20 41 3e e3 67 7b 3f c1 19 da 3d 51 8b 7e 3f
       0.18860029 0.98205394 0.106494434 0.9943133
000340 d1 9c 75 3d 12 8a 7f 3f bf 2c 0a 3d b3 da 7f 3f
       0.059964005 0.99820054 0.03373408 0.99943084
000350 46 6c 9b 3c 34 f4 7f 3f 04 cf 2e 3c 45 fc 7f 3f
       0.018972527 0.99982 0.010669474 0.9999431
000360 59 9b c4 3b d2 fe 7f 3f 06 1f 5d 3b a1 ff 7f 3f
       0.005999964 0.999982 0.0033740415 0.99999434
000370 05 b1 f8 3a e2 ff 7f 3f 7d d9 8b 3a f6 ff 7f 3f
       0.0018973654 0.9999982 0.0010669675 0.9999994
000380 46 30 28 3f bd ff 40 3f 6e b6 36 bf 60 4f 33 bf
       0.6569866 0.75390226 -0.71372116 -0.7004299
000390 6f e8 4c 3f bb 74 19 bf 44 84 72 3f b9 f8 a3 3e
       0.80042166 -0.5994374 0.9473307 0.32025698
0003a0 73 eb 24 3f b3 cc 43 3f df 60 c4 3e c5 6b 6c 3f
       0.64421767 0.7648422 0.38355157 0.92351943
0003b0 50 d3 60 3e ea c0 79 3f ba 46 fe 3d e9 04 7e 3f
       0.2195561 0.9755999 0.12415834 0.9922624
0003c0 32 3e 8f 3d 81 5f 7f 3f 60 31 21 3d 3b cd 7f 3f
       0.06994285 0.997551 0.03935373 0.9992253
0003d0 a6 52 b5 3c f2 ef 7f 3f 2a f1 4b 3c ec fa 7f 3f
       0.022134136 0.999755 0.012447635 0.9999225
0003e0 c7 5f e5 3b 65 fe 7f 3f be fc 80 3b 7e ff 7f 3f
       0.006999943 0.9999755 0.003936379 0.99999225
0003f0 ec 11 11 3b d7 ff 7f 3f 66 28 a3 3a f3 ff 7f 3f
       0.0022135926 0.99999756 0.0012447953 0.9999992

encoder.layer_stack.0.slf_attn.w_qs.weight f4 [128, 32]
000000 03 c5 33 3d e9 1e 1b 3e ee 28 ec bd 43 ec 46 3d
       0.043889057 0.1514851 -0.11531244 0.04856516
000010 36 85 3b 3e a1 c9 95 3d 90 48 dc ba 63 e5 8b bd
       0.18312535 0.07313848 -0.0016806293 -0.068308614
000020 18 5f 15 be b9 e8 19 bd de b6 90 bd fd ba 18 3e
       -0.14587057 -0.037575457 -0.07066129 0.1491508
000030 db b9 91 3d c5 a2 90 bd 8b 78 4e bd 45 f3 03 3e
       0.07115527 -0.07062296 -0.050407927 0.12885769
000040 b6 74 f1 3c 5b f6 39 3d 44 a6 69 3d a1 d5 57 bd
       0.029474597 0.04540096 0.05704333 -0.052693967
000050 62 f6 22 3e 1a 1e 57 3d 60 52 a2 b6 e5 f2 a6 3d
       0.159143 0.05251894 -4.837566e-06 0.08151797
000060 ec 4b 17 bd d7 67 10 3e aa 2a e0 bd 8a 11 04 3c
       -0.03693764 0.14102112 -0.109456375 0.008060822
000070 63 88 e0 3d d0 c2 01 be e3 c1 36 be ed b4 41 be
       0.10963514 -0.12671971 -0.178474 -0.18916674
000080 68 ac ec 3d fc a0 2d be b7 70 f3 bd eb 8e 25 bd
       0.115563214 -0.16955942 -0.11886733 -0.0404195
000090 97 c9 e9 bd e8 ab 77 3d e0 06 1d 3e dc 2a 07 bd
       -0.11415403 0.060466677 0.15334654 -0.03299986
0000a0 4c f0 10 3e 38 f8 9b 3d 6b 8d b3 3d 03 8e b7 bd
       0.14154166 0.07615703 0.08767208 -0.089626335
0000b0 5e f9 e9 3d ef 8c 47 3d 04 19 4f 3e 6a a4 0a 3d
       0.11424516 0.04871839 0.20224386 0.033848204
0000c0 a3 50 14 3e 3f 74 5a 3b 99 19 2a be a4 af b5 bd
       0.14483885 0.0033333448 -0.16611327 -0.088713914
0000d0 01 1e 3c 3e 20 81 2b be 8f f9 a8 3d 48 a1 a0 3d
       0.1837082 -0.16748476 0.082507245 0.07843262
0000e0 47 ce ae bd 83 5d 56 bd 4f ce ab 3d 57 ee 0e be
       -0.08535438 -0.052335273 0.083889596 -0.13958107
0000f0 ad 59 8f 3d 45 00 d2 3d ae 0f cb bd 66 e8 0f 3e
       0.06999526 0.10253958 -0.099151 0.14053497
000100 1f 09 3d 3e fd b8 a2 3d ea 63 9e bd f4 49 41 be
       0.1846051 0.0794544 -0.07733901 -0.18875867
000110 3b b7 23 be 94 1a 85 3d 41 4a 40 3e 2a 97 50 3d
       -0.15987866 0.0649921 0.18778326 0.05092541
000120 2e b5 76 bd 49 b5 e6 3b 3e 0a 16 be 76 aa e0 bd
       -0.06023138 0.007040654 -0.14652345 -0.10970013
000130 6e 98 33 3e bf f7 ca bd 59 44 4b bd 6b 9e 20 be
       0.17538616 -0.09910535 -0.04962573 -0.15685432
000140 c9 94 11 3e 0a dd d0 bd dd cd a7 bd 01 b9 ad 3d
       0.14216913 -0.1019841 -0.08193562 0.08482552
000150 e4 e4 d0 3d ff d8 3a be 09 10 5d 3d ab 43 b7 3d
       0.101999074 -0.1824684 0.05397037 0.089484535
000160 7c 58 34 bc b4 8a 2a be 51 3d ad 3d cc 21 9b 3c
       -0.011007424 -0.16654474 0.08458961 0.018937014
000170 7b db 15 be 82 0b 1b be 11 ce bf 3d 76 de b2 3d
       -0.14634506 -0.15141109 0.09365476 0.08733837
000180 04 71 39 3e 05 55 b6 3d 00 86 e2 3d 4b d3 1f bd
       0.18109518 0.08902935 0.11060715 -0.039019864
000190 19 d2 1c be 6c 96 e8 3d bf 9b c5 bd 17 52 9f bd
       -0.15314521 0.11356816 -0.09648847 -0.07779329
0001a0 1f 97 a2 bd f1 57 12 be 63 94 46 3d 8b 30 02 be
       -0.0793898 -0.1429136 0.048481356 -0.1271383
0001b0 dd 64 18 3e 63 9c 9b bc a3 2c e1 3d ca 0e fd bc
       0.14882226 -0.01899547 0.10994842 -0.030890841
0001c0 9d e2 03 be e2 47 f1 3d cd 8c b3 bd a0 d9 e8 bd
       -0.12879415 0.11781289 -0.0876709 -0.11369634
0001d0 97 39 40 3e b8 c0 06 3c 27 8b 3f bc 1a 57 96 3d
       0.18771969 0.008224659 -0.011690891 0.07340832
0001e0 19 b2 7b 3d d4 32 40 3e a6 90 0a be e3 77 67 bd
       0.061449144 0.1876939 -0.13531741 -0.056510817
0001f0 59 ed 0e bd 9c d2 92 3d 05 bd 46 bc ec d1 16 3e
       -0.03489432 0.07169077 -0.012130027 0.14728516
000200 d5 40 2d be ca 52 07 3e f1 a2 49 3e 08 cd 20 be
       -0.16919263 0.13215175 0.19691063 -0.15703213
000210 03 54 9c 3d de 2c 1a 3e e6 8a ab 3c 18 57 0e 3e
       0.076332115 0.15056178 0.020940255 0.13900411
000220 f4 13 e6 bd 08 38 05 be 18 1f 05 3e 2c 1c 02 39
       -0.112342745 -0.13009655 0.13000143 0.00012408261
000230 ff ba f9 bc e9 1f 3f bb 03 07 39 3e 54 50 f2 3c
       -0.030484674 -0.0029163307 0.18069081 0.029579319
000240 3b 1b 30 3e 9b d9 ce bb cd eb 0c 3d ec 5e fa bd
       0.17197888 -0.0063125617 0.034404565 -0.12225136
000250 8f 62 e9 bd ee c8 13 3e f9 31 92 bd 71 4d 2e be
       -0.11395752 0.14432117 -0.07138438 -0.17021729
000260 29 36 0b 3e 27 68 ea 3d 05 0a 1b 3e fe 17 95 3c
       0.13594879 0.11445647 0.15140541 0.018199917
000270 56 4b e2 3d 2c 35 06 3d c3 43 67 3d 78 c5 0e be
       0.110495254 0.032765552 0.056461107 -0.13942516
000280 13 27 b1 3d 9f 4d 18 be 55 48 ff 3d f2 1d 1a bd
       0.08650031 -0.1487336 0.12464968 -0.037626214
000290 8b 43 2c 3d 89 cd 82 3d f2 12 22 3e b0 fe 25 be
       0.0420566 0.06386859 0.1582754 -0.16210437
0002a0 4e 41 13 3e d2 bd 90 bc 86 ec 53 bd 3b c7 9a bd
       0.1438038 -0.017668638 -0.05173924 -0.075575314
0002b0 44 21 02 be e0 ec 25 bd 5c 96 fd bc 4a e1 bd 3d
       -0.12708002 -0.040509105 -0.030955486 0.09271486
0002c0 26 0a 25 be 14 4a 1b 3e 78 d3 0e 3c c7 9d 24 b9
       -0.16117153 0.15164977 0.00871741 -0.00015699035
0002d0 49 a9 b8 bd 92 57 20 be ae b3 14 3e d6 44 1a 3e
       -0.090166636 -0.15658405 0.14521667 0.15065321
0002e0 4a bf a6 3c 8e 42 36 bd e0 6b 1a 3d 4d c4 ac bd
       0.020354886 -0.044497065 0.037700534 -0.08435879
0002f0 d5 a0 21 3e 3c bd 8e bc 51 55 b8 3d 39 c5 8f 3c
       0.15784009 -0.017424218 0.09000648 0.017550098
000300 5c 00 0b 3e 65 28 1f be 5f ad 91 3d 14 1c 1f be
       0.13574356 -0.15542753 0.07113146 -0.15538055
000310 9c 79 2a be 60 1a a7 3b 85 df cb bd 0a 9f b8 bb
       -0.16647953 0.0050995797 -0.09954742 -0.0056341933
000320 1c 70 01 3e 50 b8 ea bd ab 77 c9 bd 2e 32 1f bd
       0.12640423 -0.11460936 -0.09837278 -0.038866214
000330 37 a2 0b be 8c 48 c2 bc 09 a6 9d bd 64 d2 23 be
       -0.13636099 -0.023716234 -0.07697684 -0.15998226
000340 00 6e 98 3c d4 ca 43 be cf 76 db bd c1 9d 91 bd
       0.01860714 -0.19120342 -0.1071602 -0.07110167
000350 ff f4 3d be a0 a2 65 bc 0d 36 11 be 79 b5 eb bd
       -0.1855049 -0.014015824 -0.14180775 -0.115092225
000360 81 b6 02 3e a1 7b 06 be 53 e5 be 3d cf 90 19 be
       0.12764932 -0.13133098 0.09321084 -0.14996646
000370 55 7d d4 3d 60 fd 31 3d 56 c6 93 3d ea 27 f6 bd
       0.10375468 0.043454528 0.07215564 -0.12019332
000380 7e af ca 3b 64 08 38 be d9 e1 40 3e 58 9b 05 3d
       0.006185471 -0.17971951 0.18836154 0.03261885
000390 f0 4a a6 3d 6b 43 1c be b2 21 ca 3d 05 32 60 3d
       0.08119762 -0.15260093 0.09869708 0.054735202
0003a0 d3 fd 19 be 07 2d 12 be 0e e2 93 3d 70 1a 49 bd
       -0.15038233 -0.14274989 0.07220851 -0.04909748
0003b0 cd b7 09 3e 89 22 07 be ab d5 a1 3d 8c 01 a6 bd
       0.1344902 -0.13196768 0.07902082 -0.08105764
0003c0 e0 d2 16 3e f1 23 37 3d f2 3b 8f bd 9a 5b 0f 3e
       0.1472888 0.04471201 -0.069938555 0.13999787
0003d0 03 be 95 3d c6 57 b7 3c 18 b4 00 be 16 6c 2e 3e
       0.073116325 0.02238072 -0.125687 0.17033419
0003e0 b1 21 c5 bd 71 60 3a bc 50 51 de 3d 24 f3 3a be
       -0.09625567 -0.0113755325 0.10855353 -0.18256813
0003f0 c3 0b 37 be ad 48 f0 bd a7 54 20 3e 37 37 ab bd
       -0.1787558 -0.11732612 0.15657292 -0.08360141

encoder.layer_stack.0.slf_attn.w_ks.weight f4 [128, 32]
000000 ed cd 39 3e a6 97 3d 3e ee a8 e1 bd 2f e5 e6 3d
       0.1814496 0.1851488 -0.11018549 0.11274182
000010 71 43 3b be 00 1a ff 3d 58 58 61 3d 4e 49 0a be
       -0.18287446 0.12456131 0.05501589 -0.13504526
000020 6c c7 df bc fc bb ee 3d e8 db a6 bd 4f f4 02 be
       -0.027316771 0.11656949 -0.081474125 -0.12788509
000030 41 c8 d7 bd 36 a4 40 3d c4 40 f8 bd 6a ab 14 be
       -0.10536242 0.047031604 -0.12121728 -0.14518514
000040 d3 db f1 bc c6 ae e3 3c 3f e8 28 bc 72 4f 00 3d
       -0.029523766 0.0277933 -0.010309278 0.031325765
000050 b4 6c 77 bd 13 ba 9d 3d 3f 35 96 bc 49 1c 8b 3d
       -0.0604064 0.077015065 -0.018335937 0.06792504
000060 8c 1c dd bc e7 16 50 3e 01 0e 1e be 0f 0a 56 3c
       -0.026991151 0.20321237 -0.1543503 0.013063922
000070 ed e9 b4 3d 9e 1e a9 3d 3c 31 e2 bd 76 b8 04 be
       0.0883368 0.08257793 -0.11044547 -0.12960991
000080 c5 c7 98 3b 32 7c ae bc 87 91 40 3e b7 24 35 bd
       0.0046624863 -0.021299455 0.18805514 -0.044224467
000090 b0 e9 50 3e 8e cf 21 be 88 a5 ec 3d 05 32 3e be
       0.20401645 -0.15801832 0.1155501 -0.18573768
0000a0 f8 2e 40 be 60 62 df bd 8d 22 1a 3e 8d ee a7 bd
       -0.18767917 -0.109074354 0.15052243 -0.08199797
0000b0 aa b5 f8 bd b4 5d 42 bd ee 1c 8d bb 4e 4a ee bd
       -0.12144025 -0.047452644 -0.004306427 -0.11635266
0000c0 6c 55 0a be 2b 8b 1a be 27 d6 38 be 90 ce 87 bd
       -0.13509148 -0.15092151 -0.18050443 -0.066311955
0000d0 bb 76 2c be 55 50 25 3e 3d bb 0c 3e 3d 81 11 be
       -0.16842167 0.16143925 0.137433 -0.14209457
0000e0 7e 2e 27 bd c4 8f 34 3d 87 53 1e bd c2 28 c7 3d
       -0.040815823 0.044082418 -0.038653877 0.09724571
0000f0 27 0c 90 3b e3 40 71 3d 7b 8d e7 3d 30 68 61 bd
       0.00439598 0.05889977 0.11306282 -0.055031
000100 f1 88 e6 bb f8 87 ef bd 41 29 d9 3d 8e d5 12 be
       -0.0070353677 -0.11695856 0.10603572 -0.14339277
000110 a8 c4 19 be f4 45 2a be 3a 73 fa 3d 3c 45 4a be
       -0.15016425 -0.16628247 0.12229009 -0.19752973
000120 10 34 43 bd f0 43 02 bd 37 d8 19 bc 53 4d 87 bd
       -0.047657073 -0.03180307 -0.009389929 -0.06606545
000130 7e 75 d8 bd fc 20 0f be 74 78 d7 bd ee b8 d4 bc
       -0.10569285 -0.13977426 -0.105210215 -0.025967088
000140 01 5d c8 bd e1 9f 03 3e eb 82 2d be 91 d1 33 3e
       -0.09783364 0.12853958 -0.16944472 0.17560412
000150 e1 ed ee bd be 4c c5 bd d0 b8 01 be 49 62 f3 bd
       -0.116664656 -0.09633778 -0.12668157 -0.11883981
000160 d6 75 ec 3d 48 cf 09 3e ad c4 5a bd d7 8b f2 3d
       0.11545913 0.13457978 -0.05341022 0.118430786
000170 06 b0 29 3e 8f a0 2d be 21 2d a4 3d e5 1f 31 39
       0.16571054 -0.1695578 0.0801642 0.00016891917
000180 ad 54 a5 3d c3 ec 37 3e 2c 1f 26 3e 6f 28 d8 3d
       0.08072791 0.17961411 0.16222829 0.10554587
000190 48 9f 92 bd bc 9d 39 3e 07 e2 20 3d 0e a8 24 3d
       -0.07159287 0.18126577 0.039278056 0.040199332
0001a0 6e 1d 2b 3e 36 99 d8 3d 2c fd cc bd 84 3b cb bd
       0.16710445 0.10576098 -0.10009226 -0.09923461
0001b0 7c f5 eb bb f1 63 0d be a3 85 74 bd d8 3e b7 3c
       -0.007200895 -0.13807656 -0.05969776 0.022368833
0001c0 d5 48 af bd 60 33 ef bd e6 75 15 bc 0e 3d 25 be
       -0.085588135 -0.11679721 -0.009122347 -0.16136572
0001d0 fd e0 cd 3c 71 05 2e be 54 9c c2 bb 0f 75 a5 3d
       0.025131697 -0.16994263 -0.005939046 0.08078968
0001e0 08 72 1d 3d 83 01 d9 3d 60 7f 24 3e d1 d6 de 3d
       0.038438827 0.105959915 0.16064215 0.10880817
0001f0 1d a4 34 3e fd 0e 37 bd d0 a9 1a 3e 9d 9a c8 bc
       0.17640729 -0.04469203 0.15103841 -0.024487788
000200 8e c4 b8 bd 77 8d 15 bd 74 0e 9b bc 1e cf d0 3d
       -0.09021865 -0.036511865 -0.01892779 0.101957545
000210 32 15 11 be 4a 26 54 bc dd 3e a3 3d 9e 00 13 bd
       -0.14168242 -0.012948582 0.079709746 -0.03588926
000220 8a 88 31 be e5 86 36 be ab 3a 11 be 7c 52 67 3d
       -0.17337242 -0.17824896 -0.14182536 0.056475148
000230 b7 79 03 bd d5 83 04 be 0e 56 ef bd 19 d8 3a 3d
       -0.0320985 -0.12940915 -0.116863355 0.045616243
000240 6d a8 f2 bd e1 08 e1 bd 3e 43 20 bd 44 39 fd 3d
       -0.11848531 -0.10988022 -0.039126627 0.12364438
000250 6d df b3 bd a5 aa b0 3d 3f e1 00 3e fd 69 c4 3c
       -0.087828495 0.08626298 0.12585925 0.02397632
000260 e6 ac 83 bd 6b 67 f0 bd 57 20 86 bd 7e cf 37 3e
       -0.06429462 -0.117384754 -0.06549137 0.17950246
000270 00 a4 25 3e e0 e9 3c 3c 21 57 c0 bc 01 bd 25 be
       0.16175842 0.0115303695 -0.023479046 -0.1618538
000280 b0 5a 41 3d 14 72 68 3a 0c a4 96 3d c7 56 ac 3d
       0.047205627 0.00088670966 0.07355508 0.08414989
000290 c1 fa 73 3d 10 a2 85 3d 1f 95 3b bd f0 de 29 be
       0.05956531 0.065250516 -0.04579651 -0.1658895
0002a0 5b c2 ca 3d 39 2b ef 3d 0d 9f 28 3e 6a 39 ae 3d
       0.099003516 0.11678166 0.16466923 0.085070446
0002b0 4a 42 d9 3d 5b 66 46 bc 9f 54 55 bd e5 4f a0 bd
       0.10608347 -0.012109364 -0.052082654 -0.07827739
0002c0 28 60 2b 3e 3f 70 f5 3d 2c 5c c6 3d 4b 27 5b 3c
       0.167359 0.119843 0.09685549 0.013376067
0002d0 63 e9 3d be 95 8c e3 3d a1 d2 78 3d 1a f1 1f 3e
       -0.18546061 0.11110798 0.060747746 0.15619317
0002e0 64 48 20 3e ff eb d6 bd ff 97 0f 3e 19 a5 a7 bd
       0.15652615 -0.104942314 0.14022826 -0.08185787
0002f0 38 c3 8b 3d 00 a5 17 3d f8 d8 59 bc 7d 44 02 be
       0.068243444 0.03702259 -0.013296358 -0.12721439
000300 e6 75 a3 3c 49 9b 1f be 63 21 a6 3b 0e 9b 02 bd
       0.01995368 -0.1558658 0.005069898 -0.031886153
000310 6b 7c c3 3d a6 9e 20 bc ec a4 bd bd 4c 31 cb 3d
       0.09545215 -0.00980345 -0.09259972 0.09921512
000320 1e 9b 87 bc 19 c2 1c be 4d 4a c5 3d 52 50 df 3b
       -0.016553458 -0.15308417 0.096333124 0.006814995
000330 d8 72 49 be d1 ec 62 39 4e 43 03 3e 66 0a 46 be
       -0.19672716 0.0002164126 0.12818643 -0.19339904
000340 96 f7 e1 bc a3 b3 ac bd 10 41 3b be f0 18 10 be
       -0.027583878 -0.084327005 -0.18286538 -0.14072013
000350 09 84 e8 bd af d0 d9 bd 16 6d 31 3d fd 34 db bd
       -0.11353309 -0.10635506 0.043316923 -0.10703466
000360 bd 49 32 bd b3 9b 3c 3d 60 c8 41 bb d1 53 16 3e
       -0.043527354 0.046046924 -0.0029568896 0.14680411
000370 cd dd 03 be 6c e1 d6 bd ff 92 0b 3e ce 93 15 be
       -0.12877579 -0.104922146 0.13630293 -0.14607164
000380 14 f4 a5 3c 0d 91 c4 3d 1a 5e f4 3d d0 60 32 be
       0.020257987 0.09597979 0.11932011 -0.17419744
000390 96 2b 27 be 8a 8e 26 bd a7 e7 23 bd cf 78 ea 3d
       -0.1632522 -0.04066328 -0.040015843 0.11448824
0003a0 5e 28 7c bd 56 5b ee 3d e7 f0 4f 3d 50 96 0f be
       -0.061561935 0.11638515 0.05076685 -0.14022183
0003b0 f2 c5 c2 3d 8e 57 34 3e 0b ef 78 bd 63 c8 fa 3d
       0.09510411 0.17611524 -0.060774844 0.12245252
0003c0 55 34 13 be b5 76 bb 3b f9 55 8c bd d8 f8 e8 bd
       -0.14375432 0.005720938 -0.068523355 -0.11375588
0003d0 18 6e 3f 3d 29 f0 8b bd 64 09 f6 3d c1 d5 00 be
       0.046735853 -0.06832916 0.1201351 -0.1258154
0003e0 9a d6 e4 3d b7 d7 8e 3d d4 87 22 be 83 98 a4 3d
       0.111737445 0.06974738 -0.15872127 0.08036902
0003f0 63 bc 4f bd 40 de 26 be e3 57 41 3d 0a 2b 25 3e
       -0.05071677 -0.16295719 0.047202956 0.161297

encoder.layer_stack.0.slf_attn.w_vs.weight f4 [128, 32]
000000 3a 10 21 3e 9f d5 ad bd 17 bd da bd dc 41 08 3d
       0.15728846 -0.084880106 -0.10680597 0.033265933
000010 8b c1 82 3c 28 c0 e5 3d 34 84 2f 3e c9 1f ff bd
       0.01596143 0.112182915 0.17140275 -0.124572344
000020 1a 4c 9d 3c 30 c5 78 3c 7f fa 31 3e c1 bb bb 3d
       0.019201327 0.015183732 0.17380713 0.091666706
000030 9b 2d f4 bc be f2 4e 3d 7c a5 36 be 21 c4 fb bd
       -0.029806903 0.050524466 -0.17836565 -0.12293268
000040 dd c4 11 be 85 74 1f 3d 86 d8 1e bd 5f 3d 1b 3d
       -0.14235254 0.03892948 -0.03878071 0.037900325
000050 4b 94 66 3d 95 d9 f6 bc ca e9 29 3e f6 65 5d bd
       0.056293767 -0.030133048 0.1659309 -0.054052316
000060 38 2c 1f 3e 46 03 1e 3e 06 c7 14 3d 7a d1 65 bc
       0.15544212 0.15430936 0.036322616 -0.014026994
000070 00 ac df 3d 80 44 8f bd 7a a8 24 be 5e 9e 9f bd
       0.10921478 -0.06995487 -0.16079894 -0.07793878
000080 6f 84 16 3e d2 bc 2e 3e 66 86 ec bd c4 0b 3e be
       0.14698957 0.17064217 -0.11549072 -0.18559176
000090 b6 62 76 3b 93 12 b7 3d c4 04 24 be 16 47 37 be
       0.0037595457 0.089390896 -0.16017443 -0.17898211
0000a0 7a 94 38 3e 7c c5 13 be 83 f3 da bd ad 80 6f 3d
       0.1802539 -0.14430803 -0.106909774 0.058472324
0000b0 e7 5a 05 bd 1b 6d 1b 3e 48 05 17 3c 37 62 d6 3d
       -0.032557394 0.15178339 0.009217568 0.10467952
0000c0 71 23 2d be 8e f7 bd 3c 26 38 dc bd e8 e7 60 3d
       -0.16908051 0.023189332 -0.10752897 0.054908663
0000d0 c0 bc 9b bd 8e 79 8e 3d 88 d4 33 3d e8 cd 0c 3c
       -0.076043606 0.069567785 0.043903857 0.008594014
0000e0 79 94 5f 3d 8d f0 a7 bd 8f f9 09 be 89 95 e2 bd
       0.054584954 -0.08200178 -0.13474105 -0.11063678
0000f0 3e 84 90 bc c4 73 1b 3e 49 fc 8a 3c 36 fd f1 3d
       -0.017641183 0.1518088 0.016966002 0.11815874
000100 2d ab 6a 3d 8c cf 2c be 5d 39 69 3d 10 69 cc bd
       0.057292152 -0.16876048 0.05693947 -0.099809766
000110 6e e2 27 bd b3 00 d3 bb 8c f9 13 be b2 85 33 3e
       -0.040987425 -0.0064392923 -0.14450663 0.1753147
000120 27 f3 cb bd 81 c6 41 be 76 bb 1e bb 5a 8a 21 3e
       -0.09958487 -0.1892338 -0.0024220622 0.15775433
000130 64 0c 50 3e 66 32 b6 bd b3 bf d1 3c 51 ff ec 3d
       0.20317227 -0.088963315 0.025604105 0.11572135
000140 8a c4 ad bd e7 a8 37 be d4 b0 39 be 86 a1 e8 3c
       -0.084847525 -0.17935525 -0.18133861 0.028397333
000150 0c 46 2d 3e 9e e6 01 be 79 51 08 3e fa 2c 45 be
       0.16921252 -0.1268563 0.1331233 -0.19255438
000160 27 6a 48 3e 1d 93 f5 bc 62 fb 81 bd 4c 43 36 be
       0.19571744 -0.029977376 -0.063467756 -0.17799109
000170 4f b5 0f be fa 91 3e be aa 98 ed bd 61 0b bb 3c
       -0.14034007 -0.18610373 -0.11601384 0.022832574
000180 49 8c 1f 3e 02 08 05 be 81 8f 23 be 69 04 1a 3e
       0.15580858 -0.12991336 -0.15972711 0.15040745
000190 92 b5 46 be 2f 9c 1d be 9f 6c 15 be 0f 54 92 3d
       -0.19405201 -0.1539161 -0.14592217 0.07144939
0001a0 1c 6d ae 3c d9 ba b6 bd 04 cd aa 3d 33 35 db 3d
       0.021292262 -0.08922357 0.08339885 0.10703506
0001b0 74 14 60 bd a9 d7 28 3e b2 d7 3f 3d 51 2d 8e 3d
       -0.054707006 0.16488518 0.046836562 0.06942237
0001c0 00 2e 3a 3e 64 69 d6 3b 01 9f 6b 3d cc c3 50 3d
       0.1818161 0.0065433253 0.057524685 0.050967976
0001d0 bd ba ea bd 29 57 eb bd a1 29 2d be 4c 28 1d bb
       -0.11461399 -0.11491234 -0.16910411 -0.0023980318
0001e0 ca bb 15 3e 9f ff b2 bd b1 18 b3 3d 68 b2 80 bd
       0.14622417 -0.08740162 0.08744944 -0.06284028
0001f0 3c fe 47 be e6 16 aa bc 27 3f d8 3b 47 4d 4d 3e
       -0.19530576 -0.020762872 0.006599325 0.2004901
000200 38 4d f8 3d 13 22 33 be 06 26 c2 bc f1 cc bf 3d
       0.12124103 -0.17493467 -0.023699772 0.09365261
000210 f5 59 15 3d 03 93 02 be ed 97 c7 bd ab 8d bb 3d
       0.036462743 -0.12751393 -0.097457744 0.091578804
000220 60 ff ea bd 80 17 b7 3d 43 09 62 bd 60 05 6e bd
       -0.1147449 0.08940029 -0.055184614 -0.058110595
000230 e0 ba e9 bd 03 04 40 3b d4 c3 16 be 42 9a f8 3b
       -0.11412597 0.0029299266 -0.1472314 0.0075867483
000240 02 d6 85 3c 3f 7e e2 bd 0e 7b 55 bc 2c 38 0c be
       0.016337398 -0.11059236 -0.013029827 -0.13693303
000250 05 f5 e6 3d 88 8c 8f bd a7 4d 3a be b6 a9 fd 3d
       0.112772025 -0.07009226 -0.18193685 0.123858854
000260 09 58 ec 3b 55 ba 40 3e 0c 96 2e 3e 02 ce 2a bd
       0.007212643 0.1882108 0.17049426 -0.04170037
000270 68 e3 26 3d 5a 88 94 3c a8 6c 3e 3d a1 04 28 be
       0.040744215 0.018131424 0.04649034 -0.16408016
000280 82 c4 dd bd 1d 90 aa bd f9 b1 bf bd a6 ff 2f be
       -0.108284965 -0.08328269 -0.093601175 -0.17187366
000290 0e 3b fd bc 8e d4 a5 3d b4 5c 2c bc ff 90 9a 3d
       -0.030911949 0.08097182 -0.010520149 0.07547187
0002a0 a9 f7 81 bd d7 6b cc bd ec fe 3e 3e 7a 8d d5 bc
       -0.063460656 -0.09981506 0.18651932 -0.026068438
0002b0 17 10 c9 bc 68 e2 53 bd c1 b3 0b 3d 2b 2a 8f bd
       -0.024543805 -0.05172959 0.034106974 -0.06990465
0002c0 1b 81 2c 3e bd 63 ad bb 98 75 e5 3c 14 04 df 3d
       0.16846125 -0.0052914307 0.028010175 0.1088945
0002d0 14 c2 11 be 6f 9a eb 3b 0c c8 f9 3c 93 e0 95 bd
       -0.14234191 0.007190041 0.030490898 -0.07318225
0002e0 c5 b1 4a bc 5a a3 f3 3d 4f 03 88 3d 0d 44 32 3e
       -0.012371485 0.11896391 0.06641256 0.17408772
0002f0 98 46 1b 3d 49 4d 01 3e d3 14 5e 3c 68 d2 b5 bc
       0.03790912 0.12627138 0.01355477 -0.022195056
000300 3b 4f c3 bd a8 d5 bd 3c 91 21 0d 3e 20 57 36 be
       -0.095365964 0.023173168 0.13782336 -0.17806673
000310 19 eb 5c 3c 91 07 a6 bd 74 64 89 bd 51 b8 0c 3e
       0.013483786 -0.08106912 -0.06708613 0.13742186
000320 a8 33 e8 bd de a6 41 3d 71 6f 8e 3c 01 04 db 3c
       -0.11337978 0.047278278 0.017387124 0.026735308
000330 b9 33 22 be 34 c8 e4 3c d0 f3 2a bd 9e fe 9d bc
       -0.15840043 0.027927496 -0.041736424 -0.01928645
000340 a3 2c 16 be 6a c3 fb bd 1e 5a 46 3e 90 f6 ce 3d
       -0.14665465 -0.12293132 0.19370314 0.10105622
000350 86 6d 4a 3e 42 80 ea 3d 24 e6 e2 3d c5 a4 4a 3d
       0.19768342 0.114502445 0.11079052 0.049473543
000360 4c 03 43 bd 84 84 99 bd aa c5 88 bc a3 a5 a7 bc
       -0.047610566 -0.074959785 -0.016695816 -0.020464724
000370 91 4a 0f be 5e ae a8 bc 99 a8 e6 bd 5b 0f f5 3d
       -0.13993289 -0.020590957 -0.11262626 0.119658194
000380 7c 36 af bd 70 4b 28 3e 77 35 2c 3e 9a 33 82 bd
       -0.08555314 0.16435027 0.1681727 -0.063574985
000390 62 be ca bc 33 e4 08 be 3d 0b eb 3d cb c2 83 3d
       -0.024748985 -0.13368301 0.11476753 0.06433638
0003a0 81 b2 4f bd bf 8a af bd 0d 74 0b be 60 39 b7 bc
       -0.050707344 -0.085713856 -0.13618489 -0.022366226
0003b0 8e 6e 34 be 36 0e 32 be 94 52 e1 bd 11 6c 78 3d
       -0.17620298 -0.17388234 -0.11002079 0.060649935
0003c0 75 b5 a0 3c 11 28 9c 3d 5f c9 9a bd 86 53 8a 3d
       0.019617775 0.076248296 -0.0755794 0.06754212
0003d0 85 cc f1 3d 47 81 c5 3c d6 80 d8 bd 7f 9d 20 3e
       0.11806587 0.024109496 -0.105714485 0.1568508
0003e0 d3 58 86 3c 82 d5 eb bd d9 a8 35 be 52 26 1b 3e
       0.016399777 -0.11515333 -0.17740192 0.15151337
0003f0 2e e9 3d be 70 25 2a bd c4 19 0a be a4 68 2b 3d
       -0.18545982 -0.04153961 -0.13486391 0.04184784

encoder.layer_stack.0.slf_attn.fc.weight f4 [32, 128]
000000 99 5f 12 bd 09 13 6e ba 81 85 13 be f5 7c 78 bd
       -0.0357357 -0.0009081816 -0.14406396 -0.060666043
000010 2f 43 db bc cf 72 ad 3d 32 d5 0e be 97 f3 dd bd
       -0.026765434 0.084691636 -0.13948515 -0.10837477
000020 22 68 d5 bd 1b 2d 0a 3e cf 1d 00 3d 82 5b 9f 3d
       -0.104202524 0.13493769 0.031278428 0.077811256
000030 d2 e7 0a 3e f4 89 e6 bc a5 05 43 3e 85 42 3c 3e
       0.13564995 -0.028141953 0.19045122 0.1838475
000040 37 c4 13 bd 98 e7 d6 3d 45 50 a9 3d e5 5a b5 3d
       -0.036075797 0.10493392 0.08267263 0.088552274
000050 b1 4b 63 3d d8 ab bb 3d 86 53 0e be 21 e0 c0 bd
       0.055492107 0.09163636 -0.13899049 -0.09417749
000060 44 58 20 be ef 0b 68 3d c9 12 7f 3b 52 8e 5e bd
       -0.1565867 0.056652006 0.003892111 -0.054334946
000070 f8 12 19 be 2a e3 67 3d 8f c0 90 bd 72 10 df 3b
       -0.14948642 0.056613125 -0.07067978 0.0068073804
000080 38 8e 37 bd 04 54 18 3c cf b9 24 3e a0 eb 02 be
       -0.044813365 0.009297375 0.16086505 -0.12785196
000090 38 7f e8 bc 6e a0 88 bd de 93 3a be 82 a2 5f bd
       -0.028380975 -0.066712245 -0.1822047 -0.05459834
0000a0 fa 98 c3 3d 20 1d 03 3e 7f 35 91 3d f7 33 06 3e
       0.09550662 0.12804079 0.07090282 0.1310576
0000b0 2e 86 fa 3d 69 2b a9 3d 06 cf e4 3d 83 8f 38 be
       0.12232624 0.08260233 0.11172299 -0.18023495
0000c0 b5 62 00 be e0 3b 14 3e ee c0 e8 3d 34 5f ad bc
       -0.12537654 0.14475965 0.113649234 -0.02116356
0000d0 97 2f 3a be cb 97 b2 bd cd 5b be 3d 7c 66 59 3d
       -0.18182217 -0.087203585 0.09294853 0.053076252
0000e0 bf 77 a7 3d 88 70 68 3d ed 21 02 be 10 19 ba 3d
       0.08177137 0.056747943 -0.12708254 0.090868115
0000f0 7c 6d fe bd 0f 74 15 be 89 ec 9d 3d 78 39 45 bd
       -0.12423226 -0.14595054 0.07711131 -0.04815051
000100 67 15 95 3d c0 5f 36 bd c1 8f 3d be 77 1d 1d 3e
       0.07279473 -0.044524908 -0.18511869 0.15343271
000110 dd 10 19 3e 66 0a 3c 3e 3c d8 19 3e a1 a2 1a bd
       0.14947839 0.18363342 0.15023893 -0.03775275
000120 3f b2 bf 3d 2f 67 6a bd 05 ca 49 3e 61 83 a9 3d
       0.093601696 -0.05722731 0.1970597 0.08277012
000130 10 13 cb bd 1b b3 20 be e3 80 0b 3e 97 42 90 bd
       -0.09915745 -0.15693323 0.13623385 -0.07043951
000140 ac 7b d5 bd 06 d0 97 bd 64 8c a6 3c bd 4d 9f bd
       -0.10423979 -0.07412724 0.020330615 -0.07778499
000150 a8 51 c1 3d 0e 2c bf 3d bd 16 e1 bc dc 4d 63 3d
       0.09439403 0.09334575 -0.027476663 0.055494174
000160 f4 21 c5 bc 5e 76 db bc 6e 10 c7 bd 7d db 98 3d
       -0.024064042 -0.02678984 -0.097199306 0.07463739
000170 68 67 63 bc af 1e 8d 3d 18 1c 22 3e e6 17 74 3d
       -0.013879634 0.06890618 0.1583103 0.059593104
000180 f4 b8 c5 bd 6a de 1c 3d fb de fb 3c 39 0b 23 3e
       -0.09654418 0.038298048 0.030745974 0.1592225
000190 0d 80 43 be e6 61 80 3c f3 4a df bd 7e 28 a0 bd
       -0.19091816 0.015671682 -0.10902967 -0.07820223
0001a0 c1 f6 2c be 8b 3c 72 bd 40 de f5 3d e3 a2 5d 3d
       -0.16891004 -0.05913977 0.120052814 0.05411042
0001b0 ab 44 5d 3c 52 b5 90 bd 55 42 0b 3e 4f 46 22 be
       0.013505141 -0.07065834 0.13599522 -0.15847133
0001c0 e9 a8 44 be 2a 89 94 3c e4 25 5c 3d 5e 9c 39 3e
       -0.19205059 0.018131811 0.053747073 0.18126056
0001d0 2e 56 3a 3e 36 9a 8d 3d a3 b1 06 be fd e0 eb bd
       0.18196937 0.06914179 -0.131537 -0.115175225
0001e0 b2 d0 e3 bd 9f 4a e3 3d 38 d7 18 3e 77 8f 21 3e
       -0.1112379 0.11098217 0.1492585 0.15777384
0001f0 db 8d d8 3d 2c 72 46 bd 98 d4 43 be 8f eb d7 bc
       0.10573932 -0.048448727 -0.19124067 -0.02635744
000200 1e d3 27 be ee d5 e0 bd 74 1f 36 be 89 b1 1a be
       -0.16389129 -0.10978304 -0.17785436 -0.15106787
000210 58 e7 45 3e b5 ae 31 be 2b fe 1c 3e 91 36 f8 bc
       0.19326532 -0.17351802 0.15331332 -0.030299457
000220 44 a4 23 3d 4b 9b 08 3e dc 14 15 be 6a 67 2b 3d
       0.039951578 0.1334049 -0.14558738 0.04184667
000230 2f ab c4 3d 08 61 25 bc c4 70 8c 3d 9a 33 ea bd
       0.09602963 -0.010093935 0.06857446 -0.114356235
000240 bb ec 07 3e 3a b4 10 be 0f 93 43 3e 1f 83 b1 3d
       0.132739 -0.14131251 0.19099067 0.086675875
000250 39 5f 94 3d 52 bf 7f 3d e0 52 46 bd 03 97 c1 bc
       0.07244725 0.062438317 -0.04841888 -0.023631578
000260 6a aa 9d bd 4e 08 f8 bd 63 79 13 3e 59 bd f2 bd
       -0.076985195 -0.12110959 0.14401774 -0.118525214
000270 22 62 28 be ca 46 bd 3d ed 38 2d 3e de 60 4b 3c
       -0.16443685 0.092420176 0.16916247 0.012413232
000280 e2 99 e0 bd 8f 1e 34 3d dd 09 7f 3d f8 9e 04 3e
       -0.10966851 0.043974455 0.062265266 0.12951267
000290 c3 9a 3f be 2c 2f 7c 3c a2 6a f8 bd 59 80 00 3d
       -0.1871138 0.015392106 -0.121297136 0.031372402
0002a0 87 ef ff 3d 33 35 fb 3d bc 4e 34 be 68 26 9b bd
       0.12496858 0.12266006 -0.1760816 -0.07575685
0002b0 17 3f 59 bc d2 51 14 be 24 8d 37 3d cb 1b 4e 3d
       -0.013259671 -0.14484337 0.044812337 0.050319474
0002c0 79 86 6a 3c 81 43 1e 3d 34 e7 cc bc 17 08 cf bd
       0.014314287 0.038638595 -0.02501259 -0.10108965
0002d0 ad 6b 65 bb 6b 10 b8 3d 24 64 ac 3d bc 97 0a 3e
       -0.0035006807 0.089875065 0.08417538 0.13534445
0002e0 6e 0f be 3d 29 0a c2 3d ba ce 21 3e 27 58 b5 bd
       0.09280287 0.09474594 0.15801516 -0.08854704
0002f0 75 e2 b5 3d 2e e6 ce 3d 6e 3d 5d 3d df f7 26 3e
       0.08881084 0.10102497 0.054013662 0.16305493
000300 b9 44 d2 bc 47 92 09 3e 08 9b c1 bd d4 50 b4 3c
       -0.025667535 0.13434707 -0.09453398 0.022011198
000310 7f d8 24 bd 4c c3 d9 bd 99 db c5 bc 13 39 87 bd
       -0.04024553 -0.10632953 -0.024152564 -0.06602683
000320 32 5b 07 be da d9 1d be fd 32 2f be 6c 94 c4 bd
       -0.13218382 -0.15415135 -0.17109294 -0.09598622
000330 d2 36 5f 3d 28 be 07 3e a5 69 c1 bd 40 f5 2b 3c
       0.05449564 0.13256133 -0.09443978 0.010495484
000340 3f 51 28 3e 25 26 2e 3e 12 79 31 be 68 c5 ff 3d
       0.16437243 0.17006738 -0.17331341 0.12488824
000350 f8 08 25 3e 43 a3 cf bd 4f e9 00 bd db 61 0c 3d
       0.16116703 -0.101385616 -0.0314725 0.03427301
000360 60 ec d1 3d 56 74 71 3d a6 02 23 3e e7 20 d7 bd
       0.10250163 0.058948837 0.15918979 -0.105043225
000370 89 c2 28 3e 80 54 7f 3d a2 fd 1c be 06 68 43 bd
       0.1648046 0.062336445 -0.15331128 -0.047706626
000380 35 d8 96 bd 40 5f 43 be fc e6 a6 bd 07 84 ea bd
       -0.07365457 -0.19079304 -0.081495255 -0.114509635
000390 0b 51 7f bd e1 b1 9f 3b 06 29 74 3d 41 cf 33 3e
       -0.062333148 0.0048734997 0.059609435 0.1755953
0003a0 88 cc aa 3d 54 d2 f6 3d 00 a4 f5 3c f4 66 61 3d
       0.083397925 0.12051836 0.029985428 0.055029824
0003b0 83 66 68 3d c4 24 8d bb 97 4e 4a 3d 66 61 27 be
       0.056738388 -0.0043073613 0.049391355 -0.16345748
0003c0 63 9e 39 3e 4c 0e 15 3e d0 d1 df 3d 4d 33 05 be
       0.18126826 0.14556235 0.109286904 -0.13007851
0003d0 56 8f bf bb 39 fe 2c bd b5 9b 3d 3e e5 78 13 3e
       -0.0058459444 -0.042234633 0.18516429 0.14401586
0003e0 c2 ed 2a bb d6 0f 5c bd c8 45 3c 3e 7f 95 29 bd
       -0.0026081656 -0.05372604 0.18385994 -0.041402336
0003f0 cb e7 0e 3e 91 25 a3 3b ff 02 12 bd 0f 24 24 3c
       0.1395561 0.0049788435 -0.03564739 0.010018363

encoder.layer_stack.0.slf_attn.layer_norm.weight f4 [32]
000000 4d 67 80 3f e5 4b 80 3f 50 41 81 3f fe 12 81 3f
       1.0031525 1.0023161 1.0098057 1.0083921
000010 c2 b3 7d 3f 86 c4 80 3f 2b 29 80 3f a2 04 80 3f
       0.99102414 1.0059974 1.0012563 1.0001414
000020 29 0f 81 3f e8 09 7f 3f b9 c1 7c 3f 23 14 7e 3f
       1.0082752 0.9962449 0.987331 0.99249476
000030 2a a9 7e 3f 23 88 80 3f 82 22 7e 3f 0f e0 7f 3f
       0.99476874 1.0041546 0.99271405 0.9995126
000040 69 8a 80 3f 71 9c 81 3f b6 88 80 3f 5b 3e 81 3f
       1.004224 1.0125867 1.0041721 1.0097154
000050 c4 fd 7f 3f 03 c4 80 3f 83 04 7f 3f f9 b9 7d 3f
       0.9999659 1.0059818 0.9961626 0.99111897
000060 1e e5 80 3f 5b 5b 7f 3f 34 8f 7f 3f f3 ed 7f 3f
       1.0069921 0.9974877 0.99827886 0.99972457
000070 b3 cd 81 3f 95 0c 7e 3f f0 d2 7d 3f b9 fb 7d 3f
       1.01409 0.9923795 0.9914999 0.99212223

encoder.layer_stack.0.slf_attn.layer_norm.bias f4 [32]
000000 9b 7a 05 bc b0 8d a0 b8 de ac 08 39 f7 ed 4d 3b
       -0.008146907 -7.655786e-05 0.00013034369 0.0031422356
000010 25 aa af 3b 8d 0e a0 ba f3 d9 9c bb 7b 7d e5 bb
       0.005360859 -0.0012211368 -0.0047867238 -0.007003484
000020 10 d1 05 bc 74 18 07 bc 7f 60 02 3c 1e 8d 1f bc
       -0.00816752 -0.008245576 0.007957577 -0.009738235
000030 6f 32 ad 38 08 44 b9 3b 24 33 50 3c aa 27 06 39
       8.258677e-05 0.005653862 0.012707505 0.00012794012
000040 06 61 5f 3b e1 77 34 3c 2e fa 4e 39 39 1c 0c 3c
       0.003408493 0.0110149095 0.0001973889 0.008551651
000050 5e a2 8a 39 5e b6 01 3c a3 85 b0 3b 39 12 19 bc
       0.00026442384 0.007917015 0.0053870245 -0.0093427235
000060 9f 1f f5 bb d2 8f fa ba 2b fa 13 ba b2 d4 d7 b9
       -0.007480576 -0.0019116348 -0.0005644883 -0.00041166466
000070 82 30 5a bc 6e 9a 46 bc b0 59 02 3c 98 fc 19 bb
       -0.013317229 -0.01212178 0.0079559535 -0.0023496505
