output/transformer_model_smart.pth (torch_old, 327907 bytes, 39 tensors)

encoder.src_word_emb.weight f4 [10, 32]
0	0x3e1f9b0e	0.15586492
1	0xbe14349b	-0.14473192
2	0x3ebedda9	0.37278488
3	0x3ea6bad7	0.32564422
4	0x3e9191e1	0.2843161
5	0x3e30f70e	0.17281744
6	0xbe959079	-0.29211786
7	0x3e97a781	0.29619983
8	0xbe63113c	-0.22174543
9	0x3e74ee3e	0.23919007
10	0xbe8dbdf0	-0.27683973
11	0x3e8a8ded	0.27061406
12	0x3d68b878	0.056816548
13	0x3e302712	0.17202404
14	0x3ea48bc7	0.32137892
15	0xbe6da8a2	-0.2320886
16	0xbe86c1f5	-0.26319852
17	0x3e318a2e	0.17337868
18	0xbd999400	-0.07498932
19	0xbe15f8f8	-0.14645755
20	0x3e98f179	0.2987173
21	0x3caefb50	0.02136007
22	0xbe56549b	-0.20930712
23	0x3ddb1f8c	0.106993765
24	0x3e9a1411	0.30093434
25	0x3e2406ee	0.16018268
26	0x3e701f66	0.23449478
27	0x3e47e996	0.195227
28	0x3e9953bb	0.29946694
29	0x3b809300	0.0039237738
30	0xbe9cd54b	-0.3063148
31	0xbdee34c4	-0.11631158
32	0x3c973ee0	0.018462598
33	0xbde99d44	-0.11406949
34	0x3e423ab2	0.18967703
35	0xbe02a71a	-0.12759057
36	0x3e8a88e7	0.27057573
37	0x3e881269	0.26576546
38	0x3ea420f1	0.32056382
39	0x3e312156	0.17297873
40	0xbe637fb5	-0.22216685
41	0x3eb506f7	0.35356876
42	0xbc6f9a00	-0.014624119
43	0x3e66a1e2	0.22522691
44	0x3d81dd18	0.063409984
45	0xbd60e860	-0.05490911
46	0x3cbf32b0	0.0233396
47	0x3e6136a2	0.21993497
48	0xbd980518	-0.074228466
49	0x3e61acc6	0.22038564
50	0xbd9f57b4	-0.077804
51	0xbe22db44	-0.15903956
52	0x3de9419c	0.11389467
53	0xbea4149c	-0.32046974
54	0xbe2a0f0c	-0.16607302
55	0xbe867a26	-0.26265067
56	0xbe85522c	-0.26039255
57	0x3d163338	0.03666994
58	0xbdebd578	-0.11515325
59	0xbc0660e0	-0.008201808
60	0x3e9efdb3	0.31052932
61	0xbe57dd92	-0.21080616
62	0x3e00d1d2	0.1258004
63	0x3eb198d7	0.3468692
64	0x3d971a6c	0.073780864
65	0x3e92eead	0.2869772
66	0xbe48471b	-0.19558375
67	0x3e8d3e27	0.2758648
68	0xbd0b9ee8	-0.03408709
69	0xbea15bdf	-0.31515405
70	0xbea2892b	-0.31745276
71	0x3e774ba2	0.24149945
72	0xbdd77e4c	-0.10522136
73	0x3d8cd98c	0.06877431
74	0x3d7ce0c0	0.061737776
75	0x3eae7199	0.34071043
76	0x3e9e3eb9	0.3090723
77	0xbb98ab80	-0.0046591163
78	0x3e1fcc86	0.15605363
79	0xbe9a8384	-0.30178463
80	0x3e7446a6	0.23855075
81	0xbdeadbec	-0.11467728
82	0xbeb8f104	-0.3612138
83	0x3eb3112f	0.34974048
84	0xbeb70620	-0.3574686
85	0xbe24b5d6	-0.1608499
86	0x3e8ecd27	0.27890894
87	0x3e485512	0.19563702
88	0x3e516032	0.20446852
89	0x3dd894dc	0.10575268
90	0x3ea34edb	0.318961
91	0xbe4c74fe	-0.19966504
92	0x3e10e5c6	0.14150152
93	0x3e5ae30e	0.21375677
94	0xbe8e16c9	-0.2775176
95	0x3e8423eb	0.25808653
96	0x3ebd0b6b	0.36922774
97	0xbd8cc3c4	-0.06873277
98	0x3e9c5981	0.30537036
99	0xbdebf324	-0.11520985
100	0xbe48b551	-0.19600417
101	0xbc68e960	-0.014215797
102	0x3d8a1228	0.06741744
103	0xbc922210	-0.017838508
104	0xbe4a2b9f	-0.19743203
105	0x3d9be7e4	0.07612589
106	0x3e13f712	0.14449719
107	0x3e12b63e	0.14327332
108	0xbe29a3e5	-0.16566427
109	0xbebe3e9d	-0.37157145
110	0xbebee3e5	-0.37283245
111	0x3e6867fa	0.22695914
112	0x3e2f39a2	0.17111829
113	0x3e09cf6e	0.13458034
114	0xbd8dcf64	-0.06924322
115	0x3e6ba006	0.23010263
116	0xbe83878c	-0.25689352
117	0xbdbc21a8	-0.09186107
118	0xbc86d810	-0.016460449
119	0x3d2f8bd8	0.042857975
120	0x3eb004b1	0.3437858
121	0x3eb3b615	0.35099855
122	0x3e0fa252	0.14026764
123	0xbd8a53fc	-0.067543
124	0xbeb0739a	-0.34463197
125	0xbe2d72f8	-0.16938388
126	0xbe28c0c3	-0.16479783
127	0x3eaea621	0.3411112
128	0x3ba45300	0.005014777
129	0x3e1ed82e	0.15512154
130	0x3d1732b8	0.036913604
131	0xbebe2f87	-0.37145635
132	0xbeae1390	-0.339993
133	0xbd463de8	-0.048398882
134	0xbe902c97	-0.2815902
135	0xbc4f49e0	-0.0126518905
136	0x3e35f9fe	0.17771146
137	0x3e6f82d6	0.23389754
138	0xbe1a7c56	-0.15086493
139	0xbeba72f7	-0.36415836
140	0x3dc9c64c	0.09852275
141	0xbd9e8e80	-0.077420235
142	0x3de19a08	0.11015707
143	0x3e6ec2e6	0.23316535
144	0x3eb3487b	0.35016236
145	0x3ebfcd91	0.37461522
146	0x3e978323	0.29592237
147	0xbe079b5d	-0.1324286
148	0xbe92ad2b	-0.28647742
149	0xbe339e27	-0.17540799
150	0x3ea9180d	0.33026162
151	0xbebfb6fb	-0.3744429
152	0x3e2a4ae6	0.16630134
153	0xbe4148ce	-0.18875429
154	0xbeade9e6	-0.33967513
155	0x3e829361	0.25503066
156	0x3ea3532d	0.31899396
157	0xbe663349	-0.22480501
158	0x3eb15e05	0.34642044
159	0xbe86ba87	-0.26314184
160	0xbe021d20	-0.12706423
161	0x3d25ea20	0.040506482
162	0x3e8df575	0.2772633
163	0xbde423d8	-0.11139649
164	0xbde3bab0	-0.11119592
165	0xbeb7270c	-0.35771978
166	0xbd5bbcc0	-0.053646803
167	0xbe45ecfc	-0.19328684
168	0xbe68c4c8	-0.22731316
169	0x3ea23761	0.31682876
170	0x3dbd7174	0.09250155
171	0xbe2300df	-0.15918301
172	0xbda68464	-0.0813072
173	0x3de89fcc	0.11358604
174	0x3eb1eee1	0.34752563
175	0xbd8515ec	-0.06498322
176	0xbe9f1f98	-0.31078792
177	0xbe5aa9ac	-0.21353787
178	0xbebefea6	-0.37303656
179	0xbe0879d5	-0.13327725
180	0x3eb47711	0.3524709
181	0xbe4fb7bd	-0.20284934
182	0xbe35800f	-0.17724632
183	0xbe84aea0	-0.25914478
184	0x3e37f802	0.17965701
185	0x3d8b3cb8	0.067986906
186	0xbd4890a0	-0.04896605
187	0x3e056c1a	0.13029519
188	0x3d706960	0.058694243
189	0xbe8e8eee	-0.27843422
190	0xbe2f739c	-0.17133945
191	0x3e951987	0.29121038
192	0x3ebb454b	0.36576304
193	0xbdd4b598	-0.10386199
194	0xbdbc7ae4	-0.09203127
195	0x3ea6d4c7	0.3258421
196	0xbd5d1ec8	-0.053984433
197	0xbe888de9	-0.2667077
198	0x3e8dda29	0.27705505
199	0x3da1b3b0	0.07895601
200	0xbe9ce655	-0.3064448
201	0x3ce3c0a0	0.027801812
202	0xbe750b27	-0.23930036
203	0xbc502000	-0.012702942
204	0xbd446000	-0.047943115
205	0x3ea30297	0.31837913
206	0x3e30d1d6	0.17267546
207	0x3e7eaa0a	0.24869552
208	0xbd9eb9cc	-0.07750282
209	0x3eba3afb	0.36373124
210	0x3e46bb86	0.19407472
211	0xbe9a1b04	-0.30098736
212	0x3d26a218	0.04068193
213	0x3e41c3e6	0.18922386
214	0x3ec0c05f	0.37646767
215	0x3d5a9f08	0.05337432
216	0x3ea682d1	0.3252168
217	0x3e916fa1	0.2840548
218	0x3eb72a85	0.35774627
219	0xbbd22480	-0.0064130425
220	0x3de710d0	0.112825036
221	0x3eb47c6d	0.3525118
222	0x3e9b04bb	0.30277047
223	0x3d832fb8	0.06405586
224	0xbe013688	-0.12618458
225	0xbd94d32c	-0.0726684
226	0x3cf1d9b0	0.029522747
227	0x3ccf3b80	0.025296926
228	0x3e8969f3	0.26838645
229	0xbe89a090	-0.26880312
230	0x3e918ab5	0.28426138
231	0x3c23d2e0	0.009999007
232	0xbe90af64	-0.28258812
233	0xbe0a4931	-0.13504483
234	0xbe960545	-0.29300895
235	0x3e1dc3ca	0.15406719
236	0x3e7ec88e	0.24881193
237	0x3e1d419e	0.15357062
238	0xbeb60ddc	-0.3555745
239	0xbe39ed3b	-0.18156902
240	0x3d535858	0.051597923
241	0xbeaead6e	-0.3411669
242	0xbe7c3bfb	-0.24632256
243	0x3eafbf7d	0.3432578
244	0x3cecf880	0.028927088
245	0xbe9ea5c2	-0.30985838
246	0x3e08df4e	0.13366434
247	0x3e25d746	0.16195402
248	0xbe6605b8	-0.22463119
249	0xbe8094cc	-0.25113523
250	0xbe493b48	-0.1965152
251	0x3e7f422a	0.24927583
252	0xbe2a70bd	-0.16644569
253	0xbd8fbe5c	-0.0701873
254	0xbea38fdb	-0.3194569
255	0x3e902eff	0.28160855

encoder.position_enc.pos_table f4 [1, 200, 32]
0	0x00000000	0.0
1	0x3f800000	1.0
2	0x00000000	0.0
3	0x3f800000	1.0
4	0x00000000	0.0
5	0x3f800000	1.0
6	0x00000000	0.0
7	0x3f800000	1.0
8	0x00000000	0.0
9	0x3f800000	1.0
10	0x00000000	0.0
11	0x3f800000	1.0
12	0x00000000	0.0
13	0x3f800000	1.0
14	0x00000000	0.0
15	0x3f800000	1.0
16	0x00000000	0.0
17	0x3f800000	1.0
18	0x00000000	0.0
19	0x3f800000	1.0
20	0x00000000	0.0
21	0x3f800000	1.0
22	0x00000000	0.0
23	0x3f800000	1.0
24	0x00000000	0.0
25	0x3f800000	1.0
26	0x00000000	0.0
27	0x3f800000	1.0
28	0x00000000	0.0
29	0x3f800000	1.0
30	0x00000000	0.0
31	0x3f800000	1.0
32	0x3f576aa4	0.84147096
33	0x3f0a5140	0.5403023
34	0x3f087dba	0.53316844
35	0x3f58940e	0.84600914
36	0x3e9f393e	0.3109836
37	0x3f734e6a	0.95041525
38	0x3e35233a	0.17689219
39	0x3f7bf683	0.9842302
40	0x3dcc7576	0.099833414
41	0x3f7eb898	0.9950042
42	0x3d6636b0	0.056204498
43	0x3f7f9868	0.9984193
44	0x3d01815c	0.031617507
45	0x3f7fdf3c	0.99950004
46	0x3c91ab42	0.017781857
47	0x3f7ff5a3	0.99984187
48	0x3c23d657	0.009999833
49	0x3f7ffcb9	0.99995
50	0x3bb8445c	0.0056233834
51	0x3f7ffef7	0.9999842
52	0x3b4f3e20	0.0031622723
53	0x3f7fffac	0.999995
54	0x3ae91520	0.0017782785
55	0x3f7fffe5	0.9999984
56	0x3a83126d	0.0009999998
57	0x3f7ffff8	0.9999995
58	0x3a136a16	0.0005623413
59	0x3f7ffffd	0.9999998
60	0x39a5cb5f	0.00031622776
61	0x3f7fffff	0.99999994
62	0x393a7753	0.00017782794
63	0x3f800000	1.0
64	0x3f68c7b7	0.9092974
65	0xbed51133	-0.41614684
66	0x3f66f20a	0.9021307
67	0x3edce8b2	0.43146282
68	0x3f17541b	0.5911271
69	0x3f4e7bec	0.8065784
70	0x3eb247f6	0.34820527
71	0x3f6ffaa5	0.9374183
72	0x3e4b6ff9	0.19866933
73	0x3f7ae5a5	0.9800666
74	0x3de5d988	0.112231314
75	0x3f7e61f3	0.9936821
76	0x3d8170c8	0.063203394
77	0x3f7f7cf9	0.9980007
78	0x3d11a55c	0.03555809
79	0x3f7fd68e	0.9993676
80	0x3ca3d43e	0.019998666
81	0x3f7ff2e5	0.9998
82	0x3c38439d	0.011246589
83	0x3f7ffbdb	0.99993676
84	0x3bcf3ddd	0.0063245133
85	0x3f7ffeb0	0.99998
86	0x3b691508	0.0035565514
87	0x3f7fff96	0.9999937
88	0x3b031269	0.0019999987
89	0x3f7fffde	0.999998
90	0x3a936a14	0.0011246824
91	0x3f7ffff5	0.99999934
92	0x3a25cb5f	0.0006324555
93	0x3f7ffffd	0.9999998
94	0x39ba7753	0.00035565588
95	0x3f7fffff	0.99999994
96	0x3e1081c3	0.14112
97	0xbf7d7026	-0.9899925
98	0x3f7e45d7	0.9932532
99	0xbded7fa8	-0.11596614
100	0x3f5009c2	0.8126489
101	0x3f152f57	0.5827536
102	0x3f022f6d	0.50853616
103	0x3f5c6d29	0.86104065
104	0x3e974e6d	0.29552022
105	0x3f7490ef	0.9553365
106	0x3e2beed8	0.1679033
107	0x3f7c5d9e	0.9858035
108	0x3dc1ffc1	0.09472609
109	0x3f7ed94f	0.99550337
110	0x3d5a694d	0.05332308
111	0x3f7fa2c3	0.9985773
112	0x3cf5b920	0.029995501
113	0x3f7fe283	0.99955004
114	0x3c8a31c7	0.016869439
115	0x3f7ff6ad	0.9998577
116	0x3c1b6e11	0.009486691
117	0x3f7ffd0d	0.999955
118	0x3baecfa8	0.005334813
119	0x3f7fff11	0.99998575
120	0x3b449b93	0.0029999956
121	0x3f7fffb5	0.9999955
122	0x3add1f1b	0.0016870232
123	0x3f7fffe8	0.99999857
124	0x3a78b10d	0.0009486832
125	0x3f7ffff8	0.9999995
126	0x3a0bd97e	0.0005334838
127	0x3f7ffffe	0.9999999
128	0xbf41bdcf	-0.7568025
129	0xbf275530	-0.6536436
130	0x3f4749ed	0.77847177
131	0xbf20af9d	-0.62767965
132	0x3f741dde	0.95358074
133	0x3e9a2eb1	0.30113748
134	0x3f271fbc	0.652828
135	0x3f41ebed	0.7575062
136	0x3ec761d7	0.38941833
137	0x3f6bcaa7	0.921061
138	0x3e6465c6	0.22304448
139	0x3f798d09	0.9748083
140	0x3e012e88	0.12615407
141	0x3f7df469	0.99201065
142	0x3d918dc8	0.07107121
143	0x3f7f5a47	0.9974713
144	0x3d23cbdb	0.039989334
145	0x3f7fcb94	0.9992001
146	0x3cb840a2	0.022491757
147	0x3f7fef6c	0.99974704
148	0x3c4f3ccd	0.012648773
149	0x3f7ffac2	0.99992
150	0x3be914a7	0.0071130577
151	0x3f7ffe58	0.9999747
152	0x3b831258	0.0039999895
153	0x3f7fff7a	0.999992
154	0x3b136a0e	0.0022493633
155	0x3f7fffd6	0.9999975
156	0x3aa5cb5c	0.0012649107
157	0x3f7ffff3	0.9999992
158	0x3a3a7752	0.0007113117
159	0x3f7ffffc	0.99999976
160	0xbf757c10	-0.9589243
161	0x3e913c2c	0.2836622
162	0x3ea5dad6	0.3239352
163	0xbf723240	-0.94607925
164	0x3f7ffc7f	0.99994653
165	0xbc2972d4	-0.010342319
166	0x3f46caab	0.77652997
167	0x3f214cf1	0.6300803
168	0x3ef57744	0.47942555
169	0x3f60a940	0.87758255
170	0x3e8e11ee	0.27748054
171	0x3f75f27c	0.96073127
172	0x3e213c1e	0.15745589
173	0x3f7cce81	0.987526
174	0x3db5db21	0.08879686
175	0x3f7efd1e	0.99604976
176	0x3d4cb6f5	0.04997917
177	0x3f7fae19	0.99875027
178	0x3ce64dfe	0.028113361
179	0x3f7fe619	0.99960476
180	0x3c818581	0.01581073
181	0x3f7ff7cf	0.999875
182	0x3c11acbb	0.00889128
183	0x3f7ffd69	0.9999605
184	0x3ba3d6de	0.0049999794
185	0x3f7fff2e	0.9999875
186	0x3b38448c	0.002811703
187	0x3f7fffbe	0.99999607
188	0x3acf3e31	0.0015811381
189	0x3f7fffeb	0.99999875
190	0x3a691526	0.0008891396
191	0x3f7ffff9	0.9999996
192	0xbe8f0f8c	-0.2794155
193	0x3f75cdb8	0.96017027
194	0xbe6be574	-0.23036748
195	0xbf791d53	-0.9731037
196	0x3f72784d	0.94714814
197	0xbea43f6f	-0.32079646
198	0x3f603089	0.8757406
199	0x3ef72f34	0.482782
200	0x3f108c69	0.5646425
201	0x3f534932	0.8253356
202	0x3ea97dfd	0.33103934
203	0x3f7190e2	0.943617
204	0x3e41206f	0.18860029
205	0x3f7b67e3	0.98205394
206	0x3dda19c1	0.106494434
207	0x3f7e8b51	0.9943133
208	0x3d759cd1	0.059964005
209	0x3f7f8a12	0.99820054
210	0x3d0a2cbf	0.03373408
211	0x3f7fdab3	0.99943084
212	0x3c9b6c46	0.018972527
213	0x3f7ff434	0.99982
214	0x3c2ecf04	0.010669474
215	0x3f7ffc45	0.9999431
216	0x3bc49b59	0.005999964
217	0x3f7ffed2	0.999982
218	0x3b5d1f06	0.0033740415
219	0x3f7fffa1	0.99999434
220	0x3af8b105	0.0018973654
221	0x3f7fffe2	0.9999982
222	0x3a8bd97d	0.0010669675
223	0x3f7ffff6	0.9999994
224	0x3f283046	0.6569866
225	0x3f40ffbd	0.75390226
226	0xbf36b66e	-0.71372116
227	0xbf334f60	-0.7004299
228	0x3f4ce86f	0.80042166
229	0xbf1974bb	-0.5994374
230	0x3f728444	0.9473307
231	0x3ea3f8b9	0.32025698
232	0x3f24eb73	0.64421767
233	0x3f43ccb3	0.7648422
234	0x3ec460df	0.38355157
235	0x3f6c6bc5	0.92351943
236	0x3e60d350	0.2195561
237	0x3f79c0ea	0.9755999
238	0x3dfe46ba	0.12415834
239	0x3f7e04e9	0.9922624
240	0x3d8f3e32	0.06994285
241	0x3f7f5f81	0.997551
242	0x3d213160	0.03935373
243	0x3f7fcd3b	0.9992253
244	0x3cb552a6	0.022134136
245	0x3f7feff2	0.999755
246	0x3c4bf12a	0.012447635
247	0x3f7ffaec	0.9999225
248	0x3be55fc7	0.006999943
249	0x3f7ffe65	0.9999755
250	0x3b80fcbe	0.003936379
251	0x3f7fff7e	0.99999225
252	0x3b1111ec	0.0022135926
253	0x3f7fffd7	0.99999756
254	0x3aa32866	0.0012447953
255	0x3f7ffff3	0.9999992

encoder.layer_stack.0.slf_attn.w_qs.weight f4 [128, 32]
0	0xbd92f5cc	-0.07175788
1	0x3e2c5ffa	0.16833487
2	0x3e07a3c2	0.13246062
3	0x3e040206	0.12891397
4	0xbd416540	-0.0472157
5	0x3df91d44	0.12163785
6	0x3e202e10	0.15642571
7	0x3d86c77c	0.065810174
8	0x3c910348	0.01770176
9	0xbda85aec	-0.08220467
10	0xbe17fc3e	-0.14842317
11	0x3dca0184	0.0986357
12	0xbe040fca	-0.12896648
13	0xbd872f4a	-0.066008165
14	0xbd0085f0	-0.031377733
15	0xbdd8ddbe	-0.10589169
16	0x3d080aac	0.033213302
17	0x3d019cfc	0.031643853
18	0x3d3e6c8c	0.046490237
19	0xbd940aff	-0.0722866
20	0x3d9878d8	0.07444924
21	0x39c16800	0.00036889315
22	0xbe238233	-0.15967636
23	0x3db3e9e4	0.087848455
24	0xbd7f7108	-0.062363654
25	0xbe2ba4ce	-0.16762087
26	0x3daadf38	0.08343357
27	0xbd47c5d8	-0.048772663
28	0x3d516cb0	0.051129043
29	0x3d5d63b0	0.054050148
30	0x3d07d9c4	0.03316666
31	0x3cca38c8	0.024685279
32	0xbd57ee58	-0.052717537
33	0x3c276cb0	0.010218784
34	0xbd5fc52c	-0.054631397
35	0x3df99450	0.121864915
36	0xbe0c0cf7	-0.1367682
37	0x3d4f5a9c	0.05062352
38	0x3e18390e	0.14865515
39	0xbc66fa00	-0.014097691
40	0x3e256f6e	0.16155788
41	0x3d1ad6e4	0.037802592
42	0x3db95078	0.09048551
43	0x3e0bf8fa	0.13669196
44	0xbe35bd1c	-0.17747921
45	0xbc80b118	-0.015709445
46	0x3e0575e4	0.13033253
47	0x3d83a0f0	0.06427181
48	0xbe1d8902	-0.15384296
49	0xbe1ee04e	-0.15515253
50	0x3c843cc8	0.016142264
51	0x3c25bbf0	0.010115609
52	0x3de8efdc	0.113738745
53	0xbd581e28	-0.052763134
54	0x3d652bc8	0.055949956
55	0x3e267cc2	0.16258529
56	0x3e1762b0	0.1478374
57	0x3dc7c12c	0.097536415
58	0xbe44a02e	-0.19201729
59	0xbdd39fdd	-0.10333226
60	0x3e3afb20	0.18259859
61	0xbd10269c	-0.03519307
62	0x3e2a7ccc	0.16649169
63	0xbda3969b	-0.0798771
64	0x3e33b936	0.17551121
65	0x3d747dc8	0.059690267
66	0x3de34b2c	0.11098322
67	0xbe0e5520	-0.1389966
68	0x3dee25e8	0.11628324
69	0x3da1b334	0.078955084
70	0x3d6a88f0	0.0572595
71	0x3dd4b15c	0.10385391
72	0xbe20005f	-0.15625142
73	0xbc8c41a8	-0.017121151
74	0xbe44ce65	-0.19219358
75	0xbdb5bf25	-0.088743486
76	0xbd96d95f	-0.07365679
77	0x3db80a40	0.0898633
78	0x3cfd8c40	0.030950665
79	0x3e403232	0.18769148
80	0x3e3a9870	0.18222213
81	0x3c02e9a0	0.007990271
82	0x3cc7bed0	0.024382979
83	0x3e170fc8	0.14752114
84	0x3d91587c	0.07096955
85	0x3e122634	0.14272386
86	0xbe147f59	-0.14501704
87	0x3e303958	0.17209375
88	0x3da40db8	0.08010429
89	0x3d46274c	0.04837732
90	0xbe2421a6	-0.16028461
91	0x3dfbcc94	0.122948796
92	0x3c2b9930	0.010473534
93	0xbe249867	-0.16073762
94	0xbc5f8970	-0.0136436075
95	0xbd029e1c	-0.031889066
96	0x3cdf30e8	0.027245
97	0x3e2d2a06	0.16910562
98	0x3d134f14	0.035964087
99	0x3e442728	0.19155562
100	0xbe3ee736	-0.18642887
101	0x3e3d5b3e	0.18491837
102	0xbdcb0da9	-0.09914715
103	0x3e1f62a2	0.15564969
104	0xbd85f74a	-0.06541307
105	0x3d402444	0.046909586
106	0x3e0f0f60	0.13970709
107	0x3d17f5cc	0.037099645
108	0x3c431140	0.011905968
109	0xbe125810	-0.14291406
110	0xbdd3e57a	-0.103465036
111	0x3e14abf8	0.14518726
112	0xbe092ca6	-0.13395938
113	0xbd8f6322	-0.0700133
114	0xbd8ad8b8	-0.06779617
115	0xbdd59c6c	-0.10430226
116	0x3a8dfc80	0.0010832697
117	0xbe19c368	-0.15015948
118	0x3df76778	0.12080282
119	0xbe236829	-0.15957703
120	0x3cdd2558	0.026995346
121	0xbe0bf776	-0.13668618
122	0xbd218dec	-0.039441988
123	0x3e079ba6	0.13242969
124	0xbd842924	-0.064531595
125	0x3e3a6e08	0.18206036
126	0x3e1edb68	0.15513384
127	0xbdf73a31	-0.12071646
128	0xbdea23b8	-0.11432594
129	0xbb5057c0	-0.0031790584
130	0x3de61164	0.11233786
131	0xbe3c24b2	-0.18373373
132	0x3daa1714	0.08305183
133	0xbe32eb34	-0.17472535
134	0xbe1a6d68	-0.15080798
135	0x3e0b7e60	0.13622427
136	0x3e199160	0.14996862
137	0x3e2116bc	0.15731329
138	0xbd5693d0	-0.05238706
139	0x3e37059c	0.17873234
140	0xbdca35d3	-0.098735474
141	0xbc7805e0	-0.015138119
142	0xbe3c7a39	-0.18405999
143	0x3e27174a	0.16317478
144	0x3d5c8b5c	0.05384384
145	0xbc7a5f60	-0.015281528
146	0x3d5f76cc	0.054556653
147	0x3d409e9c	0.04702626
148	0xbd8f4b00	-0.06996727
149	0x3cbc22a0	0.02296573
150	0x3db4302c	0.087982506
151	0xbe02f2b8	-0.12787902
152	0x3d029414	0.0318795
153	0xbdb963f0	-0.09052265
154	0x3dc97d94	0.09838405
155	0x3daa6c58	0.08321446
156	0x3e324de8	0.17412531
157	0xbe454b79	-0.19267072
158	0xbe0635cc	-0.1310646
159	0x3d90db58	0.070730865
160	0xbdefafa4	-0.11703423
161	0x3e1091d0	0.14118123
162	0x3cf262e8	0.029588178
163	0x3d9ee664	0.07758787
164	0xbcf4e608	-0.029894844
165	0xbd709c5c	-0.058742866
166	0x3de410e4	0.11136034
167	0xbe23dbab	-0.16001765
168	0xbe26b80b	-0.16281144
169	0x3db6f240	0.08932924
170	0x3e14a9e8	0.14517939
171	0x3d631128	0.055436283
172	0xbc7fe2e0	-0.015618056
173	0xbdf67963	-0.120348714
174	0xbdb82016	-0.08990495
175	0x3d102d3c	0.03519939
176	0x3e313b36	0.17307743
177	0xbdee9b00	-0.11650658
178	0xbdaf0420	-0.08545709
179	0x3d31897c	0.043344006
180	0xbb4a7b80	-0.0030896366
181	0x3e17292e	0.14761803
182	0x3cb13eb8	0.021636352
183	0xbdd2a40b	-0.10285195
184	0xbdc8f0bc	-0.098115414
185	0x3cadff18	0.021239802
186	0x3dd18864	0.102310926
187	0xbd72f8cc	-0.059319302
188	0xbc844868	-0.016147807
189	0xbd0b26c0	-0.0339725
190	0x3b3c0300	0.0028688312
191	0xbdc04cca	-0.09389646
192	0xbe3fcfca	-0.18731609
193	0x3e1b8e40	0.15190983
194	0x3d8360e0	0.06414962
195	0x3dcacce4	0.09902361
196	0xbd76f3f0	-0.06029123
197	0x3df3d2b4	0.11905423
198	0x3dc13ab8	0.09435028
199	0x3dfff2e0	0.124974966
200	0xbdcd135e	-0.100134596
201	0x3d6989b8	0.057016104
202	0x3e38281c	0.1798405
203	0xbc8421e0	-0.016129434
204	0xbd089e60	-0.033354163
205	0x3c4d73d0	0.012539819
206	0x3e3a9530	0.18220973
207	0xbd685488	-0.05672124
208	0xbe42f579	-0.19038953
209	0xbe387b73	-0.18015842
210	0xbd8d7ff1	-0.069091685
211	0x3ca86400	0.020555496
212	0xbd6203c4	-0.055179372
213	0xbe371f97	-0.17883144
214	0xbdd786ec	-0.10523781
215	0x3d664ea0	0.056227326
216	0xbe04c170	-0.12964416
217	0xbdf81fcc	-0.1211544
218	0x3e16ac92	0.14714268
219	0x3de795a8	0.113078415
220	0x3bdbe660	0.0067108124
221	0xbe38be66	-0.18041381
222	0xbe007aac	-0.12546796
223	0xbe1d67d4	-0.15371639
224	0xbda45eb8	-0.08025879
225	0x3da3e618	0.08002871
226	0xbe28aa15	-0.16471131
227	0xbdcfac68	-0.10140306
228	0x3e43d53a	0.19124308
229	0xbe1db300	-0.15400314
230	0xbbb24e60	-0.005441472
231	0x3e10dfa2	0.14147809
232	0xbc18e350	-0.009331539
233	0xbd83a82a	-0.06428559
234	0xbdd9821d	-0.1062052
235	0xbe3fb48c	-0.18721217
236	0x3dba1004	0.09085086
237	0x3d98d3c4	0.07462266
238	0x3ccf4888	0.02530314
239	0xbded9bfa	-0.11602016
240	0xbc13bb90	-0.009016886
241	0x3e069982	0.13144496
242	0xbdcb698c	-0.09932241
243	0x3d9c1c90	0.07622635
244	0xbd1593a8	-0.03651777
245	0xbd2205f4	-0.03955646
246	0xbd9c95d7	-0.07645767
247	0xbd817c12	-0.06322493
248	0x3d873d98	0.06603545
249	0x3e37d37a	0.17951766
250	0xbc498690	-0.012300149
251	0x3e375e2c	0.17907017
252	0xbd8ee83d	-0.0697789
253	0xbdb6a055	-0.089173
254	0xbd646754	-0.055762604
255	0xbd1d6660	-0.03842771

encoder.layer_stack.0.slf_attn.w_ks.weight f4 [128, 32]
0	0x3df06490	0.11737931
1	0x3db97438	0.0905537
2	0x3d9609e4	0.07326105
3	0xbe1b5055	-0.15167363
4	0xbcde95b8	-0.027171
5	0x3df98358	0.12183255
6	0x3e2c1800	0.1680603
7	0x3e1f79e2	0.15573838
8	0x3d9960d4	0.074891716
9	0x3e2ad276	0.16681847
10	0x3d94da80	0.07268238
11	0x3b8b2840	0.0042467415
12	0xbe18f390	-0.14936662
13	0xbe2bf4aa	-0.1679255
14	0xbd4bc974	-0.049752668
15	0xbe020331	-0.1269653
16	0xbe2531a4	-0.16132218
17	0x3b5944c0	0.003315255
18	0x3e27d746	0.16390714
19	0xbd94a3e5	-0.07257823
20	0xbd215e54	-0.0393966
21	0xbc1705b0	-0.009217665
22	0x3d9d3af8	0.07677263
23	0x3d81ae44	0.06332067
24	0xbd95fa50	-0.07323134
25	0xbe112e59	-0.14177836
26	0x3e172d04	0.14763266
27	0x3e3f8be2	0.18705705
28	0x3e156ed0	0.14593053
29	0x3e3f2912	0.18668011
30	0xbd90a23e	-0.07062195
31	0xbd11d4c8	-0.035603315
32	0xbd528108	-0.051392585
33	0xbe23bf30	-0.15990901
34	0xbe4639c9	-0.19357981
35	0x3db8dff8	0.09027094
36	0x3d5aeb50	0.053447068
37	0x3d8188b0	0.06324899
38	0xbd8a536e	-0.06754194
39	0xbe013128	-0.12616408
40	0xbe0d6d7c	-0.13811296
41	0xbc3c4080	-0.011489987
42	0xbde03f9a	-0.10949631
43	0x3e0c4b14	0.13700515
44	0x3d503600	0.05083275
45	0xbda82308	-0.08209807
46	0xbd4557bc	-0.048179373
47	0x3bbb2d80	0.005712211
48	0xbe2865e6	-0.16445121
49	0xbdd882b1	-0.105718024
50	0x3e370d6c	0.17876214
51	0x3e151bca	0.14561382
52	0xbdbf5384	-0.09342101
53	0x3e06bc84	0.1315785
54	0xbce12588	-0.027483717
55	0xbd2871b8	-0.041124076
56	0xbdc2b14e	-0.095064744
57	0x3cb19e50	0.021681935
58	0xbe037a08	-0.1283952
59	0x3cac7a28	0.021054342
60	0xbe065138	-0.1311692
61	0xbbb87520	-0.0056291968
62	0xbd2635c4	-0.04057862
63	0xbdc4096e	-0.09572111
64	0x3c3f88d0	0.0116903335
65	0x3e0d8fd2	0.13824394
66	0x3e1c9bba	0.1529378
67	0xbd7c959c	-0.061666116
68	0xbd7fb5fc	-0.062429413
69	0xbceafac0	-0.02868402
70	0xbe1193c1	-0.1421652
71	0xbd8f6818	-0.07002276
72	0x3d95bca4	0.07311371
73	0xbdc23852	-0.094833985
74	0xbd5240c8	-0.05133131
75	0xbcddc3b0	-0.02707085
76	0xbdd2988c	-0.10283002
77	0xbcf66510	-0.030077487
78	0xbb5aae00	-0.0033367872
79	0x3d016ca4	0.03159775
80	0xbd31fd7c	-0.043454632
81	0xbc963130	-0.018334001
82	0xbe1817d4	-0.1485284
83	0xbe1812ef	-0.14850973
84	0xbc00e190	-0.007866278
85	0x3e32e424	0.17469841
86	0xbdb7e8eb	-0.089799725
87	0xbd800502	-0.06250955
88	0xbe308695	-0.17238839
89	0xbe04f24f	-0.12983058
90	0x3d4a112c	0.049332783
91	0x3dffcef4	0.12490645
92	0xbdd8d85b	-0.105881415
93	0x3dd36a34	0.10322991
94	0x3d8edcc4	0.069757015
95	0xbe0c47be	-0.13699242
96	0x3dff678c	0.12470922
97	0x3cfe2f18	0.031028315
98	0x3e0c3c58	0.13694894
99	0x3c6f5c80	0.014609456
100	0x3d82e850	0.06391966
101	0x3e3d5b30	0.18491817
102	0xbe0e8713	-0.13918714
103	0x3d63aff8	0.05558774
104	0xbc9e8b98	-0.019353673
105	0x3de78b7c	0.113059014
106	0xbdaad504	-0.08341411
107	0x3d888b0c	0.06667146
108	0x3e0a2fae	0.13494751
109	0xbe0355a8	-0.12825644
110	0x3e211244	0.15729624
111	0x3d783a70	0.060602605
112	0xbdb263f2	-0.08710469
113	0x3daeed8c	0.08541402
114	0xbd2252c4	-0.039629713
115	0x3dafe37c	0.08588311
116	0xbdb655a5	-0.08903054
117	0xbd205cc8	-0.039150983
118	0xbdb7b625	-0.08970288
119	0xbd48f424	-0.049060956
120	0xbe1fa449	-0.15590014
121	0xbe38d878	-0.18051326
122	0xbd1996b8	-0.037497252
123	0xbe460964	-0.1933952
124	0xbc73bc60	-0.014876455
125	0xbd2d3634	-0.04228802
126	0x3e05c9c8	0.13065255
127	0xbe305723	-0.1722074
128	0xbc972340	-0.018449426
129	0xbdced3b7	-0.10098975
130	0x3ce4eee8	0.02794595
131	0x3c4bed00	0.012446642
132	0xbd97a25b	-0.07404014
133	0x3d3dfdd8	0.046384662
134	0x3d2f74c8	0.04283598
135	0x3e2dd13a	0.16974345
136	0xbd009dd0	-0.0314005
137	0x3d70c0b0	0.05877751
138	0x3c8f8120	0.017517626
139	0xbdee02fc	-0.11621663
140	0xbe11af2c	-0.14226979
141	0xbd8dd3d4	-0.06925169
142	0xbdf22aad	-0.11824546
143	0xbd1b7f54	-0.037963226
144	0xbe073cd4	-0.13206798
145	0xbdd1b635	-0.10239831
146	0x3d8e2a1c	0.069416255
147	0x3d966790	0.07343972
148	0x3d5d73f4	0.05406566
149	0x3e45c0a4	0.19311768
150	0xbd891142	-0.06692745
151	0xbd14165c	-0.036154136
152	0x3c9423f8	0.018083557
153	0xbe405fa6	-0.18786487
154	0xbe33999c	-0.17539066
155	0x3d1478d4	0.036248043
156	0x3da4b5bc	0.080424756
157	0xbe3d8094	-0.1850608
158	0x3c73de30	0.014884517
159	0xbe2b4079	-0.16723813
160	0x3def3524	0.11680058
161	0x3e254edc	0.16143364
162	0x3dfca60c	0.123363584
163	0x3d500df8	0.05079457
164	0x3cc41b98	0.023938939
165	0xbd9c1aef	-0.07622325
166	0xbda219e4	-0.079150945
167	0x3bf78d40	0.00755468
168	0xbdb86acf	-0.09004747
169	0x3d963838	0.073349416
170	0xbcd28f98	-0.025703236
171	0xbdf18a40	-0.11793947
172	0xbe08dab9	-0.13364686
173	0xbe1d6b8b	-0.15373056
174	0xbcf76698	-0.030200288
175	0xbd92743c	-0.07151076
176	0x3e10157e	0.14070699
177	0x3d453ec0	0.048155546
178	0xbe132652	-0.14370087
179	0xbe0a2a66	-0.13492736
180	0xbdf5c4bd	-0.120004155
181	0x3e01136a	0.12605062
182	0xbe277064	-0.16351467
183	0x3da0f02c	0.07858309
184	0x3e35bdfe	0.17748258
185	0xbd61f438	-0.055164546
186	0x3cb30948	0.021855012
187	0xbd975612	-0.073894635
188	0xbe22e5c5	-0.15907963
189	0xbe358c49	-0.17729296
190	0xbde77393	-0.11301341
191	0xbd9996a6	-0.07499437
192	0x3e0bb224	0.13642174
193	0x3b0901c0	0.0020905584
194	0xbd53dddc	-0.051725253
195	0x3e13bd9e	0.14427802
196	0x3e3fc20e	0.1872637
197	0x3e3ce07a	0.18445006
198	0xbcd10870	-0.025516719
199	0x3d38439c	0.044986352
200	0x3e454d68	0.1926781
201	0x3df8b2f8	0.121435106
202	0x3e3f223a	0.186654
203	0x3c4e8f20	0.012607366
204	0x3e0372f8	0.12836826
205	0x3dc6fc74	0.0971612
206	0x3e1ab3ae	0.15107605
207	0x3d974b10	0.07387364
208	0x3d61e830	0.055153072
209	0x3e296276	0.16541466
210	0x3d91ea4c	0.07124767
211	0x3e1ec068	0.15503085
212	0x3dd690a0	0.10476804
213	0xbcde1d00	-0.027113438
214	0xbe395ae1	-0.18101074
215	0x3d9789b4	0.07399312
216	0xbd755d60	-0.059903502
217	0xbd542bd4	-0.05179961
218	0x3dbe5bcc	0.092948526
219	0x3d9b2b14	0.07576576
220	0x3d9c2560	0.07624316
221	0x3dc6a858	0.09700078
222	0xbe00acb8	-0.12565887
223	0xbe09b5ee	-0.13448307
224	0xbd6811cc	-0.056657597
225	0xbdcdb425	-0.100441255
226	0x3e1b0394	0.15138084
227	0xbd5a9834	-0.05336781
228	0xbdf5d8c5	-0.12004236
229	0xbd3b8158	-0.04577765
230	0x3e10911e	0.14117858
231	0x3dc8a0b0	0.09796274
232	0xbd2373c4	-0.039905325
233	0x3e2d4206	0.16919717
234	0x3cc6b960	0.024258316
235	0x3d0ec974	0.03486009
236	0x3e00ae5c	0.12566513
237	0xbc522b60	-0.012827724
238	0xbdccafb0	-0.09994447
239	0xbe19ae3d	-0.15007873
240	0xbe0748a0	-0.13211298
241	0xbe1f5e2c	-0.15563267
242	0x3cc7c608	0.02438642
243	0xbe4083f8	-0.18800342
244	0x3dca93bc	0.09891459
245	0xbe10456b	-0.14088981
246	0xbe3ba280	-0.18323708
247	0xbd0354ac	-0.03206317
248	0x3e27a8e0	0.16373014
249	0xbe197fd0	-0.14990163
250	0x3e0b3428	0.13594115
251	0xbe376f1c	-0.17913479
252	0xbe348b72	-0.17631319
253	0x3e379bae	0.17930481
254	0x3dc66ef0	0.096891284
255	0x3d5fb8dc	0.054619655

encoder.layer_stack.0.slf_attn.w_vs.weight f4 [128, 32]
0	0x3dc2dad0	0.095143914
1	0xbe188193	-0.14893179
2	0x3a980c80	0.0011600405
3	0x3df21a54	0.11821428
4	0x3e027880	0.1274128
5	0xbe1f75ca	-0.15572277
6	0x3da2856c	0.079356045
7	0xbe21d295	-0.15802987
8	0x3d1629a4	0.036660805
9	0xbdc734f1	-0.09726895
10	0xb98ea800	-0.0002720952
11	0xbe42f6fd	-0.19039531
12	0x3e4005d2	0.1875222
13	0x3de123a4	0.10993126
14	0xbe417386	-0.18891725
15	0x3d31fb6c	0.043452665
16	0x3d5fde80	0.054655552
17	0x3cfee848	0.03111662
18	0xbcfc1788	-0.03077294
19	0xbe007d88	-0.12547886
20	0x3d9157d8	0.07096833
21	0xbd0eb540	-0.034840822
22	0xbd5af318	-0.05345449
23	0xbcd1d240	-0.02561295
24	0xbe22771c	-0.15865749
25	0xbdd3528c	-0.10318479
26	0xbc06a460	-0.008217901
27	0x3d9d8890	0.07692063
28	0xbe18e5aa	-0.1493136
29	0xbe33a159	-0.17542018
30	0x3e346bb4	0.1761921
31	0xbe2c274c	-0.16811866
32	0x3e42c044	0.19018656
33	0x3dcf611c	0.10125944
34	0x3de7b614	0.113140255
35	0x3bc2aec0	0.005941242
36	0xbda19861	-0.07890392
37	0xbd529780	-0.051414013
38	0x3d12dbd8	0.03585419
39	0x3e166fbc	0.14691061
40	0xbc0c7380	-0.008572459
41	0xbcaf7a88	-0.021420732
42	0xbd8d6c37	-0.06905406
43	0xbe3248c2	-0.17410567
44	0xbdf605ea	-0.12012847
45	0x3da9ffb4	0.083007246
46	0xbc1e02d0	-0.009644225
47	0x3deb595c	0.11491653
48	0xbd28d5a4	-0.04121937
49	0x3dc0e20c	0.09418115
50	0x3cafd3e8	0.02146335
51	0x3e329cae	0.17442581
52	0x3e3c2756	0.1837438
53	0x3e12d07e	0.14337346
54	0x3ce3acb8	0.02779232
55	0x3e43d8d0	0.19125676
56	0xbd8e796c	-0.06956753
57	0x3d058ac8	0.032603055
58	0xbdada2ba	-0.08478303
59	0x3e15cea6	0.14629611
60	0x3e0643c2	0.13111785
61	0x3e33d65e	0.17562243
62	0xbca75e90	-0.020430833
63	0xbdd2e330	-0.10297239
64	0x3d6ed830	0.05831164
65	0xbd766300	-0.060153008
66	0xbe3a3390	-0.18183732
67	0x3db88870	0.090103984
68	0xbdc0be9c	-0.09411356
69	0xbe45389e	-0.19259879
70	0x3dc18cb8	0.09450668
71	0x3e453e6c	0.19262093
72	0x3c8db370	0.017297477
73	0xbd102afc	-0.035197243
74	0x3da8b5b8	0.08237785
75	0x3c307fc0	0.0107726455
76	0x3d970e88	0.073758185
77	0xbcb6c180	-0.022309065
78	0xbe124e65	-0.14287718
79	0x3da8a110	0.08233845
80	0xbcbe2f48	-0.023215905
81	0x3ddd1f60	0.10797
82	0xbd79d15c	-0.060990676
83	0x3db2fa30	0.08739126
84	0xbcecd2d0	-0.028909117
85	0x3d5fd9cc	0.054651067
86	0x3db227c8	0.08698994
87	0xbe3bbb20	-0.18333101
88	0x3cb491c0	0.022042155
89	0xbbcc1720	-0.0062283427
90	0x3e294028	0.1652838
91	0x3d462ac8	0.048380643
92	0x3c2dbf80	0.010604739
93	0xbe00d940	-0.12582874
94	0x3db1d3a8	0.08682948
95	0xbddc3e47	-0.10754066
96	0xbd104934	-0.035226062
97	0xbb863380	-0.0040954947
98	0x3dadbb98	0.08483046
99	0xbce3e9e0	-0.027821481
100	0x3d3da2bc	0.046297774
101	0x3c6ff7d0	0.014646485
102	0xbe455d68	-0.19273913
103	0xbda1af85	-0.07894806
104	0xbd8401f6	-0.064456865
105	0xbe3158db	-0.17319052
106	0x3d81daa4	0.063405305
107	0x3d230908	0.039803535
108	0x3daf6170	0.085635066
109	0x3e402958	0.18765771
110	0xbe3a73af	-0.18208192
111	0x3e154afc	0.14579386
112	0x3e0bde24	0.13658959
113	0x3dc21318	0.09476298
114	0x3d0ba684	0.03409435
115	0xbe1f852c	-0.15578145
116	0x3cacfc30	0.021116346
117	0xbb88cbc0	-0.0041746795
118	0x3d215ee8	0.03939715
119	0xbd87da0a	-0.066333845
120	0xbdc35875	-0.09538356
121	0xbda5fba1	-0.08104635
122	0x3e024c72	0.12724474
123	0xbd84e54a	-0.06489046
124	0x3d603908	0.05474189
125	0xbd1780f4	-0.036988214
126	0xbe108a68	-0.14115298
127	0xbe2dcaa8	-0.16971838
128	0xbcd230a0	-0.025657952
129	0x3ca47f98	0.020080373
130	0xbd2d3e48	-0.042295724
131	0xbcda2cd0	-0.026632696
132	0xbe27d621	-0.16390277
133	0xbd28a824	-0.041175976
134	0x3d2eae5c	0.04264675
135	0x3e43c374	0.19117528
136	0x3e10915a	0.14117947
137	0x3d98b138	0.07455677
138	0x3dea01a0	0.11426091
139	0xbc83e380	-0.016099691
140	0x3dc29534	0.095011145
141	0x3db4768c	0.088116735
142	0xbd232c54	-0.039837196
143	0x3dbe74e4	0.09299639
144	0x3e36d36a	0.17854086
145	0x3dc70818	0.09718341
146	0xbe2b0d60	-0.16704321
147	0x3c247460	0.010037512
148	0x3c672ef0	0.014110312
149	0x3d98f244	0.074680835
150	0x3d171cc8	0.036892682
151	0xbd22b85c	-0.0397266
152	0xbe13dae1	-0.14438964
153	0xbdcd6627	-0.1002925
154	0xbd347614	-0.04405792
155	0x3daba90c	0.083818525
156	0x3c6d1a60	0.01447162
157	0x3d590834	0.05298634
158	0xbc365a70	-0.01112996
159	0xbd80779c	-0.06272814
160	0xbd402868	-0.046913534
161	0x3d01c244	0.031679407
162	0x3dbe5df0	0.09295261
163	0xbdf85d7d	-0.121272065
164	0xbdda380f	-0.106552236
165	0x3d24282c	0.040077373
166	0x3e32c2f4	0.17457181
167	0x3da97b08	0.082754195
168	0xbdc27efe	-0.09496878
169	0x3e45dc7c	0.1932239
170	0xbda138b1	-0.07872141
171	0xbe3a1c62	-0.1817489
172	0x3d7d04a8	0.06177202
173	0xbd725144	-0.059159532
174	0x3d62ccd8	0.055371135
175	0xbdaaa266	-0.08331756
176	0xbe26a721	-0.16274692
177	0xbd9fc6cf	-0.078015916
178	0x3e41a0a8	0.18908942
179	0x3b210980	0.0024572313
180	0xbd9e0c23	-0.07717159
181	0x3d1f657c	0.038915142
182	0x3e03edc0	0.12883663
183	0xbe0bc606	-0.13649759
184	0xbcc8c700	-0.024508953
185	0x3dcf1090	0.10110581
186	0x3b7b9040	0.003838554
187	0xbd659a80	-0.056055546
188	0x3d1fb1f0	0.038988054
189	0x3dcc0940	0.09962702
190	0xbe1581cc	-0.14600295
191	0x3d9c8368	0.07642251
192	0xbd85c442	-0.06531574
193	0x3cdd2278	0.026993975
194	0xbdc8d83d	-0.09806869
195	0xbdc7c744	-0.09754804
196	0x3db66e70	0.08907783
197	0x3dfdc15c	0.12390396
198	0x3dc341d4	0.0953404
199	0x3d74d338	0.059771746
200	0x3cd2bcd0	0.025724798
201	0x3cb78d50	0.02240625
202	0x3c36a8f0	0.011148676
203	0x3d86527c	0.065587014
204	0x3d97d014	0.07412735
205	0xbe029e59	-0.12755717
206	0xbc326460	-0.010888189
207	0xbdb15b24	-0.08659962
208	0x3e2f1c90	0.1710074
209	0xbe045722	-0.12923864
210	0xbe17e448	-0.14833176
211	0x3d2653fc	0.040607437
212	0x3bdf0920	0.0068065077
213	0xbdcd0cf1	-0.10012234
214	0xbe27d304	-0.1638909
215	0xbbe44b20	-0.0069669634
216	0x3e1d532a	0.15363756
217	0x3e32e9e2	0.17472032
218	0xbdf70679	-0.120617814
219	0x3bb4c360	0.0055164546
220	0x3b0a85c0	0.002113685
221	0xbc633790	-0.013868228
222	0xbd8394f8	-0.06424898
223	0xbd1e76a0	-0.03868735
224	0xbe16a4e2	-0.14711335
225	0xbe43e560	-0.19130468
226	0x3d7b9398	0.061420053
227	0xbd7a1d9c	-0.061063394
228	0x3e0429d0	0.12906575
229	0xbdbcce09	-0.092189856
230	0xbabcbf80	-0.0014400333
231	0xbd449cd4	-0.048001125
232	0xbd154cec	-0.03645031
233	0x3e2e05a0	0.16994333
234	0xbd21db1c	-0.0395156
235	0x3e0fcf9a	0.14044037
236	0x3e3cc78e	0.18435499
237	0xbca3f958	-0.020016357
238	0x3e2d2646	0.16909131
239	0xbe3aba45	-0.18235119
240	0x3e1130cc	0.14178771
241	0x3d55b6f8	0.052176446
242	0xbd3d5238	-0.046220988
243	0x3dea7eec	0.1144999
244	0xbb234800	-0.0024914742
245	0xbdff4666	-0.12464599
246	0x3e24104e	0.16021845
247	0xbdbc2db1	-0.091884024
248	0x3e0fec5c	0.14055008
249	0xbdef08f8	-0.116716325
250	0xbcb9ad78	-0.022665724
251	0x3d8d2ea8	0.068936646
252	0xbe20f35f	-0.15717839
253	0x3e293680	0.16524696
254	0xbdd83adf	-0.10558104
255	0xbc22a320	-0.009926587

encoder.layer_stack.0.slf_attn.fc.weight f4 [32, 128]
0	0x3cd017b8	0.025401935
1	0xbb50e040	-0.0031871945
2	0x3dde4fa8	0.10855037
3	0xbd3f5804	-0.046714798
4	0xbdd44b3e	-0.10365914
5	0xbd3f3470	-0.046680868
6	0xbcae32f8	-0.021264538
7	0x3e356bd0	0.17716908
8	0xbdd8a22f	-0.10577809
9	0x3e193bca	0.14964214
10	0xbe231fc7	-0.15930091
11	0xbc0cfa50	-0.008604601
12	0xbb973420	-0.004614368
13	0xbc6d82a0	-0.014496475
14	0x3e37bb9a	0.17942658
15	0xbdb4d6fb	-0.08830067
16	0xbdad37fe	-0.08457945
17	0x3d82c784	0.06385711
18	0xbe209c02	-0.15684512
19	0xbbab3f40	-0.005226046
20	0x3d06da98	0.03292331
21	0x3d8150ac	0.06314215
22	0xbc6613e0	-0.0140428245
23	0x3df88b90	0.121359944
24	0x3b363ac0	0.0027806014
25	0xbe2b0319	-0.167004
26	0x3db3d0b4	0.08780041
27	0x3d5abe94	0.053404406
28	0xba9d8880	-0.001201883
29	0x3e395872	0.18100145
30	0x3e09386a	0.13400427
31	0x3dc6299c	0.09675905
32	0x3e084db0	0.13310885
33	0x3e452086	0.19250688
34	0xbe3f93c5	-0.18708713
35	0x3d905878	0.07048124
36	0x3d85237c	0.06500909
37	0xbd9ca9ee	-0.07649599
38	0x3e33a470	0.17543197
39	0x3cddc6d8	0.027072355
40	0xbc2173d0	-0.009854272
41	0xbde37bef	-0.11107623
42	0xbd364a4c	-0.04450445
43	0x3da05b90	0.07829964
44	0x3dcc9368	0.09989053
45	0x3df58110	0.11987507
46	0xbdeabac7	-0.11461406
47	0x3de486d8	0.11158532
48	0x3e0d7ef2	0.13817957
49	0xbe39cdc2	-0.18144897
50	0x3e2c0250	0.16797757
51	0xbdc3ca6c	-0.09560093
52	0xbc1e0d90	-0.009646788
53	0x3ce86c68	0.028372005
54	0x3e1aae2e	0.15105507
55	0xbdb6c460	-0.08924174
56	0xbe16ce4e	-0.14727136
57	0x3db72984	0.08943465
58	0x3e19acbc	0.15007299
59	0xbe034790	-0.12820268
60	0x3e26bc10	0.16282678
61	0xbd890efa	-0.0669231
62	0x3dde09a0	0.108416796
63	0x3d141200	0.03614998
64	0x3d0d0db0	0.03443688
65	0x3daeddc8	0.08538395
66	0xbce20b08	-0.02759315
67	0xbabc3800	-0.0014359951
68	0xbcf8da50	-0.030377537
69	0xbd960d7f	-0.07326793
70	0xbd644490	-0.05572945
71	0xbd538ab0	-0.051645935
72	0xbe1e2bf6	-0.15446457
73	0x3e09f20c	0.1347124
74	0x3d696f28	0.056990772
75	0x3d6600c8	0.05615309
76	0x3c76ff00	0.015075445
77	0xbd594fa0	-0.053054452
78	0xbdeab64d	-0.11460552
79	0x3e3d9eb8	0.18517578
80	0x3d8adad8	0.067800224
81	0xbca2b100	-0.01985979
82	0xbc1809a0	-0.0092796385
83	0xbe353736	-0.17696843
84	0x3de8d358	0.113684356
85	0xbe2f1056	-0.17096075
86	0x3c1dc3f0	0.009629235
87	0x3e1decb6	0.1542233
88	0xbe163e8e	-0.146723
89	0xbd4847d8	-0.04889664
90	0xbe026f8d	-0.12737866
91	0xbde8d7c8	-0.11369282
92	0x3d07f710	0.0331946
93	0x3e18c360	0.1491828
94	0xbe07cbc0	-0.13261318
95	0x3d8d0878	0.06886381
96	0x3d419f44	0.04727103
97	0xbe1240c6	-0.14282522
98	0xbd5e659c	-0.05429612
99	0xbe1b49a7	-0.15164815
100	0x3e01ce78	0.12676418
101	0x3e1371a4	0.14398819
102	0xbe0aeb88	-0.1356641
103	0xbdca938d	-0.09891424
104	0x3e0f916e	0.14020321
105	0xbe2d24e6	-0.16908607
106	0x3dbff848	0.09373528
107	0x3e31c000	0.17358398
108	0xbcaff1a0	-0.02147752
109	0x3c28aba0	0.010294825
110	0xbbc4f980	-0.006011188
111	0x3dc520c4	0.0962539
112	0xbca927c8	-0.020648852
113	0x3e3a16c8	0.18172753
114	0xbd5f6c08	-0.054546386
115	0x3e38b066	0.1803604
116	0x3e4518f4	0.192478
117	0xbceb3860	-0.028713405
118	0x3e429040	0.1900034
119	0xbd8f29dc	-0.06990406
120	0x3d03ee3c	0.03220962
121	0xbd065934	-0.032799914
122	0xbe29a0b2	-0.16565207
123	0xbe084c4e	-0.13310358
124	0x3d856f44	0.06515363
125	0x3dde741c	0.1086199
126	0xbddfad37	-0.1092171
127	0x3e016370	0.12635589
128	0x3d8dfd18	0.069330394
129	0x3e33f4da	0.17573872
130	0x3e2b8a9c	0.16752094
131	0x3dc4e928	0.096147835
132	0xbde35c2a	-0.11101563
133	0x3e16ba5e	0.14719531
134	0xbcd06128	-0.025436953
135	0x3deb9918	0.1150381
136	0x3c5bc890	0.013414517
137	0xbdda4e0d	-0.10659418
138	0x3e12e798	0.14346159
139	0xbb8807e0	-0.0041513294
140	0xbe089708	-0.13338864
141	0x3ceb0de0	0.02869314
142	0x3e0e9936	0.13925633
143	0x3e3d6e6c	0.18499154
144	0xbd8760be	-0.06610249
145	0x3cfd2578	0.030901656
146	0xbd41ec50	-0.047344506
147	0x3e2f29b8	0.17105758
148	0xbde6acb6	-0.11263411
149	0x3db9254c	0.09040317
150	0x3d8cfa20	0.06883645
151	0xbd6b21e8	-0.057405382
152	0x3dacf5a4	0.0844529
153	0x3e2a1a38	0.16611564
154	0xbdbd1da6	-0.092341706
155	0x3e020650	0.1269772
156	0xbdb4b894	-0.08824268
157	0xbd85368a	-0.06504543
158	0xbdef2bc1	-0.11678267
159	0x3c1c9f70	0.009559497
160	0x3db37164	0.08761862
161	0xbca40098	-0.020019814
162	0xbe3ccb1d	-0.18436857
163	0x3e036a02	0.12833408
164	0x3d8858cc	0.06657562
165	0xbe16105a	-0.14654675
166	0x3d74bc58	0.05974993
167	0xbce546e0	-0.027987897
168	0x3dd067a8	0.10176021
169	0xbd9f1c63	-0.07769086
170	0x3c9d3650	0.019190937
171	0x3dd16944	0.10225156
172	0xbda8d80b	-0.08244332
173	0xbd596e40	-0.05308366
174	0xbe38cac6	-0.18046102
175	0x3e36b190	0.17841172
176	0xbdc1fa61	-0.09471584
177	0xbd190ae8	-0.037363917
178	0x3c203dc0	0.009780347
179	0xbdd5542d	-0.10416446
180	0xbd75e734	-0.060034946
181	0xbe10f2ac	-0.14155072
182	0xbe15d6ff	-0.14632796
183	0xbe3fa13b	-0.18713848
184	0xbd0e4e2c	-0.03474252
185	0x3e41d1b4	0.18927652
186	0x3dc318e0	0.09526229
187	0xbdddcd7f	-0.10830211
188	0x3d9d09fc	0.0766792
189	0xbd7359a4	-0.05941166
190	0xbc9b7498	-0.018976495
191	0xbe182028	-0.14856017
192	0xbe1aaa79	-0.15104093
193	0xbe1156ad	-0.1419322
194	0x3d08f5a8	0.0334374
195	0x3db357ac	0.087569565
196	0xbe1b2996	-0.15152583
197	0x3e2c31ba	0.16815844
198	0x3c3512e0	0.011051863
199	0x3df22174	0.11822787
200	0x3cbf9f70	0.023391455
201	0x3db13568	0.086527646
202	0x3e3fc266	0.18726501
203	0x3dbc20e0	0.09185958
204	0xbe06bb6e	-0.13157436
205	0xbe30c683	-0.17263226
206	0xbbfa5260	-0.0076392144
207	0xbe10178a	-0.1407148
208	0x3c833278	0.016015276
209	0x3dc243b8	0.094855726
210	0x3e3e8742	0.18606284
211	0x3df51fd8	0.11968964
212	0xbe0a2d36	-0.13493809
213	0xbda486e4	-0.08033541
214	0xbe4205bb	-0.18947499
215	0xbd52a2ac	-0.051424667
216	0xbcd564d0	-0.026049048
217	0x3d111784	0.035422817
218	0xb837b000	-4.3794513e-05
219	0x3e0ff9e4	0.1406017
220	0xbdaf5885	-0.08561806
221	0x3b11f9c0	0.0022274107
222	0x3b2456c0	0.002507612
223	0xbdaa30a5	-0.083100595
224	0xbd1f0b9c	-0.03882943
225	0x3e043910	0.12912393
226	0x3e44de7c	0.19225496
227	0x3d933734	0.071882635
228	0x3d954cb0	0.072900176
229	0x3dbcedc4	0.09225038
230	0x3e401092	0.18756321
231	0x3df36f5c	0.118864745
232	0xbcdf6160	-0.027268112
233	0xbdcd642b	-0.10028871
234	0x3e00b0ca	0.1256744
235	0x3dcfad30	0.10140455
236	0xbde694ea	-0.11258872
237	0xbd0befa0	-0.03416407
238	0x3e3c70ec	0.18402451
239	0x3c382210	0.01123859
240	0xbc078e70	-0.008273706
241	0xbd7697f0	-0.060203493
242	0xbcd5eb50	-0.026113182
243	0xbe3b0c4e	-0.18266413
244	0xbd8f5572	-0.06998719
245	0x3e120a90	0.14261842
246	0xbe34445a	-0.17604199
247	0xbe18911d	-0.14899106
248	0xbe3e9d81	-0.1861477
249	0x3cfd7e10	0.0309439
250	0x3dd9b618	0.10630435
251	0x3e1a291c	0.15054744
252	0xbccc4d68	-0.024939254
253	0x3cc26e18	0.023734137
254	0xbd860b7e	-0.06545161
255	0x3d3db2ec	0.04631321

encoder.layer_stack.0.slf_attn.layer_norm.weight f4 [32]
0	0x3f800000	1.0
1	0x3f800000	1.0
2	0x3f800000	1.0
3	0x3f800000	1.0
4	0x3f800000	1.0
5	0x3f800000	1.0
6	0x3f800000	1.0
7	0x3f800000	1.0
8	0x3f800000	1.0
9	0x3f800000	1.0
10	0x3f800000	1.0
11	0x3f800000	1.0
12	0x3f800000	1.0
13	0x3f800000	1.0
14	0x3f800000	1.0
15	0x3f800000	1.0
16	0x3f800000	1.0
17	0x3f800000	1.0
18	0x3f800000	1.0
19	0x3f800000	1.0
20	0x3f800000	1.0
21	0x3f800000	1.0
22	0x3f800000	1.0
23	0x3f800000	1.0
24	0x3f800000	1.0
25	0x3f800000	1.0
26	0x3f800000	1.0
27	0x3f800000	1.0
28	0x3f800000	1.0
29	0x3f800000	1.0
30	0x3f800000	1.0
31	0x3f800000	1.0

encoder.layer_stack.0.slf_attn.layer_norm.bias f4 [32]
0	0x00000000	0.0
1	0x00000000	0.0
2	0x00000000	0.0
3	0x00000000	0.0
4	0x00000000	0.0
5	0x00000000	0.0
6	0x00000000	0.0
7	0x00000000	0.0
8	0x00000000	0.0
9	0x00000000	0.0
10	0x00000000	0.0
11	0x00000000	0.0
12	0x00000000	0.0
13	0x00000000	0.0
14	0x00000000	0.0
15	0x00000000	0.0
16	0x00000000	0.0
17	0x00000000	0.0
18	0x00000000	0.0
19	0x00000000	0.0
20	0x00000000	0.0
21	0x00000000	0.0
22	0x00000000	0.0
23	0x00000000	0.0
24	0x00000000	0.0
25	0x00000000	0.0
26	0x00000000	0.0
27	0x00000000	0.0
28	0x00000000	0.0
29	0x00000000	0.0
30	0x00000000	0.0
31	0x00000000	0.0

encoder.layer_stack.0.pos_ffn.w_1.weight f4 [128, 32]
0	0xbe127f76	-0.14306435
1	0x3d258de4	0.04041852
2	0x3cef3468	0.029199794
3	0x3d13a20c	0.03604321
4	0xbda431b5	-0.08017293
5	0xbd956e73	-0.07296457
6	0xbdb09744	-0.08622602
7	0xbcaa4960	-0.020786941
8	0xbe003669	-0.12520756
9	0x3de34c94	0.110985905
10	0xbb7952c0	-0.0038043708
11	0x3cd1de20	0.025618613
12	0xbe153534	-0.14571077
13	0x3d4c39d8	0.04985985
14	0xbd26b07c	-0.040695652
15	0xbe07353a	-0.13203898
16	0x3e344a5c	0.17606491
17	0x3e23cd28	0.1599623
18	0xbe395828	-0.18100035
19	0x3ca025d8	0.019549295
20	0xbd9ea320	-0.077459574
21	0x3d9cf880	0.07664585
22	0x3d308ea4	0.043104783
23	0xbd0d3a28	-0.03447929
24	0x3db3d6b0	0.08781183
25	0x3e3f18fa	0.18661872
26	0xbe21c9bc	-0.15799612
27	0x3e39bffa	0.1813964
28	0xbe38f00c	-0.1806032
29	0xbe224605	-0.15847023
30	0xbcee0988	-0.02905728
31	0xbe05ff6d	-0.13085718
32	0xbe013312	-0.12617138
33	0x3d365784	0.044517055
34	0xbd020360	-0.0317415
35	0x3db8dae0	0.09026122
36	0xbd7c5ed4	-0.061613873
37	0x3d359924	0.0443355
38	0x3e04bfae	0.12963745
39	0xbd1b1dd4	-0.037870243
40	0xbd124930	-0.03571433
41	0x3db808f0	0.0898608
42	0x3c308d80	0.010775924
43	0x3c978d18	0.018499896
44	0x3cbf7410	0.023370773
45	0xbdb7a859	-0.08967657
46	0xbe02e30a	-0.12781921
47	0x3e078104	0.1323281
48	0xbc285300	-0.010273695
49	0x3d6cb950	0.057793915
50	0x3e12167e	0.14266393
51	0x3e047e68	0.12938845
52	0x3ced4308	0.028962627
53	0x3e115efc	0.1419639
54	0x3d03599c	0.03206788
55	0x3e04b64e	0.12960169
56	0x3db9a664	0.090649396
57	0x3c7583c0	0.014985025
58	0xbd96ff79	-0.07372946
59	0xbe127adc	-0.1430468
60	0x3dd5b904	0.104356796
61	0xbd664d38	-0.056225985
62	0x3e2f5396	0.17121729
63	0xbd219944	-0.039452806
64	0x3b935640	0.004496366
65	0x3d4caa64	0.049967185
66	0x3e1e1d16	0.15440783
67	0xbdf5e122	-0.12005831
68	0x3e191ca8	0.14952338
69	0x3d6f60f8	0.058442086
70	0xbdc5527a	-0.09634872
71	0xbda85e02	-0.082210556
72	0xbd49d660	-0.04927671
73	0xbe1fe6a4	-0.15615326
74	0xbd682f94	-0.056686
75	0x3db4b640	0.08823824
76	0x3d0f4a44	0.034982935
77	0xbe34c080	-0.17651558
78	0xbe258f4e	-0.16167948
79	0xba5c9300	-0.00084142387
80	0xbe0ab442	-0.13545325
81	0x3df88970	0.12135589
82	0xbd864f84	-0.06558135
83	0xbb29f6c0	-0.0025934428
84	0xbe333d08	-0.1750375
85	0x3e19ba7a	0.15012541
86	0xbe04375c	-0.12911743
87	0xbe301188	-0.17194188
88	0xbda4bc37	-0.08043712
89	0xbe2a4bf0	-0.1663053
90	0xbe15a190	-0.14612412
91	0x3df9f078	0.12204069
92	0x3e0027c4	0.1251517
93	0x3e3b76dc	0.1830706
94	0x3df3f0e4	0.119111806
95	0xbc8b8f88	-0.017036214
96	0xbd465c00	-0.04842758
97	0x3d08a038	0.03335592
98	0x3da9eab0	0.08296716
99	0x3d2a1624	0.04152502
100	0x3d692308	0.056918174
101	0x3e431688	0.19051564
102	0xbd3f3038	-0.046676844
103	0xbe453d50	-0.1926167
104	0x3d320418	0.043460935
105	0x3e115a74	0.14194661
106	0xbdbe301f	-0.09286522
107	0x3e29b7f2	0.16574076
108	0xbca27b10	-0.019834071
109	0xbe23990a	-0.15976349
110	0x3e13ec70	0.14445662
111	0xbd651f20	-0.055937886
112	0xbd956ef5	-0.07296554
113	0x3dadc480	0.08484745
114	0xbda691d4	-0.08133283
115	0xbd041318	-0.03224477
116	0x3d45b648	0.04826954
117	0x3da13500	0.07871437
118	0x3d92177c	0.071333855
119	0xbe02ee1c	-0.12786144
120	0xbe3c34e0	-0.18379545
121	0x3e44d6a0	0.19222498
122	0xbb0a6040	-0.0021114498
123	0xbd9977bd	-0.074935414
124	0x3e4614ee	0.19343922
125	0xba6e4100	-0.0009088665
126	0xbd576348	-0.052584916
127	0xbe44faf1	-0.19236352
128	0x3d217264	0.039415732
129	0xbe039eed	-0.12853594
130	0x3e246a12	0.16056088
131	0x3aa25380	0.0012384504
132	0x3d9ff2a4	0.07809952
133	0xbe0e4f1e	-0.13897368
134	0x3d16d1ec	0.03682129
135	0x3d834a38	0.064106405
136	0xbdc731ce	-0.09726296
137	0xbc64e460	-0.0139704645
138	0xbdd6ee16	-0.1049463
139	0xbe295792	-0.16537312
140	0xbd43616c	-0.04770033
141	0x3d1bbc4c	0.03802137
142	0x3e1433ca	0.14472881
143	0x3d1ea008	0.038726836
144	0xbd67c02c	-0.056579754
145	0xbe168c28	-0.14701903
146	0xbdc77497	-0.097390346
147	0xbd87ae68	-0.06625062
148	0x3dc2d35c	0.0951297
149	0x3e39a494	0.18129188
150	0x3e2268a2	0.15860227
151	0x3d2e85dc	0.042608127
152	0xbd92c816	-0.071670696
153	0x3d84bea4	0.06481674
154	0xbc9f09b0	-0.019413799
155	0xbe2b3210	-0.16718316
156	0xbd908b3f	-0.07057809
157	0xbd04ed18	-0.032452673
158	0x3dcad5d4	0.09904066
159	0xbe41f796	-0.18942103
160	0xbd567940	-0.052361727
161	0xbe3ff129	-0.18744339
162	0xbe0c1729	-0.1368071
163	0xbc1e5480	-0.009663701
164	0xbe3c4b82	-0.18388179
165	0xbd426528	-0.04745975
166	0x3e25d1f2	0.16193369
167	0xbcf1e168	-0.029526427
168	0xbd52e0e4	-0.051484004
169	0x3e28db5a	0.16489926
170	0xbd7af7e0	-0.06127155
171	0x3e060c82	0.13090709
172	0x3e2a270e	0.1661646
173	0xbd1fc14c	-0.0390027
174	0xbe396754	-0.18105823
175	0xbdd1b623	-0.10239818
176	0x3e14c2be	0.14527413
177	0x3d839f1c	0.06426832
178	0x3d96a654	0.07355943
179	0x3d190fec	0.0373687
180	0x3c39b350	0.011334255
181	0x3e2a60c4	0.16638476
182	0xbe3b0d85	-0.18266876
183	0x3d47cdd8	0.048780292
184	0x3d5d1d10	0.053982794
185	0xbe08f546	-0.13374814
186	0x3de6f328	0.11276847
187	0x3dfb7200	0.12277603
188	0xbc4e44a0	-0.012589604
189	0x3e247dc4	0.16063601
190	0x3d93fc00	0.072257996
191	0x3cc2cff8	0.023780808
192	0xbe0784b1	-0.13234212
193	0x3e3e1068	0.18560946
194	0xbe0ec66f	-0.13942884
195	0xbdf54ac0	-0.11977148
196	0xbd01cc00	-0.03168869
197	0x3d425ccc	0.04745178
198	0xbdce60de	-0.1007707
199	0xbe0e1d89	-0.13878454
200	0x3a872c80	0.0010312945
201	0xbd24ae1c	-0.040205106
202	0x3d620020	0.0551759
203	0xbdfa8468	-0.12232286
204	0x3c428950	0.011873558
205	0x3d65ef34	0.056136325
206	0x3e1915b8	0.14949691
207	0x3e405dea	0.18785825
208	0xbd1cb1c0	-0.038255453
209	0x3e1d91d4	0.1538766
210	0x3d450620	0.048101544
211	0xbdb6075d	-0.08888123
212	0xbe401f67	-0.18761979
213	0xbe2571f9	-0.16156758
214	0x3b59e0c0	0.0033245534
215	0xbde57e3b	-0.11205717
216	0xbe4585a0	-0.19289255
217	0x3d9c0134	0.07617417
218	0x3c346810	0.011011139
219	0xbdb8c617	-0.09022158
220	0x3df8192c	0.12114176
221	0x3e456bd2	0.19279411
222	0xbd823d5a	-0.06359358
223	0x3de38a58	0.11110371
224	0xbd8b4b2e	-0.06801449
225	0xbdb40e12	-0.08791746
226	0xbe2d8b9f	-0.16947792
227	0xbdd75164	-0.10513571
228	0x3df5279c	0.119704455
229	0x3dc985d0	0.09839976
230	0xbd8654ce	-0.06559144
231	0xbe06ce19	-0.13164558
232	0xbdfee8a9	-0.1244672
233	0xbd361708	-0.044455558
234	0xbe3e613d	-0.18591781
235	0xbc336a90	-0.010950699
236	0xbbcc3940	-0.0062324107
237	0x3d4bb8a0	0.04973662
238	0x3d99a420	0.075020075
239	0xbde79330	-0.11307371
240	0x3da45998	0.08024901
241	0xbd9f57d6	-0.07780425
242	0xbcb49068	-0.022041515
243	0x3e11b254	0.14228183
244	0x3e1422da	0.1446642
245	0xbc6f2850	-0.014597014
246	0x3e2980cc	0.16553038
247	0xbdeeebcd	-0.11666069
248	0xbe0709c1	-0.13187315
249	0xbe43c0b8	-0.19116485
250	0xbd8aec08	-0.06783301
251	0x3d1bcf4c	0.03803949
252	0xbdc4329e	-0.09579967
253	0xbd0e5158	-0.034745544
254	0x3d89718c	0.067111105
255	0xbc0de8b0	-0.008661434
